<?xml version="1.0" encoding="UTF-8"?>
<net name="resnet_50" version="3" batch="1">
	<layers>
		<layer name="data" type="Input" precision="FP32" id="0">
			<output>
				<port id="0">
					<dim>1</dim>
					<dim>3</dim>
					<dim>224</dim>
					<dim>224</dim>
				</port>
			</output>
		</layer>
		<layer name="Add_" type="ScaleShift" precision="FP32" id="1">
			<data broadcast="0"/>
			<input>
				<port id="0">
					<dim>1</dim>
					<dim>3</dim>
					<dim>224</dim>
					<dim>224</dim>
				</port>
			</input>
			<output>
				<port id="1">
					<dim>1</dim>
					<dim>3</dim>
					<dim>224</dim>
					<dim>224</dim>
				</port>
			</output>
			<blobs>
				<biases offset="0" size="12"/>
				<weights offset="12" size="12"/>
			</blobs>
		</layer>
		<layer name="conv1" type="Convolution" precision="FP32" id="2">
			<data dilations="1,1" group="1" kernel="7,7" output="64" pads_begin="3,3" pads_end="3,3" quantization_level="I8" strides="2,2"/>
			<input>
				<port id="0">
					<dim>1</dim>
					<dim>3</dim>
					<dim>224</dim>
					<dim>224</dim>
				</port>
			</input>
			<output>
				<port id="1">
					<dim>1</dim>
					<dim>64</dim>
					<dim>112</dim>
					<dim>112</dim>
				</port>
			</output>
			<blobs>
				<biases offset="24" size="256"/>
				<weights offset="280" size="37632"/>
			</blobs>
		</layer>
		<layer name="conv1_relu" type="ReLU" precision="FP32" id="3">
			<data negative_slope="0.0"/>
			<input>
				<port id="0">
					<dim>1</dim>
					<dim>64</dim>
					<dim>112</dim>
					<dim>112</dim>
				</port>
			</input>
			<output>
				<port id="1">
					<dim>1</dim>
					<dim>64</dim>
					<dim>112</dim>
					<dim>112</dim>
				</port>
			</output>
		</layer>
		<layer name="pool1" type="Pooling" precision="FP32" id="4">
			<data exclude-pad="true" kernel="3,3" pads_begin="0,0" pads_end="0,0" pool-method="max" rounding_type="ceil" strides="2,2"/>
			<input>
				<port id="0">
					<dim>1</dim>
					<dim>64</dim>
					<dim>112</dim>
					<dim>112</dim>
				</port>
			</input>
			<output>
				<port id="1">
					<dim>1</dim>
					<dim>64</dim>
					<dim>56</dim>
					<dim>56</dim>
				</port>
			</output>
		</layer>
		<layer name="res2a_branch2a" type="Convolution" precision="FP32" id="5">
			<data dilations="1,1" group="1" kernel="1,1" output="64" pads_begin="0,0" pads_end="0,0" quantization_level="I8" strides="1,1"/>
			<input>
				<port id="0">
					<dim>1</dim>
					<dim>64</dim>
					<dim>56</dim>
					<dim>56</dim>
				</port>
			</input>
			<output>
				<port id="1">
					<dim>1</dim>
					<dim>64</dim>
					<dim>56</dim>
					<dim>56</dim>
				</port>
			</output>
			<blobs>
				<biases offset="37912" size="256"/>
				<weights offset="38168" size="16384"/>
			</blobs>
		</layer>
		<layer name="res2a_branch2a_relu" type="ReLU" precision="FP32" id="6">
			<data negative_slope="0.0"/>
			<input>
				<port id="0">
					<dim>1</dim>
					<dim>64</dim>
					<dim>56</dim>
					<dim>56</dim>
				</port>
			</input>
			<output>
				<port id="1">
					<dim>1</dim>
					<dim>64</dim>
					<dim>56</dim>
					<dim>56</dim>
				</port>
			</output>
		</layer>
		<layer name="res2a_branch2b" type="Convolution" precision="FP32" id="7">
			<data dilations="1,1" group="1" kernel="3,3" output="64" pads_begin="1,1" pads_end="1,1" quantization_level="I8" strides="1,1"/>
			<input>
				<port id="0">
					<dim>1</dim>
					<dim>64</dim>
					<dim>56</dim>
					<dim>56</dim>
				</port>
			</input>
			<output>
				<port id="1">
					<dim>1</dim>
					<dim>64</dim>
					<dim>56</dim>
					<dim>56</dim>
				</port>
			</output>
			<blobs>
				<biases offset="54552" size="256"/>
				<weights offset="54808" size="147456"/>
			</blobs>
		</layer>
		<layer name="res2a_branch2b_relu" type="ReLU" precision="FP32" id="8">
			<data negative_slope="0.0"/>
			<input>
				<port id="0">
					<dim>1</dim>
					<dim>64</dim>
					<dim>56</dim>
					<dim>56</dim>
				</port>
			</input>
			<output>
				<port id="1">
					<dim>1</dim>
					<dim>64</dim>
					<dim>56</dim>
					<dim>56</dim>
				</port>
			</output>
		</layer>
		<layer name="res2a_branch2c" type="Convolution" precision="FP32" id="9">
			<data dilations="1,1" group="1" kernel="1,1" output="256" pads_begin="0,0" pads_end="0,0" quantization_level="I8" strides="1,1"/>
			<input>
				<port id="0">
					<dim>1</dim>
					<dim>64</dim>
					<dim>56</dim>
					<dim>56</dim>
				</port>
			</input>
			<output>
				<port id="1">
					<dim>1</dim>
					<dim>256</dim>
					<dim>56</dim>
					<dim>56</dim>
				</port>
			</output>
			<blobs>
				<biases offset="202264" size="1024"/>
				<weights offset="203288" size="65536"/>
			</blobs>
		</layer>
		<layer name="res2a_branch1" type="Convolution" precision="FP32" id="10">
			<data dilations="1,1" group="1" kernel="1,1" output="256" pads_begin="0,0" pads_end="0,0" quantization_level="I8" strides="1,1"/>
			<input>
				<port id="0">
					<dim>1</dim>
					<dim>64</dim>
					<dim>56</dim>
					<dim>56</dim>
				</port>
			</input>
			<output>
				<port id="1">
					<dim>1</dim>
					<dim>256</dim>
					<dim>56</dim>
					<dim>56</dim>
				</port>
			</output>
			<blobs>
				<biases offset="268824" size="1024"/>
				<weights offset="269848" size="65536"/>
			</blobs>
		</layer>
		<layer name="res2a" type="Eltwise" precision="FP32" id="11">
			<data coeff="" operation="sum"/>
			<input>
				<port id="0">
					<dim>1</dim>
					<dim>256</dim>
					<dim>56</dim>
					<dim>56</dim>
				</port>
				<port id="1">
					<dim>1</dim>
					<dim>256</dim>
					<dim>56</dim>
					<dim>56</dim>
				</port>
			</input>
			<output>
				<port id="2">
					<dim>1</dim>
					<dim>256</dim>
					<dim>56</dim>
					<dim>56</dim>
				</port>
			</output>
		</layer>
		<layer name="res2a_relu" type="ReLU" precision="FP32" id="12">
			<data negative_slope="0.0"/>
			<input>
				<port id="0">
					<dim>1</dim>
					<dim>256</dim>
					<dim>56</dim>
					<dim>56</dim>
				</port>
			</input>
			<output>
				<port id="1">
					<dim>1</dim>
					<dim>256</dim>
					<dim>56</dim>
					<dim>56</dim>
				</port>
			</output>
		</layer>
		<layer name="res2b_branch2a" type="Convolution" precision="FP32" id="13">
			<data dilations="1,1" group="1" kernel="1,1" output="64" pads_begin="0,0" pads_end="0,0" quantization_level="I8" strides="1,1"/>
			<input>
				<port id="0">
					<dim>1</dim>
					<dim>256</dim>
					<dim>56</dim>
					<dim>56</dim>
				</port>
			</input>
			<output>
				<port id="1">
					<dim>1</dim>
					<dim>64</dim>
					<dim>56</dim>
					<dim>56</dim>
				</port>
			</output>
			<blobs>
				<biases offset="335384" size="256"/>
				<weights offset="335640" size="65536"/>
			</blobs>
		</layer>
		<layer name="res2b_branch2a_relu" type="ReLU" precision="FP32" id="14">
			<data negative_slope="0.0"/>
			<input>
				<port id="0">
					<dim>1</dim>
					<dim>64</dim>
					<dim>56</dim>
					<dim>56</dim>
				</port>
			</input>
			<output>
				<port id="1">
					<dim>1</dim>
					<dim>64</dim>
					<dim>56</dim>
					<dim>56</dim>
				</port>
			</output>
		</layer>
		<layer name="res2b_branch2b" type="Convolution" precision="FP32" id="15">
			<data dilations="1,1" group="1" kernel="3,3" output="64" pads_begin="1,1" pads_end="1,1" quantization_level="I8" strides="1,1"/>
			<input>
				<port id="0">
					<dim>1</dim>
					<dim>64</dim>
					<dim>56</dim>
					<dim>56</dim>
				</port>
			</input>
			<output>
				<port id="1">
					<dim>1</dim>
					<dim>64</dim>
					<dim>56</dim>
					<dim>56</dim>
				</port>
			</output>
			<blobs>
				<biases offset="401176" size="256"/>
				<weights offset="401432" size="147456"/>
			</blobs>
		</layer>
		<layer name="res2b_branch2b_relu" type="ReLU" precision="FP32" id="16">
			<data negative_slope="0.0"/>
			<input>
				<port id="0">
					<dim>1</dim>
					<dim>64</dim>
					<dim>56</dim>
					<dim>56</dim>
				</port>
			</input>
			<output>
				<port id="1">
					<dim>1</dim>
					<dim>64</dim>
					<dim>56</dim>
					<dim>56</dim>
				</port>
			</output>
		</layer>
		<layer name="res2b_branch2c" type="Convolution" precision="FP32" id="17">
			<data dilations="1,1" group="1" kernel="1,1" output="256" pads_begin="0,0" pads_end="0,0" quantization_level="I8" strides="1,1"/>
			<input>
				<port id="0">
					<dim>1</dim>
					<dim>64</dim>
					<dim>56</dim>
					<dim>56</dim>
				</port>
			</input>
			<output>
				<port id="1">
					<dim>1</dim>
					<dim>256</dim>
					<dim>56</dim>
					<dim>56</dim>
				</port>
			</output>
			<blobs>
				<biases offset="548888" size="1024"/>
				<weights offset="549912" size="65536"/>
			</blobs>
		</layer>
		<layer name="res2b" type="Eltwise" precision="FP32" id="18">
			<data coeff="" operation="sum"/>
			<input>
				<port id="0">
					<dim>1</dim>
					<dim>256</dim>
					<dim>56</dim>
					<dim>56</dim>
				</port>
				<port id="1">
					<dim>1</dim>
					<dim>256</dim>
					<dim>56</dim>
					<dim>56</dim>
				</port>
			</input>
			<output>
				<port id="2">
					<dim>1</dim>
					<dim>256</dim>
					<dim>56</dim>
					<dim>56</dim>
				</port>
			</output>
		</layer>
		<layer name="res2b_relu" type="ReLU" precision="FP32" id="19">
			<data negative_slope="0.0"/>
			<input>
				<port id="0">
					<dim>1</dim>
					<dim>256</dim>
					<dim>56</dim>
					<dim>56</dim>
				</port>
			</input>
			<output>
				<port id="1">
					<dim>1</dim>
					<dim>256</dim>
					<dim>56</dim>
					<dim>56</dim>
				</port>
			</output>
		</layer>
		<layer name="res2c_branch2a" type="Convolution" precision="FP32" id="20">
			<data dilations="1,1" group="1" kernel="1,1" output="64" pads_begin="0,0" pads_end="0,0" quantization_level="I8" strides="1,1"/>
			<input>
				<port id="0">
					<dim>1</dim>
					<dim>256</dim>
					<dim>56</dim>
					<dim>56</dim>
				</port>
			</input>
			<output>
				<port id="1">
					<dim>1</dim>
					<dim>64</dim>
					<dim>56</dim>
					<dim>56</dim>
				</port>
			</output>
			<blobs>
				<biases offset="615448" size="256"/>
				<weights offset="615704" size="65536"/>
			</blobs>
		</layer>
		<layer name="res2c_branch2a_relu" type="ReLU" precision="FP32" id="21">
			<data negative_slope="0.0"/>
			<input>
				<port id="0">
					<dim>1</dim>
					<dim>64</dim>
					<dim>56</dim>
					<dim>56</dim>
				</port>
			</input>
			<output>
				<port id="1">
					<dim>1</dim>
					<dim>64</dim>
					<dim>56</dim>
					<dim>56</dim>
				</port>
			</output>
		</layer>
		<layer name="res2c_branch2b" type="Convolution" precision="FP32" id="22">
			<data dilations="1,1" group="1" kernel="3,3" output="64" pads_begin="1,1" pads_end="1,1" quantization_level="I8" strides="2,2"/>
			<input>
				<port id="0">
					<dim>1</dim>
					<dim>64</dim>
					<dim>56</dim>
					<dim>56</dim>
				</port>
			</input>
			<output>
				<port id="1">
					<dim>1</dim>
					<dim>64</dim>
					<dim>28</dim>
					<dim>28</dim>
				</port>
			</output>
			<blobs>
				<biases offset="681240" size="256"/>
				<weights offset="681496" size="147456"/>
			</blobs>
		</layer>
		<layer name="res2c_branch2b_relu" type="ReLU" precision="FP32" id="23">
			<data negative_slope="0.0"/>
			<input>
				<port id="0">
					<dim>1</dim>
					<dim>64</dim>
					<dim>28</dim>
					<dim>28</dim>
				</port>
			</input>
			<output>
				<port id="1">
					<dim>1</dim>
					<dim>64</dim>
					<dim>28</dim>
					<dim>28</dim>
				</port>
			</output>
		</layer>
		<layer name="res2c_branch2c" type="Convolution" precision="FP32" id="24">
			<data dilations="1,1" group="1" kernel="1,1" output="256" pads_begin="0,0" pads_end="0,0" quantization_level="I8" strides="1,1"/>
			<input>
				<port id="0">
					<dim>1</dim>
					<dim>64</dim>
					<dim>28</dim>
					<dim>28</dim>
				</port>
			</input>
			<output>
				<port id="1">
					<dim>1</dim>
					<dim>256</dim>
					<dim>28</dim>
					<dim>28</dim>
				</port>
			</output>
			<blobs>
				<biases offset="828952" size="1024"/>
				<weights offset="829976" size="65536"/>
			</blobs>
		</layer>
		<layer name="Pooling_1372" type="Pooling" precision="FP32" id="25">
			<data kernel="1,1" pads_begin="0,0" pads_end="0,0" pool-method="max" strides="2,2"/>
			<input>
				<port id="0">
					<dim>1</dim>
					<dim>256</dim>
					<dim>56</dim>
					<dim>56</dim>
				</port>
			</input>
			<output>
				<port id="1">
					<dim>1</dim>
					<dim>256</dim>
					<dim>28</dim>
					<dim>28</dim>
				</port>
			</output>
		</layer>
		<layer name="res2c" type="Eltwise" precision="FP32" id="26">
			<data coeff="" operation="sum"/>
			<input>
				<port id="0">
					<dim>1</dim>
					<dim>256</dim>
					<dim>28</dim>
					<dim>28</dim>
				</port>
				<port id="1">
					<dim>1</dim>
					<dim>256</dim>
					<dim>28</dim>
					<dim>28</dim>
				</port>
			</input>
			<output>
				<port id="2">
					<dim>1</dim>
					<dim>256</dim>
					<dim>28</dim>
					<dim>28</dim>
				</port>
			</output>
		</layer>
		<layer name="res2c_relu" type="ReLU" precision="FP32" id="27">
			<data negative_slope="0.0"/>
			<input>
				<port id="0">
					<dim>1</dim>
					<dim>256</dim>
					<dim>28</dim>
					<dim>28</dim>
				</port>
			</input>
			<output>
				<port id="1">
					<dim>1</dim>
					<dim>256</dim>
					<dim>28</dim>
					<dim>28</dim>
				</port>
			</output>
		</layer>
		<layer name="res3a_branch2a" type="Convolution" precision="FP32" id="28">
			<data dilations="1,1" group="1" kernel="1,1" output="128" pads_begin="0,0" pads_end="0,0" quantization_level="I8" strides="1,1"/>
			<input>
				<port id="0">
					<dim>1</dim>
					<dim>256</dim>
					<dim>28</dim>
					<dim>28</dim>
				</port>
			</input>
			<output>
				<port id="1">
					<dim>1</dim>
					<dim>128</dim>
					<dim>28</dim>
					<dim>28</dim>
				</port>
			</output>
			<blobs>
				<biases offset="895512" size="512"/>
				<weights offset="896024" size="131072"/>
			</blobs>
		</layer>
		<layer name="res3a_branch2a_relu" type="ReLU" precision="FP32" id="29">
			<data negative_slope="0.0"/>
			<input>
				<port id="0">
					<dim>1</dim>
					<dim>128</dim>
					<dim>28</dim>
					<dim>28</dim>
				</port>
			</input>
			<output>
				<port id="1">
					<dim>1</dim>
					<dim>128</dim>
					<dim>28</dim>
					<dim>28</dim>
				</port>
			</output>
		</layer>
		<layer name="res3a_branch2b" type="Convolution" precision="FP32" id="30">
			<data dilations="1,1" group="1" kernel="3,3" output="128" pads_begin="1,1" pads_end="1,1" quantization_level="I8" strides="1,1"/>
			<input>
				<port id="0">
					<dim>1</dim>
					<dim>128</dim>
					<dim>28</dim>
					<dim>28</dim>
				</port>
			</input>
			<output>
				<port id="1">
					<dim>1</dim>
					<dim>128</dim>
					<dim>28</dim>
					<dim>28</dim>
				</port>
			</output>
			<blobs>
				<biases offset="1027096" size="512"/>
				<weights offset="1027608" size="589824"/>
			</blobs>
		</layer>
		<layer name="res3a_branch2b_relu" type="ReLU" precision="FP32" id="31">
			<data negative_slope="0.0"/>
			<input>
				<port id="0">
					<dim>1</dim>
					<dim>128</dim>
					<dim>28</dim>
					<dim>28</dim>
				</port>
			</input>
			<output>
				<port id="1">
					<dim>1</dim>
					<dim>128</dim>
					<dim>28</dim>
					<dim>28</dim>
				</port>
			</output>
		</layer>
		<layer name="res3a_branch2c" type="Convolution" precision="FP32" id="32">
			<data dilations="1,1" group="1" kernel="1,1" output="512" pads_begin="0,0" pads_end="0,0" quantization_level="I8" strides="1,1"/>
			<input>
				<port id="0">
					<dim>1</dim>
					<dim>128</dim>
					<dim>28</dim>
					<dim>28</dim>
				</port>
			</input>
			<output>
				<port id="1">
					<dim>1</dim>
					<dim>512</dim>
					<dim>28</dim>
					<dim>28</dim>
				</port>
			</output>
			<blobs>
				<biases offset="1617432" size="2048"/>
				<weights offset="1619480" size="262144"/>
			</blobs>
		</layer>
		<layer name="res3a_branch1" type="Convolution" precision="FP32" id="33">
			<data dilations="1,1" group="1" kernel="1,1" output="512" pads_begin="0,0" pads_end="0,0" quantization_level="I8" strides="1,1"/>
			<input>
				<port id="0">
					<dim>1</dim>
					<dim>256</dim>
					<dim>28</dim>
					<dim>28</dim>
				</port>
			</input>
			<output>
				<port id="1">
					<dim>1</dim>
					<dim>512</dim>
					<dim>28</dim>
					<dim>28</dim>
				</port>
			</output>
			<blobs>
				<biases offset="1881624" size="2048"/>
				<weights offset="1883672" size="524288"/>
			</blobs>
		</layer>
		<layer name="res3a" type="Eltwise" precision="FP32" id="34">
			<data coeff="" operation="sum"/>
			<input>
				<port id="0">
					<dim>1</dim>
					<dim>512</dim>
					<dim>28</dim>
					<dim>28</dim>
				</port>
				<port id="1">
					<dim>1</dim>
					<dim>512</dim>
					<dim>28</dim>
					<dim>28</dim>
				</port>
			</input>
			<output>
				<port id="2">
					<dim>1</dim>
					<dim>512</dim>
					<dim>28</dim>
					<dim>28</dim>
				</port>
			</output>
		</layer>
		<layer name="res3a_relu" type="ReLU" precision="FP32" id="35">
			<data negative_slope="0.0"/>
			<input>
				<port id="0">
					<dim>1</dim>
					<dim>512</dim>
					<dim>28</dim>
					<dim>28</dim>
				</port>
			</input>
			<output>
				<port id="1">
					<dim>1</dim>
					<dim>512</dim>
					<dim>28</dim>
					<dim>28</dim>
				</port>
			</output>
		</layer>
		<layer name="res3b_branch2a" type="Convolution" precision="FP32" id="36">
			<data dilations="1,1" group="1" kernel="1,1" output="128" pads_begin="0,0" pads_end="0,0" quantization_level="I8" strides="1,1"/>
			<input>
				<port id="0">
					<dim>1</dim>
					<dim>512</dim>
					<dim>28</dim>
					<dim>28</dim>
				</port>
			</input>
			<output>
				<port id="1">
					<dim>1</dim>
					<dim>128</dim>
					<dim>28</dim>
					<dim>28</dim>
				</port>
			</output>
			<blobs>
				<biases offset="2407960" size="512"/>
				<weights offset="2408472" size="262144"/>
			</blobs>
		</layer>
		<layer name="res3b_branch2a_relu" type="ReLU" precision="FP32" id="37">
			<data negative_slope="0.0"/>
			<input>
				<port id="0">
					<dim>1</dim>
					<dim>128</dim>
					<dim>28</dim>
					<dim>28</dim>
				</port>
			</input>
			<output>
				<port id="1">
					<dim>1</dim>
					<dim>128</dim>
					<dim>28</dim>
					<dim>28</dim>
				</port>
			</output>
		</layer>
		<layer name="res3b_branch2b" type="Convolution" precision="FP32" id="38">
			<data dilations="1,1" group="1" kernel="3,3" output="128" pads_begin="1,1" pads_end="1,1" quantization_level="I8" strides="1,1"/>
			<input>
				<port id="0">
					<dim>1</dim>
					<dim>128</dim>
					<dim>28</dim>
					<dim>28</dim>
				</port>
			</input>
			<output>
				<port id="1">
					<dim>1</dim>
					<dim>128</dim>
					<dim>28</dim>
					<dim>28</dim>
				</port>
			</output>
			<blobs>
				<biases offset="2670616" size="512"/>
				<weights offset="2671128" size="589824"/>
			</blobs>
		</layer>
		<layer name="res3b_branch2b_relu" type="ReLU" precision="FP32" id="39">
			<data negative_slope="0.0"/>
			<input>
				<port id="0">
					<dim>1</dim>
					<dim>128</dim>
					<dim>28</dim>
					<dim>28</dim>
				</port>
			</input>
			<output>
				<port id="1">
					<dim>1</dim>
					<dim>128</dim>
					<dim>28</dim>
					<dim>28</dim>
				</port>
			</output>
		</layer>
		<layer name="res3b_branch2c" type="Convolution" precision="FP32" id="40">
			<data dilations="1,1" group="1" kernel="1,1" output="512" pads_begin="0,0" pads_end="0,0" quantization_level="I8" strides="1,1"/>
			<input>
				<port id="0">
					<dim>1</dim>
					<dim>128</dim>
					<dim>28</dim>
					<dim>28</dim>
				</port>
			</input>
			<output>
				<port id="1">
					<dim>1</dim>
					<dim>512</dim>
					<dim>28</dim>
					<dim>28</dim>
				</port>
			</output>
			<blobs>
				<biases offset="3260952" size="2048"/>
				<weights offset="3263000" size="262144"/>
			</blobs>
		</layer>
		<layer name="res3b" type="Eltwise" precision="FP32" id="41">
			<data coeff="" operation="sum"/>
			<input>
				<port id="0">
					<dim>1</dim>
					<dim>512</dim>
					<dim>28</dim>
					<dim>28</dim>
				</port>
				<port id="1">
					<dim>1</dim>
					<dim>512</dim>
					<dim>28</dim>
					<dim>28</dim>
				</port>
			</input>
			<output>
				<port id="2">
					<dim>1</dim>
					<dim>512</dim>
					<dim>28</dim>
					<dim>28</dim>
				</port>
			</output>
		</layer>
		<layer name="res3b_relu" type="ReLU" precision="FP32" id="42">
			<data negative_slope="0.0"/>
			<input>
				<port id="0">
					<dim>1</dim>
					<dim>512</dim>
					<dim>28</dim>
					<dim>28</dim>
				</port>
			</input>
			<output>
				<port id="1">
					<dim>1</dim>
					<dim>512</dim>
					<dim>28</dim>
					<dim>28</dim>
				</port>
			</output>
		</layer>
		<layer name="res3c_branch2a" type="Convolution" precision="FP32" id="43">
			<data dilations="1,1" group="1" kernel="1,1" output="128" pads_begin="0,0" pads_end="0,0" quantization_level="I8" strides="1,1"/>
			<input>
				<port id="0">
					<dim>1</dim>
					<dim>512</dim>
					<dim>28</dim>
					<dim>28</dim>
				</port>
			</input>
			<output>
				<port id="1">
					<dim>1</dim>
					<dim>128</dim>
					<dim>28</dim>
					<dim>28</dim>
				</port>
			</output>
			<blobs>
				<biases offset="3525144" size="512"/>
				<weights offset="3525656" size="262144"/>
			</blobs>
		</layer>
		<layer name="res3c_branch2a_relu" type="ReLU" precision="FP32" id="44">
			<data negative_slope="0.0"/>
			<input>
				<port id="0">
					<dim>1</dim>
					<dim>128</dim>
					<dim>28</dim>
					<dim>28</dim>
				</port>
			</input>
			<output>
				<port id="1">
					<dim>1</dim>
					<dim>128</dim>
					<dim>28</dim>
					<dim>28</dim>
				</port>
			</output>
		</layer>
		<layer name="res3c_branch2b" type="Convolution" precision="FP32" id="45">
			<data dilations="1,1" group="1" kernel="3,3" output="128" pads_begin="1,1" pads_end="1,1" quantization_level="I8" strides="1,1"/>
			<input>
				<port id="0">
					<dim>1</dim>
					<dim>128</dim>
					<dim>28</dim>
					<dim>28</dim>
				</port>
			</input>
			<output>
				<port id="1">
					<dim>1</dim>
					<dim>128</dim>
					<dim>28</dim>
					<dim>28</dim>
				</port>
			</output>
			<blobs>
				<biases offset="3787800" size="512"/>
				<weights offset="3788312" size="589824"/>
			</blobs>
		</layer>
		<layer name="res3c_branch2b_relu" type="ReLU" precision="FP32" id="46">
			<data negative_slope="0.0"/>
			<input>
				<port id="0">
					<dim>1</dim>
					<dim>128</dim>
					<dim>28</dim>
					<dim>28</dim>
				</port>
			</input>
			<output>
				<port id="1">
					<dim>1</dim>
					<dim>128</dim>
					<dim>28</dim>
					<dim>28</dim>
				</port>
			</output>
		</layer>
		<layer name="res3c_branch2c" type="Convolution" precision="FP32" id="47">
			<data dilations="1,1" group="1" kernel="1,1" output="512" pads_begin="0,0" pads_end="0,0" quantization_level="I8" strides="1,1"/>
			<input>
				<port id="0">
					<dim>1</dim>
					<dim>128</dim>
					<dim>28</dim>
					<dim>28</dim>
				</port>
			</input>
			<output>
				<port id="1">
					<dim>1</dim>
					<dim>512</dim>
					<dim>28</dim>
					<dim>28</dim>
				</port>
			</output>
			<blobs>
				<biases offset="4378136" size="2048"/>
				<weights offset="4380184" size="262144"/>
			</blobs>
		</layer>
		<layer name="res3c" type="Eltwise" precision="FP32" id="48">
			<data coeff="" operation="sum"/>
			<input>
				<port id="0">
					<dim>1</dim>
					<dim>512</dim>
					<dim>28</dim>
					<dim>28</dim>
				</port>
				<port id="1">
					<dim>1</dim>
					<dim>512</dim>
					<dim>28</dim>
					<dim>28</dim>
				</port>
			</input>
			<output>
				<port id="2">
					<dim>1</dim>
					<dim>512</dim>
					<dim>28</dim>
					<dim>28</dim>
				</port>
			</output>
		</layer>
		<layer name="res3c_relu" type="ReLU" precision="FP32" id="49">
			<data negative_slope="0.0"/>
			<input>
				<port id="0">
					<dim>1</dim>
					<dim>512</dim>
					<dim>28</dim>
					<dim>28</dim>
				</port>
			</input>
			<output>
				<port id="1">
					<dim>1</dim>
					<dim>512</dim>
					<dim>28</dim>
					<dim>28</dim>
				</port>
			</output>
		</layer>
		<layer name="res3d_branch2a" type="Convolution" precision="FP32" id="50">
			<data dilations="1,1" group="1" kernel="1,1" output="128" pads_begin="0,0" pads_end="0,0" quantization_level="I8" strides="1,1"/>
			<input>
				<port id="0">
					<dim>1</dim>
					<dim>512</dim>
					<dim>28</dim>
					<dim>28</dim>
				</port>
			</input>
			<output>
				<port id="1">
					<dim>1</dim>
					<dim>128</dim>
					<dim>28</dim>
					<dim>28</dim>
				</port>
			</output>
			<blobs>
				<biases offset="4642328" size="512"/>
				<weights offset="4642840" size="262144"/>
			</blobs>
		</layer>
		<layer name="res3d_branch2a_relu" type="ReLU" precision="FP32" id="51">
			<data negative_slope="0.0"/>
			<input>
				<port id="0">
					<dim>1</dim>
					<dim>128</dim>
					<dim>28</dim>
					<dim>28</dim>
				</port>
			</input>
			<output>
				<port id="1">
					<dim>1</dim>
					<dim>128</dim>
					<dim>28</dim>
					<dim>28</dim>
				</port>
			</output>
		</layer>
		<layer name="res3d_branch2b" type="Convolution" precision="FP32" id="52">
			<data dilations="1,1" group="1" kernel="3,3" output="128" pads_begin="1,1" pads_end="1,1" quantization_level="I8" strides="2,2"/>
			<input>
				<port id="0">
					<dim>1</dim>
					<dim>128</dim>
					<dim>28</dim>
					<dim>28</dim>
				</port>
			</input>
			<output>
				<port id="1">
					<dim>1</dim>
					<dim>128</dim>
					<dim>14</dim>
					<dim>14</dim>
				</port>
			</output>
			<blobs>
				<biases offset="4904984" size="512"/>
				<weights offset="4905496" size="589824"/>
			</blobs>
		</layer>
		<layer name="res3d_branch2b_relu" type="ReLU" precision="FP32" id="53">
			<data negative_slope="0.0"/>
			<input>
				<port id="0">
					<dim>1</dim>
					<dim>128</dim>
					<dim>14</dim>
					<dim>14</dim>
				</port>
			</input>
			<output>
				<port id="1">
					<dim>1</dim>
					<dim>128</dim>
					<dim>14</dim>
					<dim>14</dim>
				</port>
			</output>
		</layer>
		<layer name="res3d_branch2c" type="Convolution" precision="FP32" id="54">
			<data dilations="1,1" group="1" kernel="1,1" output="512" pads_begin="0,0" pads_end="0,0" quantization_level="I8" strides="1,1"/>
			<input>
				<port id="0">
					<dim>1</dim>
					<dim>128</dim>
					<dim>14</dim>
					<dim>14</dim>
				</port>
			</input>
			<output>
				<port id="1">
					<dim>1</dim>
					<dim>512</dim>
					<dim>14</dim>
					<dim>14</dim>
				</port>
			</output>
			<blobs>
				<biases offset="5495320" size="2048"/>
				<weights offset="5497368" size="262144"/>
			</blobs>
		</layer>
		<layer name="Pooling_1370" type="Pooling" precision="FP32" id="55">
			<data kernel="1,1" pads_begin="0,0" pads_end="0,0" pool-method="max" strides="2,2"/>
			<input>
				<port id="0">
					<dim>1</dim>
					<dim>512</dim>
					<dim>28</dim>
					<dim>28</dim>
				</port>
			</input>
			<output>
				<port id="1">
					<dim>1</dim>
					<dim>512</dim>
					<dim>14</dim>
					<dim>14</dim>
				</port>
			</output>
		</layer>
		<layer name="res3d" type="Eltwise" precision="FP32" id="56">
			<data coeff="" operation="sum"/>
			<input>
				<port id="0">
					<dim>1</dim>
					<dim>512</dim>
					<dim>14</dim>
					<dim>14</dim>
				</port>
				<port id="1">
					<dim>1</dim>
					<dim>512</dim>
					<dim>14</dim>
					<dim>14</dim>
				</port>
			</input>
			<output>
				<port id="2">
					<dim>1</dim>
					<dim>512</dim>
					<dim>14</dim>
					<dim>14</dim>
				</port>
			</output>
		</layer>
		<layer name="res3d_relu" type="ReLU" precision="FP32" id="57">
			<data negative_slope="0.0"/>
			<input>
				<port id="0">
					<dim>1</dim>
					<dim>512</dim>
					<dim>14</dim>
					<dim>14</dim>
				</port>
			</input>
			<output>
				<port id="1">
					<dim>1</dim>
					<dim>512</dim>
					<dim>14</dim>
					<dim>14</dim>
				</port>
			</output>
		</layer>
		<layer name="res4a_branch2a" type="Convolution" precision="FP32" id="58">
			<data dilations="1,1" group="1" kernel="1,1" output="256" pads_begin="0,0" pads_end="0,0" quantization_level="I8" strides="1,1"/>
			<input>
				<port id="0">
					<dim>1</dim>
					<dim>512</dim>
					<dim>14</dim>
					<dim>14</dim>
				</port>
			</input>
			<output>
				<port id="1">
					<dim>1</dim>
					<dim>256</dim>
					<dim>14</dim>
					<dim>14</dim>
				</port>
			</output>
			<blobs>
				<biases offset="5759512" size="1024"/>
				<weights offset="5760536" size="524288"/>
			</blobs>
		</layer>
		<layer name="res4a_branch2a_relu" type="ReLU" precision="FP32" id="59">
			<data negative_slope="0.0"/>
			<input>
				<port id="0">
					<dim>1</dim>
					<dim>256</dim>
					<dim>14</dim>
					<dim>14</dim>
				</port>
			</input>
			<output>
				<port id="1">
					<dim>1</dim>
					<dim>256</dim>
					<dim>14</dim>
					<dim>14</dim>
				</port>
			</output>
		</layer>
		<layer name="res4a_branch2b" type="Convolution" precision="FP32" id="60">
			<data dilations="1,1" group="1" kernel="3,3" output="256" pads_begin="1,1" pads_end="1,1" quantization_level="I8" strides="1,1"/>
			<input>
				<port id="0">
					<dim>1</dim>
					<dim>256</dim>
					<dim>14</dim>
					<dim>14</dim>
				</port>
			</input>
			<output>
				<port id="1">
					<dim>1</dim>
					<dim>256</dim>
					<dim>14</dim>
					<dim>14</dim>
				</port>
			</output>
			<blobs>
				<biases offset="6284824" size="1024"/>
				<weights offset="6285848" size="2359296"/>
			</blobs>
		</layer>
		<layer name="res4a_branch2b_relu" type="ReLU" precision="FP32" id="61">
			<data negative_slope="0.0"/>
			<input>
				<port id="0">
					<dim>1</dim>
					<dim>256</dim>
					<dim>14</dim>
					<dim>14</dim>
				</port>
			</input>
			<output>
				<port id="1">
					<dim>1</dim>
					<dim>256</dim>
					<dim>14</dim>
					<dim>14</dim>
				</port>
			</output>
		</layer>
		<layer name="res4a_branch2c" type="Convolution" precision="FP32" id="62">
			<data dilations="1,1" group="1" kernel="1,1" output="1024" pads_begin="0,0" pads_end="0,0" quantization_level="I8" strides="1,1"/>
			<input>
				<port id="0">
					<dim>1</dim>
					<dim>256</dim>
					<dim>14</dim>
					<dim>14</dim>
				</port>
			</input>
			<output>
				<port id="1">
					<dim>1</dim>
					<dim>1024</dim>
					<dim>14</dim>
					<dim>14</dim>
				</port>
			</output>
			<blobs>
				<biases offset="8645144" size="4096"/>
				<weights offset="8649240" size="1048576"/>
			</blobs>
		</layer>
		<layer name="res4a_branch1" type="Convolution" precision="FP32" id="63">
			<data dilations="1,1" group="1" kernel="1,1" output="1024" pads_begin="0,0" pads_end="0,0" quantization_level="I8" strides="1,1"/>
			<input>
				<port id="0">
					<dim>1</dim>
					<dim>512</dim>
					<dim>14</dim>
					<dim>14</dim>
				</port>
			</input>
			<output>
				<port id="1">
					<dim>1</dim>
					<dim>1024</dim>
					<dim>14</dim>
					<dim>14</dim>
				</port>
			</output>
			<blobs>
				<biases offset="9697816" size="4096"/>
				<weights offset="9701912" size="2097152"/>
			</blobs>
		</layer>
		<layer name="res4a" type="Eltwise" precision="FP32" id="64">
			<data coeff="" operation="sum"/>
			<input>
				<port id="0">
					<dim>1</dim>
					<dim>1024</dim>
					<dim>14</dim>
					<dim>14</dim>
				</port>
				<port id="1">
					<dim>1</dim>
					<dim>1024</dim>
					<dim>14</dim>
					<dim>14</dim>
				</port>
			</input>
			<output>
				<port id="2">
					<dim>1</dim>
					<dim>1024</dim>
					<dim>14</dim>
					<dim>14</dim>
				</port>
			</output>
		</layer>
		<layer name="res4a_relu" type="ReLU" precision="FP32" id="65">
			<data negative_slope="0.0"/>
			<input>
				<port id="0">
					<dim>1</dim>
					<dim>1024</dim>
					<dim>14</dim>
					<dim>14</dim>
				</port>
			</input>
			<output>
				<port id="1">
					<dim>1</dim>
					<dim>1024</dim>
					<dim>14</dim>
					<dim>14</dim>
				</port>
			</output>
		</layer>
		<layer name="res4b_branch2a" type="Convolution" precision="FP32" id="66">
			<data dilations="1,1" group="1" kernel="1,1" output="256" pads_begin="0,0" pads_end="0,0" quantization_level="I8" strides="1,1"/>
			<input>
				<port id="0">
					<dim>1</dim>
					<dim>1024</dim>
					<dim>14</dim>
					<dim>14</dim>
				</port>
			</input>
			<output>
				<port id="1">
					<dim>1</dim>
					<dim>256</dim>
					<dim>14</dim>
					<dim>14</dim>
				</port>
			</output>
			<blobs>
				<biases offset="11799064" size="1024"/>
				<weights offset="11800088" size="1048576"/>
			</blobs>
		</layer>
		<layer name="res4b_branch2a_relu" type="ReLU" precision="FP32" id="67">
			<data negative_slope="0.0"/>
			<input>
				<port id="0">
					<dim>1</dim>
					<dim>256</dim>
					<dim>14</dim>
					<dim>14</dim>
				</port>
			</input>
			<output>
				<port id="1">
					<dim>1</dim>
					<dim>256</dim>
					<dim>14</dim>
					<dim>14</dim>
				</port>
			</output>
		</layer>
		<layer name="res4b_branch2b" type="Convolution" precision="FP32" id="68">
			<data dilations="1,1" group="1" kernel="3,3" output="256" pads_begin="1,1" pads_end="1,1" quantization_level="I8" strides="1,1"/>
			<input>
				<port id="0">
					<dim>1</dim>
					<dim>256</dim>
					<dim>14</dim>
					<dim>14</dim>
				</port>
			</input>
			<output>
				<port id="1">
					<dim>1</dim>
					<dim>256</dim>
					<dim>14</dim>
					<dim>14</dim>
				</port>
			</output>
			<blobs>
				<biases offset="12848664" size="1024"/>
				<weights offset="12849688" size="2359296"/>
			</blobs>
		</layer>
		<layer name="res4b_branch2b_relu" type="ReLU" precision="FP32" id="69">
			<data negative_slope="0.0"/>
			<input>
				<port id="0">
					<dim>1</dim>
					<dim>256</dim>
					<dim>14</dim>
					<dim>14</dim>
				</port>
			</input>
			<output>
				<port id="1">
					<dim>1</dim>
					<dim>256</dim>
					<dim>14</dim>
					<dim>14</dim>
				</port>
			</output>
		</layer>
		<layer name="res4b_branch2c" type="Convolution" precision="FP32" id="70">
			<data dilations="1,1" group="1" kernel="1,1" output="1024" pads_begin="0,0" pads_end="0,0" quantization_level="I8" strides="1,1"/>
			<input>
				<port id="0">
					<dim>1</dim>
					<dim>256</dim>
					<dim>14</dim>
					<dim>14</dim>
				</port>
			</input>
			<output>
				<port id="1">
					<dim>1</dim>
					<dim>1024</dim>
					<dim>14</dim>
					<dim>14</dim>
				</port>
			</output>
			<blobs>
				<biases offset="15208984" size="4096"/>
				<weights offset="15213080" size="1048576"/>
			</blobs>
		</layer>
		<layer name="res4b" type="Eltwise" precision="FP32" id="71">
			<data coeff="" operation="sum"/>
			<input>
				<port id="0">
					<dim>1</dim>
					<dim>1024</dim>
					<dim>14</dim>
					<dim>14</dim>
				</port>
				<port id="1">
					<dim>1</dim>
					<dim>1024</dim>
					<dim>14</dim>
					<dim>14</dim>
				</port>
			</input>
			<output>
				<port id="2">
					<dim>1</dim>
					<dim>1024</dim>
					<dim>14</dim>
					<dim>14</dim>
				</port>
			</output>
		</layer>
		<layer name="res4b_relu" type="ReLU" precision="FP32" id="72">
			<data negative_slope="0.0"/>
			<input>
				<port id="0">
					<dim>1</dim>
					<dim>1024</dim>
					<dim>14</dim>
					<dim>14</dim>
				</port>
			</input>
			<output>
				<port id="1">
					<dim>1</dim>
					<dim>1024</dim>
					<dim>14</dim>
					<dim>14</dim>
				</port>
			</output>
		</layer>
		<layer name="res4c_branch2a" type="Convolution" precision="FP32" id="73">
			<data dilations="1,1" group="1" kernel="1,1" output="256" pads_begin="0,0" pads_end="0,0" quantization_level="I8" strides="1,1"/>
			<input>
				<port id="0">
					<dim>1</dim>
					<dim>1024</dim>
					<dim>14</dim>
					<dim>14</dim>
				</port>
			</input>
			<output>
				<port id="1">
					<dim>1</dim>
					<dim>256</dim>
					<dim>14</dim>
					<dim>14</dim>
				</port>
			</output>
			<blobs>
				<biases offset="16261656" size="1024"/>
				<weights offset="16262680" size="1048576"/>
			</blobs>
		</layer>
		<layer name="res4c_branch2a_relu" type="ReLU" precision="FP32" id="74">
			<data negative_slope="0.0"/>
			<input>
				<port id="0">
					<dim>1</dim>
					<dim>256</dim>
					<dim>14</dim>
					<dim>14</dim>
				</port>
			</input>
			<output>
				<port id="1">
					<dim>1</dim>
					<dim>256</dim>
					<dim>14</dim>
					<dim>14</dim>
				</port>
			</output>
		</layer>
		<layer name="res4c_branch2b" type="Convolution" precision="FP32" id="75">
			<data dilations="1,1" group="1" kernel="3,3" output="256" pads_begin="1,1" pads_end="1,1" quantization_level="I8" strides="1,1"/>
			<input>
				<port id="0">
					<dim>1</dim>
					<dim>256</dim>
					<dim>14</dim>
					<dim>14</dim>
				</port>
			</input>
			<output>
				<port id="1">
					<dim>1</dim>
					<dim>256</dim>
					<dim>14</dim>
					<dim>14</dim>
				</port>
			</output>
			<blobs>
				<biases offset="17311256" size="1024"/>
				<weights offset="17312280" size="2359296"/>
			</blobs>
		</layer>
		<layer name="res4c_branch2b_relu" type="ReLU" precision="FP32" id="76">
			<data negative_slope="0.0"/>
			<input>
				<port id="0">
					<dim>1</dim>
					<dim>256</dim>
					<dim>14</dim>
					<dim>14</dim>
				</port>
			</input>
			<output>
				<port id="1">
					<dim>1</dim>
					<dim>256</dim>
					<dim>14</dim>
					<dim>14</dim>
				</port>
			</output>
		</layer>
		<layer name="res4c_branch2c" type="Convolution" precision="FP32" id="77">
			<data dilations="1,1" group="1" kernel="1,1" output="1024" pads_begin="0,0" pads_end="0,0" quantization_level="I8" strides="1,1"/>
			<input>
				<port id="0">
					<dim>1</dim>
					<dim>256</dim>
					<dim>14</dim>
					<dim>14</dim>
				</port>
			</input>
			<output>
				<port id="1">
					<dim>1</dim>
					<dim>1024</dim>
					<dim>14</dim>
					<dim>14</dim>
				</port>
			</output>
			<blobs>
				<biases offset="19671576" size="4096"/>
				<weights offset="19675672" size="1048576"/>
			</blobs>
		</layer>
		<layer name="res4c" type="Eltwise" precision="FP32" id="78">
			<data coeff="" operation="sum"/>
			<input>
				<port id="0">
					<dim>1</dim>
					<dim>1024</dim>
					<dim>14</dim>
					<dim>14</dim>
				</port>
				<port id="1">
					<dim>1</dim>
					<dim>1024</dim>
					<dim>14</dim>
					<dim>14</dim>
				</port>
			</input>
			<output>
				<port id="2">
					<dim>1</dim>
					<dim>1024</dim>
					<dim>14</dim>
					<dim>14</dim>
				</port>
			</output>
		</layer>
		<layer name="res4c_relu" type="ReLU" precision="FP32" id="79">
			<data negative_slope="0.0"/>
			<input>
				<port id="0">
					<dim>1</dim>
					<dim>1024</dim>
					<dim>14</dim>
					<dim>14</dim>
				</port>
			</input>
			<output>
				<port id="1">
					<dim>1</dim>
					<dim>1024</dim>
					<dim>14</dim>
					<dim>14</dim>
				</port>
			</output>
		</layer>
		<layer name="res4d_branch2a" type="Convolution" precision="FP32" id="80">
			<data dilations="1,1" group="1" kernel="1,1" output="256" pads_begin="0,0" pads_end="0,0" quantization_level="I8" strides="1,1"/>
			<input>
				<port id="0">
					<dim>1</dim>
					<dim>1024</dim>
					<dim>14</dim>
					<dim>14</dim>
				</port>
			</input>
			<output>
				<port id="1">
					<dim>1</dim>
					<dim>256</dim>
					<dim>14</dim>
					<dim>14</dim>
				</port>
			</output>
			<blobs>
				<biases offset="20724248" size="1024"/>
				<weights offset="20725272" size="1048576"/>
			</blobs>
		</layer>
		<layer name="res4d_branch2a_relu" type="ReLU" precision="FP32" id="81">
			<data negative_slope="0.0"/>
			<input>
				<port id="0">
					<dim>1</dim>
					<dim>256</dim>
					<dim>14</dim>
					<dim>14</dim>
				</port>
			</input>
			<output>
				<port id="1">
					<dim>1</dim>
					<dim>256</dim>
					<dim>14</dim>
					<dim>14</dim>
				</port>
			</output>
		</layer>
		<layer name="res4d_branch2b" type="Convolution" precision="FP32" id="82">
			<data dilations="1,1" group="1" kernel="3,3" output="256" pads_begin="1,1" pads_end="1,1" quantization_level="I8" strides="1,1"/>
			<input>
				<port id="0">
					<dim>1</dim>
					<dim>256</dim>
					<dim>14</dim>
					<dim>14</dim>
				</port>
			</input>
			<output>
				<port id="1">
					<dim>1</dim>
					<dim>256</dim>
					<dim>14</dim>
					<dim>14</dim>
				</port>
			</output>
			<blobs>
				<biases offset="21773848" size="1024"/>
				<weights offset="21774872" size="2359296"/>
			</blobs>
		</layer>
		<layer name="res4d_branch2b_relu" type="ReLU" precision="FP32" id="83">
			<data negative_slope="0.0"/>
			<input>
				<port id="0">
					<dim>1</dim>
					<dim>256</dim>
					<dim>14</dim>
					<dim>14</dim>
				</port>
			</input>
			<output>
				<port id="1">
					<dim>1</dim>
					<dim>256</dim>
					<dim>14</dim>
					<dim>14</dim>
				</port>
			</output>
		</layer>
		<layer name="res4d_branch2c" type="Convolution" precision="FP32" id="84">
			<data dilations="1,1" group="1" kernel="1,1" output="1024" pads_begin="0,0" pads_end="0,0" quantization_level="I8" strides="1,1"/>
			<input>
				<port id="0">
					<dim>1</dim>
					<dim>256</dim>
					<dim>14</dim>
					<dim>14</dim>
				</port>
			</input>
			<output>
				<port id="1">
					<dim>1</dim>
					<dim>1024</dim>
					<dim>14</dim>
					<dim>14</dim>
				</port>
			</output>
			<blobs>
				<biases offset="24134168" size="4096"/>
				<weights offset="24138264" size="1048576"/>
			</blobs>
		</layer>
		<layer name="res4d" type="Eltwise" precision="FP32" id="85">
			<data coeff="" operation="sum"/>
			<input>
				<port id="0">
					<dim>1</dim>
					<dim>1024</dim>
					<dim>14</dim>
					<dim>14</dim>
				</port>
				<port id="1">
					<dim>1</dim>
					<dim>1024</dim>
					<dim>14</dim>
					<dim>14</dim>
				</port>
			</input>
			<output>
				<port id="2">
					<dim>1</dim>
					<dim>1024</dim>
					<dim>14</dim>
					<dim>14</dim>
				</port>
			</output>
		</layer>
		<layer name="res4d_relu" type="ReLU" precision="FP32" id="86">
			<data negative_slope="0.0"/>
			<input>
				<port id="0">
					<dim>1</dim>
					<dim>1024</dim>
					<dim>14</dim>
					<dim>14</dim>
				</port>
			</input>
			<output>
				<port id="1">
					<dim>1</dim>
					<dim>1024</dim>
					<dim>14</dim>
					<dim>14</dim>
				</port>
			</output>
		</layer>
		<layer name="res4e_branch2a" type="Convolution" precision="FP32" id="87">
			<data dilations="1,1" group="1" kernel="1,1" output="256" pads_begin="0,0" pads_end="0,0" quantization_level="I8" strides="1,1"/>
			<input>
				<port id="0">
					<dim>1</dim>
					<dim>1024</dim>
					<dim>14</dim>
					<dim>14</dim>
				</port>
			</input>
			<output>
				<port id="1">
					<dim>1</dim>
					<dim>256</dim>
					<dim>14</dim>
					<dim>14</dim>
				</port>
			</output>
			<blobs>
				<biases offset="25186840" size="1024"/>
				<weights offset="25187864" size="1048576"/>
			</blobs>
		</layer>
		<layer name="res4e_branch2a_relu" type="ReLU" precision="FP32" id="88">
			<data negative_slope="0.0"/>
			<input>
				<port id="0">
					<dim>1</dim>
					<dim>256</dim>
					<dim>14</dim>
					<dim>14</dim>
				</port>
			</input>
			<output>
				<port id="1">
					<dim>1</dim>
					<dim>256</dim>
					<dim>14</dim>
					<dim>14</dim>
				</port>
			</output>
		</layer>
		<layer name="res4e_branch2b" type="Convolution" precision="FP32" id="89">
			<data dilations="1,1" group="1" kernel="3,3" output="256" pads_begin="1,1" pads_end="1,1" quantization_level="I8" strides="1,1"/>
			<input>
				<port id="0">
					<dim>1</dim>
					<dim>256</dim>
					<dim>14</dim>
					<dim>14</dim>
				</port>
			</input>
			<output>
				<port id="1">
					<dim>1</dim>
					<dim>256</dim>
					<dim>14</dim>
					<dim>14</dim>
				</port>
			</output>
			<blobs>
				<biases offset="26236440" size="1024"/>
				<weights offset="26237464" size="2359296"/>
			</blobs>
		</layer>
		<layer name="res4e_branch2b_relu" type="ReLU" precision="FP32" id="90">
			<data negative_slope="0.0"/>
			<input>
				<port id="0">
					<dim>1</dim>
					<dim>256</dim>
					<dim>14</dim>
					<dim>14</dim>
				</port>
			</input>
			<output>
				<port id="1">
					<dim>1</dim>
					<dim>256</dim>
					<dim>14</dim>
					<dim>14</dim>
				</port>
			</output>
		</layer>
		<layer name="res4e_branch2c" type="Convolution" precision="FP32" id="91">
			<data dilations="1,1" group="1" kernel="1,1" output="1024" pads_begin="0,0" pads_end="0,0" quantization_level="I8" strides="1,1"/>
			<input>
				<port id="0">
					<dim>1</dim>
					<dim>256</dim>
					<dim>14</dim>
					<dim>14</dim>
				</port>
			</input>
			<output>
				<port id="1">
					<dim>1</dim>
					<dim>1024</dim>
					<dim>14</dim>
					<dim>14</dim>
				</port>
			</output>
			<blobs>
				<biases offset="28596760" size="4096"/>
				<weights offset="28600856" size="1048576"/>
			</blobs>
		</layer>
		<layer name="res4e" type="Eltwise" precision="FP32" id="92">
			<data coeff="" operation="sum"/>
			<input>
				<port id="0">
					<dim>1</dim>
					<dim>1024</dim>
					<dim>14</dim>
					<dim>14</dim>
				</port>
				<port id="1">
					<dim>1</dim>
					<dim>1024</dim>
					<dim>14</dim>
					<dim>14</dim>
				</port>
			</input>
			<output>
				<port id="2">
					<dim>1</dim>
					<dim>1024</dim>
					<dim>14</dim>
					<dim>14</dim>
				</port>
			</output>
		</layer>
		<layer name="res4e_relu" type="ReLU" precision="FP32" id="93">
			<data negative_slope="0.0"/>
			<input>
				<port id="0">
					<dim>1</dim>
					<dim>1024</dim>
					<dim>14</dim>
					<dim>14</dim>
				</port>
			</input>
			<output>
				<port id="1">
					<dim>1</dim>
					<dim>1024</dim>
					<dim>14</dim>
					<dim>14</dim>
				</port>
			</output>
		</layer>
		<layer name="res4f_branch2a" type="Convolution" precision="FP32" id="94">
			<data dilations="1,1" group="1" kernel="1,1" output="256" pads_begin="0,0" pads_end="0,0" quantization_level="I8" strides="1,1"/>
			<input>
				<port id="0">
					<dim>1</dim>
					<dim>1024</dim>
					<dim>14</dim>
					<dim>14</dim>
				</port>
			</input>
			<output>
				<port id="1">
					<dim>1</dim>
					<dim>256</dim>
					<dim>14</dim>
					<dim>14</dim>
				</port>
			</output>
			<blobs>
				<biases offset="29649432" size="1024"/>
				<weights offset="29650456" size="1048576"/>
			</blobs>
		</layer>
		<layer name="res4f_branch2a_relu" type="ReLU" precision="FP32" id="95">
			<data negative_slope="0.0"/>
			<input>
				<port id="0">
					<dim>1</dim>
					<dim>256</dim>
					<dim>14</dim>
					<dim>14</dim>
				</port>
			</input>
			<output>
				<port id="1">
					<dim>1</dim>
					<dim>256</dim>
					<dim>14</dim>
					<dim>14</dim>
				</port>
			</output>
		</layer>
		<layer name="res4f_branch2b" type="Convolution" precision="FP32" id="96">
			<data dilations="1,1" group="1" kernel="3,3" output="256" pads_begin="1,1" pads_end="1,1" quantization_level="I8" strides="2,2"/>
			<input>
				<port id="0">
					<dim>1</dim>
					<dim>256</dim>
					<dim>14</dim>
					<dim>14</dim>
				</port>
			</input>
			<output>
				<port id="1">
					<dim>1</dim>
					<dim>256</dim>
					<dim>7</dim>
					<dim>7</dim>
				</port>
			</output>
			<blobs>
				<biases offset="30699032" size="1024"/>
				<weights offset="30700056" size="2359296"/>
			</blobs>
		</layer>
		<layer name="res4f_branch2b_relu" type="ReLU" precision="FP32" id="97">
			<data negative_slope="0.0"/>
			<input>
				<port id="0">
					<dim>1</dim>
					<dim>256</dim>
					<dim>7</dim>
					<dim>7</dim>
				</port>
			</input>
			<output>
				<port id="1">
					<dim>1</dim>
					<dim>256</dim>
					<dim>7</dim>
					<dim>7</dim>
				</port>
			</output>
		</layer>
		<layer name="res4f_branch2c" type="Convolution" precision="FP32" id="98">
			<data dilations="1,1" group="1" kernel="1,1" output="1024" pads_begin="0,0" pads_end="0,0" quantization_level="I8" strides="1,1"/>
			<input>
				<port id="0">
					<dim>1</dim>
					<dim>256</dim>
					<dim>7</dim>
					<dim>7</dim>
				</port>
			</input>
			<output>
				<port id="1">
					<dim>1</dim>
					<dim>1024</dim>
					<dim>7</dim>
					<dim>7</dim>
				</port>
			</output>
			<blobs>
				<biases offset="33059352" size="4096"/>
				<weights offset="33063448" size="1048576"/>
			</blobs>
		</layer>
		<layer name="Pooling_" type="Pooling" precision="FP32" id="99">
			<data kernel="1,1" pads_begin="0,0" pads_end="0,0" pool-method="max" strides="2,2"/>
			<input>
				<port id="0">
					<dim>1</dim>
					<dim>1024</dim>
					<dim>14</dim>
					<dim>14</dim>
				</port>
			</input>
			<output>
				<port id="1">
					<dim>1</dim>
					<dim>1024</dim>
					<dim>7</dim>
					<dim>7</dim>
				</port>
			</output>
		</layer>
		<layer name="res4f" type="Eltwise" precision="FP32" id="100">
			<data coeff="" operation="sum"/>
			<input>
				<port id="0">
					<dim>1</dim>
					<dim>1024</dim>
					<dim>7</dim>
					<dim>7</dim>
				</port>
				<port id="1">
					<dim>1</dim>
					<dim>1024</dim>
					<dim>7</dim>
					<dim>7</dim>
				</port>
			</input>
			<output>
				<port id="2">
					<dim>1</dim>
					<dim>1024</dim>
					<dim>7</dim>
					<dim>7</dim>
				</port>
			</output>
		</layer>
		<layer name="res4f_relu" type="ReLU" precision="FP32" id="101">
			<data negative_slope="0.0"/>
			<input>
				<port id="0">
					<dim>1</dim>
					<dim>1024</dim>
					<dim>7</dim>
					<dim>7</dim>
				</port>
			</input>
			<output>
				<port id="1">
					<dim>1</dim>
					<dim>1024</dim>
					<dim>7</dim>
					<dim>7</dim>
				</port>
			</output>
		</layer>
		<layer name="res5a_branch2a" type="Convolution" precision="FP32" id="102">
			<data dilations="1,1" group="1" kernel="1,1" output="512" pads_begin="0,0" pads_end="0,0" quantization_level="I8" strides="1,1"/>
			<input>
				<port id="0">
					<dim>1</dim>
					<dim>1024</dim>
					<dim>7</dim>
					<dim>7</dim>
				</port>
			</input>
			<output>
				<port id="1">
					<dim>1</dim>
					<dim>512</dim>
					<dim>7</dim>
					<dim>7</dim>
				</port>
			</output>
			<blobs>
				<biases offset="34112024" size="2048"/>
				<weights offset="34114072" size="2097152"/>
			</blobs>
		</layer>
		<layer name="res5a_branch2a_relu" type="ReLU" precision="FP32" id="103">
			<data negative_slope="0.0"/>
			<input>
				<port id="0">
					<dim>1</dim>
					<dim>512</dim>
					<dim>7</dim>
					<dim>7</dim>
				</port>
			</input>
			<output>
				<port id="1">
					<dim>1</dim>
					<dim>512</dim>
					<dim>7</dim>
					<dim>7</dim>
				</port>
			</output>
		</layer>
		<layer name="res5a_branch2b" type="Convolution" precision="FP32" id="104">
			<data dilations="1,1" group="1" kernel="3,3" output="512" pads_begin="1,1" pads_end="1,1" quantization_level="I8" strides="1,1"/>
			<input>
				<port id="0">
					<dim>1</dim>
					<dim>512</dim>
					<dim>7</dim>
					<dim>7</dim>
				</port>
			</input>
			<output>
				<port id="1">
					<dim>1</dim>
					<dim>512</dim>
					<dim>7</dim>
					<dim>7</dim>
				</port>
			</output>
			<blobs>
				<biases offset="36211224" size="2048"/>
				<weights offset="36213272" size="9437184"/>
			</blobs>
		</layer>
		<layer name="res5a_branch2b_relu" type="ReLU" precision="FP32" id="105">
			<data negative_slope="0.0"/>
			<input>
				<port id="0">
					<dim>1</dim>
					<dim>512</dim>
					<dim>7</dim>
					<dim>7</dim>
				</port>
			</input>
			<output>
				<port id="1">
					<dim>1</dim>
					<dim>512</dim>
					<dim>7</dim>
					<dim>7</dim>
				</port>
			</output>
		</layer>
		<layer name="res5a_branch2c" type="Convolution" precision="FP32" id="106">
			<data dilations="1,1" group="1" kernel="1,1" output="2048" pads_begin="0,0" pads_end="0,0" quantization_level="I8" strides="1,1"/>
			<input>
				<port id="0">
					<dim>1</dim>
					<dim>512</dim>
					<dim>7</dim>
					<dim>7</dim>
				</port>
			</input>
			<output>
				<port id="1">
					<dim>1</dim>
					<dim>2048</dim>
					<dim>7</dim>
					<dim>7</dim>
				</port>
			</output>
			<blobs>
				<biases offset="45650456" size="8192"/>
				<weights offset="45658648" size="4194304"/>
			</blobs>
		</layer>
		<layer name="res5a_branch1" type="Convolution" precision="FP32" id="107">
			<data dilations="1,1" group="1" kernel="1,1" output="2048" pads_begin="0,0" pads_end="0,0" quantization_level="I8" strides="1,1"/>
			<input>
				<port id="0">
					<dim>1</dim>
					<dim>1024</dim>
					<dim>7</dim>
					<dim>7</dim>
				</port>
			</input>
			<output>
				<port id="1">
					<dim>1</dim>
					<dim>2048</dim>
					<dim>7</dim>
					<dim>7</dim>
				</port>
			</output>
			<blobs>
				<biases offset="49852952" size="8192"/>
				<weights offset="49861144" size="8388608"/>
			</blobs>
		</layer>
		<layer name="res5a" type="Eltwise" precision="FP32" id="108">
			<data coeff="" operation="sum"/>
			<input>
				<port id="0">
					<dim>1</dim>
					<dim>2048</dim>
					<dim>7</dim>
					<dim>7</dim>
				</port>
				<port id="1">
					<dim>1</dim>
					<dim>2048</dim>
					<dim>7</dim>
					<dim>7</dim>
				</port>
			</input>
			<output>
				<port id="2">
					<dim>1</dim>
					<dim>2048</dim>
					<dim>7</dim>
					<dim>7</dim>
				</port>
			</output>
		</layer>
		<layer name="res5a_relu" type="ReLU" precision="FP32" id="109">
			<data negative_slope="0.0"/>
			<input>
				<port id="0">
					<dim>1</dim>
					<dim>2048</dim>
					<dim>7</dim>
					<dim>7</dim>
				</port>
			</input>
			<output>
				<port id="1">
					<dim>1</dim>
					<dim>2048</dim>
					<dim>7</dim>
					<dim>7</dim>
				</port>
			</output>
		</layer>
		<layer name="res5b_branch2a" type="Convolution" precision="FP32" id="110">
			<data dilations="1,1" group="1" kernel="1,1" output="512" pads_begin="0,0" pads_end="0,0" quantization_level="I8" strides="1,1"/>
			<input>
				<port id="0">
					<dim>1</dim>
					<dim>2048</dim>
					<dim>7</dim>
					<dim>7</dim>
				</port>
			</input>
			<output>
				<port id="1">
					<dim>1</dim>
					<dim>512</dim>
					<dim>7</dim>
					<dim>7</dim>
				</port>
			</output>
			<blobs>
				<biases offset="58249752" size="2048"/>
				<weights offset="58251800" size="4194304"/>
			</blobs>
		</layer>
		<layer name="res5b_branch2a_relu" type="ReLU" precision="FP32" id="111">
			<data negative_slope="0.0"/>
			<input>
				<port id="0">
					<dim>1</dim>
					<dim>512</dim>
					<dim>7</dim>
					<dim>7</dim>
				</port>
			</input>
			<output>
				<port id="1">
					<dim>1</dim>
					<dim>512</dim>
					<dim>7</dim>
					<dim>7</dim>
				</port>
			</output>
		</layer>
		<layer name="res5b_branch2b" type="Convolution" precision="FP32" id="112">
			<data dilations="1,1" group="1" kernel="3,3" output="512" pads_begin="1,1" pads_end="1,1" quantization_level="I8" strides="1,1"/>
			<input>
				<port id="0">
					<dim>1</dim>
					<dim>512</dim>
					<dim>7</dim>
					<dim>7</dim>
				</port>
			</input>
			<output>
				<port id="1">
					<dim>1</dim>
					<dim>512</dim>
					<dim>7</dim>
					<dim>7</dim>
				</port>
			</output>
			<blobs>
				<biases offset="62446104" size="2048"/>
				<weights offset="62448152" size="9437184"/>
			</blobs>
		</layer>
		<layer name="res5b_branch2b_relu" type="ReLU" precision="FP32" id="113">
			<data negative_slope="0.0"/>
			<input>
				<port id="0">
					<dim>1</dim>
					<dim>512</dim>
					<dim>7</dim>
					<dim>7</dim>
				</port>
			</input>
			<output>
				<port id="1">
					<dim>1</dim>
					<dim>512</dim>
					<dim>7</dim>
					<dim>7</dim>
				</port>
			</output>
		</layer>
		<layer name="res5b_branch2c" type="Convolution" precision="FP32" id="114">
			<data dilations="1,1" group="1" kernel="1,1" output="2048" pads_begin="0,0" pads_end="0,0" quantization_level="I8" strides="1,1"/>
			<input>
				<port id="0">
					<dim>1</dim>
					<dim>512</dim>
					<dim>7</dim>
					<dim>7</dim>
				</port>
			</input>
			<output>
				<port id="1">
					<dim>1</dim>
					<dim>2048</dim>
					<dim>7</dim>
					<dim>7</dim>
				</port>
			</output>
			<blobs>
				<biases offset="71885336" size="8192"/>
				<weights offset="71893528" size="4194304"/>
			</blobs>
		</layer>
		<layer name="res5b" type="Eltwise" precision="FP32" id="115">
			<data coeff="" operation="sum"/>
			<input>
				<port id="0">
					<dim>1</dim>
					<dim>2048</dim>
					<dim>7</dim>
					<dim>7</dim>
				</port>
				<port id="1">
					<dim>1</dim>
					<dim>2048</dim>
					<dim>7</dim>
					<dim>7</dim>
				</port>
			</input>
			<output>
				<port id="2">
					<dim>1</dim>
					<dim>2048</dim>
					<dim>7</dim>
					<dim>7</dim>
				</port>
			</output>
		</layer>
		<layer name="res5b_relu" type="ReLU" precision="FP32" id="116">
			<data negative_slope="0.0"/>
			<input>
				<port id="0">
					<dim>1</dim>
					<dim>2048</dim>
					<dim>7</dim>
					<dim>7</dim>
				</port>
			</input>
			<output>
				<port id="1">
					<dim>1</dim>
					<dim>2048</dim>
					<dim>7</dim>
					<dim>7</dim>
				</port>
			</output>
		</layer>
		<layer name="res5c_branch2a" type="Convolution" precision="FP32" id="117">
			<data dilations="1,1" group="1" kernel="1,1" output="512" pads_begin="0,0" pads_end="0,0" quantization_level="I8" strides="1,1"/>
			<input>
				<port id="0">
					<dim>1</dim>
					<dim>2048</dim>
					<dim>7</dim>
					<dim>7</dim>
				</port>
			</input>
			<output>
				<port id="1">
					<dim>1</dim>
					<dim>512</dim>
					<dim>7</dim>
					<dim>7</dim>
				</port>
			</output>
			<blobs>
				<biases offset="76087832" size="2048"/>
				<weights offset="76089880" size="4194304"/>
			</blobs>
		</layer>
		<layer name="res5c_branch2a_relu" type="ReLU" precision="FP32" id="118">
			<data negative_slope="0.0"/>
			<input>
				<port id="0">
					<dim>1</dim>
					<dim>512</dim>
					<dim>7</dim>
					<dim>7</dim>
				</port>
			</input>
			<output>
				<port id="1">
					<dim>1</dim>
					<dim>512</dim>
					<dim>7</dim>
					<dim>7</dim>
				</port>
			</output>
		</layer>
		<layer name="res5c_branch2b" type="Convolution" precision="FP32" id="119">
			<data dilations="1,1" group="1" kernel="3,3" output="512" pads_begin="1,1" pads_end="1,1" quantization_level="I8" strides="1,1"/>
			<input>
				<port id="0">
					<dim>1</dim>
					<dim>512</dim>
					<dim>7</dim>
					<dim>7</dim>
				</port>
			</input>
			<output>
				<port id="1">
					<dim>1</dim>
					<dim>512</dim>
					<dim>7</dim>
					<dim>7</dim>
				</port>
			</output>
			<blobs>
				<biases offset="80284184" size="2048"/>
				<weights offset="80286232" size="9437184"/>
			</blobs>
		</layer>
		<layer name="res5c_branch2b_relu" type="ReLU" precision="FP32" id="120">
			<data negative_slope="0.0"/>
			<input>
				<port id="0">
					<dim>1</dim>
					<dim>512</dim>
					<dim>7</dim>
					<dim>7</dim>
				</port>
			</input>
			<output>
				<port id="1">
					<dim>1</dim>
					<dim>512</dim>
					<dim>7</dim>
					<dim>7</dim>
				</port>
			</output>
		</layer>
		<layer name="res5c_branch2c" type="Convolution" precision="FP32" id="121">
			<data dilations="1,1" group="1" kernel="1,1" output="2048" pads_begin="0,0" pads_end="0,0" quantization_level="I8" strides="1,1"/>
			<input>
				<port id="0">
					<dim>1</dim>
					<dim>512</dim>
					<dim>7</dim>
					<dim>7</dim>
				</port>
			</input>
			<output>
				<port id="1">
					<dim>1</dim>
					<dim>2048</dim>
					<dim>7</dim>
					<dim>7</dim>
				</port>
			</output>
			<blobs>
				<biases offset="89723416" size="8192"/>
				<weights offset="89731608" size="4194304"/>
			</blobs>
		</layer>
		<layer name="res5c" type="Eltwise" precision="FP32" id="122">
			<data coeff="" operation="sum"/>
			<input>
				<port id="0">
					<dim>1</dim>
					<dim>2048</dim>
					<dim>7</dim>
					<dim>7</dim>
				</port>
				<port id="1">
					<dim>1</dim>
					<dim>2048</dim>
					<dim>7</dim>
					<dim>7</dim>
				</port>
			</input>
			<output>
				<port id="2">
					<dim>1</dim>
					<dim>2048</dim>
					<dim>7</dim>
					<dim>7</dim>
				</port>
			</output>
		</layer>
		<layer name="res5c_relu" type="ReLU" precision="FP32" id="123">
			<data negative_slope="0.0"/>
			<input>
				<port id="0">
					<dim>1</dim>
					<dim>2048</dim>
					<dim>7</dim>
					<dim>7</dim>
				</port>
			</input>
			<output>
				<port id="1">
					<dim>1</dim>
					<dim>2048</dim>
					<dim>7</dim>
					<dim>7</dim>
				</port>
			</output>
		</layer>
		<layer name="pool5" type="Pooling" precision="FP32" id="124">
			<data exclude-pad="false" kernel="7,7" pads_begin="0,0" pads_end="0,0" pool-method="avg" rounding_type="ceil" strides="1,1"/>
			<input>
				<port id="0">
					<dim>1</dim>
					<dim>2048</dim>
					<dim>7</dim>
					<dim>7</dim>
				</port>
			</input>
			<output>
				<port id="1">
					<dim>1</dim>
					<dim>2048</dim>
					<dim>1</dim>
					<dim>1</dim>
				</port>
			</output>
		</layer>
		<layer name="fc1000" type="FullyConnected" precision="FP32" id="125">
			<data out-size="1000"/>
			<input>
				<port id="0">
					<dim>1</dim>
					<dim>2048</dim>
					<dim>1</dim>
					<dim>1</dim>
				</port>
			</input>
			<output>
				<port id="1">
					<dim>1</dim>
					<dim>1000</dim>
				</port>
			</output>
			<blobs>
				<biases offset="93925912" size="4000"/>
				<weights offset="93929912" size="8192000"/>
			</blobs>
		</layer>
		<layer name="prob" type="SoftMax" precision="FP32" id="126">
			<data axis="1"/>
			<input>
				<port id="0">
					<dim>1</dim>
					<dim>1000</dim>
				</port>
			</input>
			<output>
				<port id="1">
					<dim>1</dim>
					<dim>1000</dim>
				</port>
			</output>
		</layer>
	</layers>
	<edges>
		<edge from-layer="0" from-port="0" to-layer="1" to-port="0"/>
		<edge from-layer="1" from-port="1" to-layer="2" to-port="0"/>
		<edge from-layer="2" from-port="1" to-layer="3" to-port="0"/>
		<edge from-layer="3" from-port="1" to-layer="4" to-port="0"/>
		<edge from-layer="4" from-port="1" to-layer="10" to-port="0"/>
		<edge from-layer="4" from-port="1" to-layer="5" to-port="0"/>
		<edge from-layer="5" from-port="1" to-layer="6" to-port="0"/>
		<edge from-layer="6" from-port="1" to-layer="7" to-port="0"/>
		<edge from-layer="7" from-port="1" to-layer="8" to-port="0"/>
		<edge from-layer="8" from-port="1" to-layer="9" to-port="0"/>
		<edge from-layer="9" from-port="1" to-layer="11" to-port="1"/>
		<edge from-layer="10" from-port="1" to-layer="11" to-port="0"/>
		<edge from-layer="11" from-port="2" to-layer="12" to-port="0"/>
		<edge from-layer="12" from-port="1" to-layer="18" to-port="0"/>
		<edge from-layer="12" from-port="1" to-layer="13" to-port="0"/>
		<edge from-layer="13" from-port="1" to-layer="14" to-port="0"/>
		<edge from-layer="14" from-port="1" to-layer="15" to-port="0"/>
		<edge from-layer="15" from-port="1" to-layer="16" to-port="0"/>
		<edge from-layer="16" from-port="1" to-layer="17" to-port="0"/>
		<edge from-layer="17" from-port="1" to-layer="18" to-port="1"/>
		<edge from-layer="18" from-port="2" to-layer="19" to-port="0"/>
		<edge from-layer="19" from-port="1" to-layer="25" to-port="0"/>
		<edge from-layer="19" from-port="1" to-layer="20" to-port="0"/>
		<edge from-layer="20" from-port="1" to-layer="21" to-port="0"/>
		<edge from-layer="21" from-port="1" to-layer="22" to-port="0"/>
		<edge from-layer="22" from-port="1" to-layer="23" to-port="0"/>
		<edge from-layer="23" from-port="1" to-layer="24" to-port="0"/>
		<edge from-layer="24" from-port="1" to-layer="26" to-port="1"/>
		<edge from-layer="25" from-port="1" to-layer="26" to-port="0"/>
		<edge from-layer="26" from-port="2" to-layer="27" to-port="0"/>
		<edge from-layer="27" from-port="1" to-layer="33" to-port="0"/>
		<edge from-layer="27" from-port="1" to-layer="28" to-port="0"/>
		<edge from-layer="28" from-port="1" to-layer="29" to-port="0"/>
		<edge from-layer="29" from-port="1" to-layer="30" to-port="0"/>
		<edge from-layer="30" from-port="1" to-layer="31" to-port="0"/>
		<edge from-layer="31" from-port="1" to-layer="32" to-port="0"/>
		<edge from-layer="32" from-port="1" to-layer="34" to-port="1"/>
		<edge from-layer="33" from-port="1" to-layer="34" to-port="0"/>
		<edge from-layer="34" from-port="2" to-layer="35" to-port="0"/>
		<edge from-layer="35" from-port="1" to-layer="41" to-port="0"/>
		<edge from-layer="35" from-port="1" to-layer="36" to-port="0"/>
		<edge from-layer="36" from-port="1" to-layer="37" to-port="0"/>
		<edge from-layer="37" from-port="1" to-layer="38" to-port="0"/>
		<edge from-layer="38" from-port="1" to-layer="39" to-port="0"/>
		<edge from-layer="39" from-port="1" to-layer="40" to-port="0"/>
		<edge from-layer="40" from-port="1" to-layer="41" to-port="1"/>
		<edge from-layer="41" from-port="2" to-layer="42" to-port="0"/>
		<edge from-layer="42" from-port="1" to-layer="48" to-port="0"/>
		<edge from-layer="42" from-port="1" to-layer="43" to-port="0"/>
		<edge from-layer="43" from-port="1" to-layer="44" to-port="0"/>
		<edge from-layer="44" from-port="1" to-layer="45" to-port="0"/>
		<edge from-layer="45" from-port="1" to-layer="46" to-port="0"/>
		<edge from-layer="46" from-port="1" to-layer="47" to-port="0"/>
		<edge from-layer="47" from-port="1" to-layer="48" to-port="1"/>
		<edge from-layer="48" from-port="2" to-layer="49" to-port="0"/>
		<edge from-layer="49" from-port="1" to-layer="55" to-port="0"/>
		<edge from-layer="49" from-port="1" to-layer="50" to-port="0"/>
		<edge from-layer="50" from-port="1" to-layer="51" to-port="0"/>
		<edge from-layer="51" from-port="1" to-layer="52" to-port="0"/>
		<edge from-layer="52" from-port="1" to-layer="53" to-port="0"/>
		<edge from-layer="53" from-port="1" to-layer="54" to-port="0"/>
		<edge from-layer="54" from-port="1" to-layer="56" to-port="1"/>
		<edge from-layer="55" from-port="1" to-layer="56" to-port="0"/>
		<edge from-layer="56" from-port="2" to-layer="57" to-port="0"/>
		<edge from-layer="57" from-port="1" to-layer="63" to-port="0"/>
		<edge from-layer="57" from-port="1" to-layer="58" to-port="0"/>
		<edge from-layer="58" from-port="1" to-layer="59" to-port="0"/>
		<edge from-layer="59" from-port="1" to-layer="60" to-port="0"/>
		<edge from-layer="60" from-port="1" to-layer="61" to-port="0"/>
		<edge from-layer="61" from-port="1" to-layer="62" to-port="0"/>
		<edge from-layer="62" from-port="1" to-layer="64" to-port="1"/>
		<edge from-layer="63" from-port="1" to-layer="64" to-port="0"/>
		<edge from-layer="64" from-port="2" to-layer="65" to-port="0"/>
		<edge from-layer="65" from-port="1" to-layer="71" to-port="0"/>
		<edge from-layer="65" from-port="1" to-layer="66" to-port="0"/>
		<edge from-layer="66" from-port="1" to-layer="67" to-port="0"/>
		<edge from-layer="67" from-port="1" to-layer="68" to-port="0"/>
		<edge from-layer="68" from-port="1" to-layer="69" to-port="0"/>
		<edge from-layer="69" from-port="1" to-layer="70" to-port="0"/>
		<edge from-layer="70" from-port="1" to-layer="71" to-port="1"/>
		<edge from-layer="71" from-port="2" to-layer="72" to-port="0"/>
		<edge from-layer="72" from-port="1" to-layer="78" to-port="0"/>
		<edge from-layer="72" from-port="1" to-layer="73" to-port="0"/>
		<edge from-layer="73" from-port="1" to-layer="74" to-port="0"/>
		<edge from-layer="74" from-port="1" to-layer="75" to-port="0"/>
		<edge from-layer="75" from-port="1" to-layer="76" to-port="0"/>
		<edge from-layer="76" from-port="1" to-layer="77" to-port="0"/>
		<edge from-layer="77" from-port="1" to-layer="78" to-port="1"/>
		<edge from-layer="78" from-port="2" to-layer="79" to-port="0"/>
		<edge from-layer="79" from-port="1" to-layer="85" to-port="0"/>
		<edge from-layer="79" from-port="1" to-layer="80" to-port="0"/>
		<edge from-layer="80" from-port="1" to-layer="81" to-port="0"/>
		<edge from-layer="81" from-port="1" to-layer="82" to-port="0"/>
		<edge from-layer="82" from-port="1" to-layer="83" to-port="0"/>
		<edge from-layer="83" from-port="1" to-layer="84" to-port="0"/>
		<edge from-layer="84" from-port="1" to-layer="85" to-port="1"/>
		<edge from-layer="85" from-port="2" to-layer="86" to-port="0"/>
		<edge from-layer="86" from-port="1" to-layer="92" to-port="0"/>
		<edge from-layer="86" from-port="1" to-layer="87" to-port="0"/>
		<edge from-layer="87" from-port="1" to-layer="88" to-port="0"/>
		<edge from-layer="88" from-port="1" to-layer="89" to-port="0"/>
		<edge from-layer="89" from-port="1" to-layer="90" to-port="0"/>
		<edge from-layer="90" from-port="1" to-layer="91" to-port="0"/>
		<edge from-layer="91" from-port="1" to-layer="92" to-port="1"/>
		<edge from-layer="92" from-port="2" to-layer="93" to-port="0"/>
		<edge from-layer="93" from-port="1" to-layer="99" to-port="0"/>
		<edge from-layer="93" from-port="1" to-layer="94" to-port="0"/>
		<edge from-layer="94" from-port="1" to-layer="95" to-port="0"/>
		<edge from-layer="95" from-port="1" to-layer="96" to-port="0"/>
		<edge from-layer="96" from-port="1" to-layer="97" to-port="0"/>
		<edge from-layer="97" from-port="1" to-layer="98" to-port="0"/>
		<edge from-layer="98" from-port="1" to-layer="100" to-port="1"/>
		<edge from-layer="99" from-port="1" to-layer="100" to-port="0"/>
		<edge from-layer="100" from-port="2" to-layer="101" to-port="0"/>
		<edge from-layer="101" from-port="1" to-layer="107" to-port="0"/>
		<edge from-layer="101" from-port="1" to-layer="102" to-port="0"/>
		<edge from-layer="102" from-port="1" to-layer="103" to-port="0"/>
		<edge from-layer="103" from-port="1" to-layer="104" to-port="0"/>
		<edge from-layer="104" from-port="1" to-layer="105" to-port="0"/>
		<edge from-layer="105" from-port="1" to-layer="106" to-port="0"/>
		<edge from-layer="106" from-port="1" to-layer="108" to-port="1"/>
		<edge from-layer="107" from-port="1" to-layer="108" to-port="0"/>
		<edge from-layer="108" from-port="2" to-layer="109" to-port="0"/>
		<edge from-layer="109" from-port="1" to-layer="115" to-port="0"/>
		<edge from-layer="109" from-port="1" to-layer="110" to-port="0"/>
		<edge from-layer="110" from-port="1" to-layer="111" to-port="0"/>
		<edge from-layer="111" from-port="1" to-layer="112" to-port="0"/>
		<edge from-layer="112" from-port="1" to-layer="113" to-port="0"/>
		<edge from-layer="113" from-port="1" to-layer="114" to-port="0"/>
		<edge from-layer="114" from-port="1" to-layer="115" to-port="1"/>
		<edge from-layer="115" from-port="2" to-layer="116" to-port="0"/>
		<edge from-layer="116" from-port="1" to-layer="122" to-port="0"/>
		<edge from-layer="116" from-port="1" to-layer="117" to-port="0"/>
		<edge from-layer="117" from-port="1" to-layer="118" to-port="0"/>
		<edge from-layer="118" from-port="1" to-layer="119" to-port="0"/>
		<edge from-layer="119" from-port="1" to-layer="120" to-port="0"/>
		<edge from-layer="120" from-port="1" to-layer="121" to-port="0"/>
		<edge from-layer="121" from-port="1" to-layer="122" to-port="1"/>
		<edge from-layer="122" from-port="2" to-layer="123" to-port="0"/>
		<edge from-layer="123" from-port="1" to-layer="124" to-port="0"/>
		<edge from-layer="124" from-port="1" to-layer="125" to-port="0"/>
		<edge from-layer="125" from-port="1" to-layer="126" to-port="0"/>
	</edges>
	<statistics>
		<layer>
			<name>Add_</name>
			<min>-104.000000, -117.000000, -123.000000</min>
			<max>151.000000, 138.000000, 132.000000</max>
		</layer>
		<layer>
			<name>Pooling_</name>
			<min>… -0.000000</min>
			<max>… 10.898719</max>
		</layer>
		<layer>
			<name>Pooling_1370</name>
			<min>… 0.180868</min>
			<max>… 7.496747</max>
		</layer>
		<layer>
			<name>Pooling_1372</name>
			<min>… -0.000000</min>
			<max>… 9.251447</max>
		</layer>
		<layer>
			<name>conv1</name>
			<min>… -17.576185</min>
			<max>… 21.384588</max>
		</layer>
		<layer>
			<name>conv1_relu</name>
			<min>… -0.000000</min>
			<max>… 21.384588</max>
		</layer>
		<layer>
			<name>data</name>
			<min>0.000000, 0.000000, 0.000000</min>
			<max>255.000000, 255.000000, 255.000000</max>
		</layer>
		<layer>
			<name>fc1000</name>
			<min>-11.045514</min>
			<max>38.597206</max>
		</layer>
		<layer>
			<name>pool1</name>
			<min>… 0.226320</min>
			<max>… 21.384588</max>
		</layer>
		<layer>
			<name>pool5</name>
			<min>… 0.000000</min>
			<max>… 4.138457</max>
		</layer>
		<layer>
			<name>prob</name>
			<min>0.000000</min>
			<max>1.000000</max>
		</layer>
		<layer>
			<name>res2a</name>
			<min>… -3.910607</min>
			<max>… 6.128606</max>
		</layer>
		<layer>
			<name>res2a_branch1</name>
			<min>… -3.202077</min>
			<max>… 6.357544</max>
		</layer>
		<layer>
			<name>res2a_branch2a</name>
			<min>… -0.966202</min>
			<max>… 11.596434</max>
		</layer>
		<layer>
			<name>res2a_branch2a_relu</name>
			<min>… -0.000000</min>
			<max>… 11.596434</max>
		</layer>
		<layer>
			<name>res2a_branch2b</name>
			<min>… -1.527599</min>
			<max>… 4.258760</max>
		</layer>
		<layer>
			<name>res2a_branch2b_relu</name>
			<min>… -0.000000</min>
			<max>… 4.258760</max>
		</layer>
		<layer>
			<name>res2a_branch2c</name>
			<min>… -1.422769</min>
			<max>… 0.520275</max>
		</layer>
		<layer>
			<name>res2a_relu</name>
			<min>… -0.000000</min>
			<max>… 6.128606</max>
		</layer>
		<layer>
			<name>res2b</name>
			<min>… -6.782242</min>
			<max>… 10.079388</max>
		</layer>
		<layer>
			<name>res2b_branch2a</name>
			<min>… -6.775427</min>
			<max>… 8.340244</max>
		</layer>
		<layer>
			<name>res2b_branch2a_relu</name>
			<min>… -0.000000</min>
			<max>… 8.340244</max>
		</layer>
		<layer>
			<name>res2b_branch2b</name>
			<min>… -5.485960</min>
			<max>… 5.255709</max>
		</layer>
		<layer>
			<name>res2b_branch2b_relu</name>
			<min>… -0.000000</min>
			<max>… 5.255709</max>
		</layer>
		<layer>
			<name>res2b_branch2c</name>
			<min>… -7.300575</min>
			<max>… 7.920633</max>
		</layer>
		<layer>
			<name>res2b_relu</name>
			<min>… -0.000000</min>
			<max>… 10.079388</max>
		</layer>
		<layer>
			<name>res2c</name>
			<min>… -10.766325</min>
			<max>… 10.997456</max>
		</layer>
		<layer>
			<name>res2c_branch2a</name>
			<min>… -8.935675</min>
			<max>… 8.119786</max>
		</layer>
		<layer>
			<name>res2c_branch2a_relu</name>
			<min>… -0.000000</min>
			<max>… 8.119786</max>
		</layer>
		<layer>
			<name>res2c_branch2b</name>
			<min>… -7.438800</min>
			<max>… 7.507387</max>
		</layer>
		<layer>
			<name>res2c_branch2b_relu</name>
			<min>… -0.000000</min>
			<max>… 7.507387</max>
		</layer>
		<layer>
			<name>res2c_branch2c</name>
			<min>… -11.315740</min>
			<max>… 8.342573</max>
		</layer>
		<layer>
			<name>res2c_relu</name>
			<min>… -0.000000</min>
			<max>… 10.997456</max>
		</layer>
		<layer>
			<name>res3a</name>
			<min>… -7.072675</min>
			<max>… 7.928626</max>
		</layer>
		<layer>
			<name>res3a_branch1</name>
			<min>… -1.898365</min>
			<max>… 2.834446</max>
		</layer>
		<layer>
			<name>res3a_branch2a</name>
			<min>… -3.998077</min>
			<max>… 6.832924</max>
		</layer>
		<layer>
			<name>res3a_branch2a_relu</name>
			<min>… -0.000000</min>
			<max>… 6.832924</max>
		</layer>
		<layer>
			<name>res3a_branch2b</name>
			<min>… -4.747668</min>
			<max>… 3.694971</max>
		</layer>
		<layer>
			<name>res3a_branch2b_relu</name>
			<min>… -0.000000</min>
			<max>… 3.694971</max>
		</layer>
		<layer>
			<name>res3a_branch2c</name>
			<min>… -6.506267</min>
			<max>… 6.828986</max>
		</layer>
		<layer>
			<name>res3a_relu</name>
			<min>… -0.000000</min>
			<max>… 7.928626</max>
		</layer>
		<layer>
			<name>res3b</name>
			<min>… 0.157847</min>
			<max>… 8.119138</max>
		</layer>
		<layer>
			<name>res3b_branch2a</name>
			<min>… -4.024299</min>
			<max>… 4.028687</max>
		</layer>
		<layer>
			<name>res3b_branch2a_relu</name>
			<min>… -0.000000</min>
			<max>… 4.028687</max>
		</layer>
		<layer>
			<name>res3b_branch2b</name>
			<min>… -7.094612</min>
			<max>… 6.330473</max>
		</layer>
		<layer>
			<name>res3b_branch2b_relu</name>
			<min>… -0.000000</min>
			<max>… 6.330473</max>
		</layer>
		<layer>
			<name>res3b_branch2c</name>
			<min>… 0.145589</min>
			<max>… 0.237786</max>
		</layer>
		<layer>
			<name>res3b_relu</name>
			<min>… 0.157847</min>
			<max>… 8.119138</max>
		</layer>
		<layer>
			<name>res3c</name>
			<min>… 0.177335</min>
			<max>… 8.138640</max>
		</layer>
		<layer>
			<name>res3c_branch2a</name>
			<min>… -0.819751</min>
			<max>… 2.835828</max>
		</layer>
		<layer>
			<name>res3c_branch2a_relu</name>
			<min>… -0.000000</min>
			<max>… 2.835828</max>
		</layer>
		<layer>
			<name>res3c_branch2b</name>
			<min>… -2.375205</min>
			<max>… 5.001687</max>
		</layer>
		<layer>
			<name>res3c_branch2b_relu</name>
			<min>… -0.000000</min>
			<max>… 5.001687</max>
		</layer>
		<layer>
			<name>res3c_branch2c</name>
			<min>… 0.007847</min>
			<max>… 0.019899</max>
		</layer>
		<layer>
			<name>res3c_relu</name>
			<min>… 0.177335</min>
			<max>… 8.138640</max>
		</layer>
		<layer>
			<name>res3d</name>
			<min>… 0.053753</min>
			<max>… 7.389030</max>
		</layer>
		<layer>
			<name>res3d_branch2a</name>
			<min>… -6.205442</min>
			<max>… 8.878307</max>
		</layer>
		<layer>
			<name>res3d_branch2a_relu</name>
			<min>… -0.000000</min>
			<max>… 8.878307</max>
		</layer>
		<layer>
			<name>res3d_branch2b</name>
			<min>… -4.698419</min>
			<max>… 4.156351</max>
		</layer>
		<layer>
			<name>res3d_branch2b_relu</name>
			<min>… -0.000000</min>
			<max>… 4.156351</max>
		</layer>
		<layer>
			<name>res3d_branch2c</name>
			<min>… -0.156363</min>
			<max>… 0.000000</max>
		</layer>
		<layer>
			<name>res3d_relu</name>
			<min>… 0.053753</min>
			<max>… 7.389030</max>
		</layer>
		<layer>
			<name>res4a</name>
			<min>… -8.245076</min>
			<max>… 10.297272</max>
		</layer>
		<layer>
			<name>res4a_branch1</name>
			<min>… -6.375816</min>
			<max>… 8.030336</max>
		</layer>
		<layer>
			<name>res4a_branch2a</name>
			<min>… -3.419039</min>
			<max>… 5.303615</max>
		</layer>
		<layer>
			<name>res4a_branch2a_relu</name>
			<min>… -0.000000</min>
			<max>… 5.303615</max>
		</layer>
		<layer>
			<name>res4a_branch2b</name>
			<min>… -8.044844</min>
			<max>… 4.395905</max>
		</layer>
		<layer>
			<name>res4a_branch2b_relu</name>
			<min>… -0.000000</min>
			<max>… 4.395905</max>
		</layer>
		<layer>
			<name>res4a_branch2c</name>
			<min>… -5.165811</min>
			<max>… 3.955783</max>
		</layer>
		<layer>
			<name>res4a_relu</name>
			<min>… -0.000000</min>
			<max>… 10.297272</max>
		</layer>
		<layer>
			<name>res4b</name>
			<min>… -4.009889</min>
			<max>… 9.958786</max>
		</layer>
		<layer>
			<name>res4b_branch2a</name>
			<min>… -5.399758</min>
			<max>… 2.040320</max>
		</layer>
		<layer>
			<name>res4b_branch2a_relu</name>
			<min>… -0.000000</min>
			<max>… 2.040320</max>
		</layer>
		<layer>
			<name>res4b_branch2b</name>
			<min>… -4.174037</min>
			<max>… 3.470200</max>
		</layer>
		<layer>
			<name>res4b_branch2b_relu</name>
			<min>… -0.000000</min>
			<max>… 3.470200</max>
		</layer>
		<layer>
			<name>res4b_branch2c</name>
			<min>… -4.040006</min>
			<max>… 1.586556</max>
		</layer>
		<layer>
			<name>res4b_relu</name>
			<min>… -0.000000</min>
			<max>… 9.958786</max>
		</layer>
		<layer>
			<name>res4c</name>
			<min>… -6.103625</min>
			<max>… 10.705783</max>
		</layer>
		<layer>
			<name>res4c_branch2a</name>
			<min>… -5.176537</min>
			<max>… 5.395032</max>
		</layer>
		<layer>
			<name>res4c_branch2a_relu</name>
			<min>… -0.000000</min>
			<max>… 5.395032</max>
		</layer>
		<layer>
			<name>res4c_branch2b</name>
			<min>… -7.104822</min>
			<max>… 4.531021</max>
		</layer>
		<layer>
			<name>res4c_branch2b_relu</name>
			<min>… -0.000000</min>
			<max>… 4.531021</max>
		</layer>
		<layer>
			<name>res4c_branch2c</name>
			<min>… -6.175988</min>
			<max>… 3.831174</max>
		</layer>
		<layer>
			<name>res4c_relu</name>
			<min>… -0.000000</min>
			<max>… 10.705783</max>
		</layer>
		<layer>
			<name>res4d</name>
			<min>… -6.766662</min>
			<max>… 11.101561</max>
		</layer>
		<layer>
			<name>res4d_branch2a</name>
			<min>… -3.918004</min>
			<max>… 3.435011</max>
		</layer>
		<layer>
			<name>res4d_branch2a_relu</name>
			<min>… -0.000000</min>
			<max>… 3.435011</max>
		</layer>
		<layer>
			<name>res4d_branch2b</name>
			<min>… -4.717702</min>
			<max>… 3.693111</max>
		</layer>
		<layer>
			<name>res4d_branch2b_relu</name>
			<min>… -0.000000</min>
			<max>… 3.693111</max>
		</layer>
		<layer>
			<name>res4d_branch2c</name>
			<min>… -7.085303</min>
			<max>… 5.091404</max>
		</layer>
		<layer>
			<name>res4d_relu</name>
			<min>… -0.000000</min>
			<max>… 11.101561</max>
		</layer>
		<layer>
			<name>res4e</name>
			<min>… -5.602870</min>
			<max>… 12.076557</max>
		</layer>
		<layer>
			<name>res4e_branch2a</name>
			<min>… -5.825943</min>
			<max>… 5.400012</max>
		</layer>
		<layer>
			<name>res4e_branch2a_relu</name>
			<min>… -0.000000</min>
			<max>… 5.400012</max>
		</layer>
		<layer>
			<name>res4e_branch2b</name>
			<min>… -12.169160</min>
			<max>… 10.805966</max>
		</layer>
		<layer>
			<name>res4e_branch2b_relu</name>
			<min>… -0.000000</min>
			<max>… 10.805966</max>
		</layer>
		<layer>
			<name>res4e_branch2c</name>
			<min>… -5.608996</min>
			<max>… 3.764361</max>
		</layer>
		<layer>
			<name>res4e_relu</name>
			<min>… -0.000000</min>
			<max>… 12.076557</max>
		</layer>
		<layer>
			<name>res4f</name>
			<min>… -2.766752</min>
			<max>… 11.329170</max>
		</layer>
		<layer>
			<name>res4f_branch2a</name>
			<min>… -6.838654</min>
			<max>… 8.415680</max>
		</layer>
		<layer>
			<name>res4f_branch2a_relu</name>
			<min>… -0.000000</min>
			<max>… 8.415680</max>
		</layer>
		<layer>
			<name>res4f_branch2b</name>
			<min>… -6.887570</min>
			<max>… 3.727001</max>
		</layer>
		<layer>
			<name>res4f_branch2b_relu</name>
			<min>… -0.000000</min>
			<max>… 3.727001</max>
		</layer>
		<layer>
			<name>res4f_branch2c</name>
			<min>… -2.872242</min>
			<max>… 1.911445</max>
		</layer>
		<layer>
			<name>res4f_relu</name>
			<min>… -0.000000</min>
			<max>… 11.329170</max>
		</layer>
		<layer>
			<name>res5a</name>
			<min>… -15.696679</min>
			<max>… 22.918783</max>
		</layer>
		<layer>
			<name>res5a_branch1</name>
			<min>… -12.026012</min>
			<max>… 17.334322</max>
		</layer>
		<layer>
			<name>res5a_branch2a</name>
			<min>… -6.044875</min>
			<max>… 7.172376</max>
		</layer>
		<layer>
			<name>res5a_branch2a_relu</name>
			<min>… -0.000000</min>
			<max>… 7.172376</max>
		</layer>
		<layer>
			<name>res5a_branch2b</name>
			<min>… -5.420841</min>
			<max>… 3.424598</max>
		</layer>
		<layer>
			<name>res5a_branch2b_relu</name>
			<min>… -0.000000</min>
			<max>… 3.424598</max>
		</layer>
		<layer>
			<name>res5a_branch2c</name>
			<min>… -8.561816</min>
			<max>… 9.680734</max>
		</layer>
		<layer>
			<name>res5a_relu</name>
			<min>… -0.000000</min>
			<max>… 22.918783</max>
		</layer>
		<layer>
			<name>res5b</name>
			<min>… -5.820088</min>
			<max>… 24.109266</max>
		</layer>
		<layer>
			<name>res5b_branch2a</name>
			<min>… -7.040714</min>
			<max>… 3.715383</max>
		</layer>
		<layer>
			<name>res5b_branch2a_relu</name>
			<min>… -0.000000</min>
			<max>… 3.715383</max>
		</layer>
		<layer>
			<name>res5b_branch2b</name>
			<min>… -5.251916</min>
			<max>… 2.447902</max>
		</layer>
		<layer>
			<name>res5b_branch2b_relu</name>
			<min>… -0.000000</min>
			<max>… 2.447902</max>
		</layer>
		<layer>
			<name>res5b_branch2c</name>
			<min>… -5.821479</min>
			<max>… 5.261958</max>
		</layer>
		<layer>
			<name>res5b_relu</name>
			<min>… -0.000000</min>
			<max>… 24.109266</max>
		</layer>
		<layer>
			<name>res5c</name>
			<min>… -9.029017</min>
			<max>… 28.344679</max>
		</layer>
		<layer>
			<name>res5c_branch2a</name>
			<min>… -5.581181</min>
			<max>… 4.085829</max>
		</layer>
		<layer>
			<name>res5c_branch2a_relu</name>
			<min>… -0.000000</min>
			<max>… 4.085829</max>
		</layer>
		<layer>
			<name>res5c_branch2b</name>
			<min>… -6.662276</min>
			<max>… 4.735528</max>
		</layer>
		<layer>
			<name>res5c_branch2b_relu</name>
			<min>… -0.000000</min>
			<max>… 4.735528</max>
		</layer>
		<layer>
			<name>res5c_branch2c</name>
			<min>… -9.257140</min>
			<max>… 9.716965</max>
		</layer>
		<layer>
			<name>res5c_relu</name>
			<min>… -0.000000</min>
			<max>… 28.344679</max>
		</layer>
		<layer>
			<name>scaleshifted_input:Add_</name>
			<min/>
			<max/>
		</layer>
	</statistics>
</net>