<?xml version="1.0" ?>
<net batch="1" name="resnet_v1_50.frozen" version="3">
	<layers>
		<layer id="0" name="input" precision="FP32" type="Input">
			<output>
				<port id="0">
					<dim>1</dim>
					<dim>3</dim>
					<dim>224</dim>
					<dim>224</dim>
				</port>
			</output>
		</layer>
		<layer id="1" name="Add_" precision="FP32" type="ScaleShift">
			<input>
				<port id="0">
					<dim>1</dim>
					<dim>3</dim>
					<dim>224</dim>
					<dim>224</dim>
				</port>
			</input>
			<output>
				<port id="3">
					<dim>1</dim>
					<dim>3</dim>
					<dim>224</dim>
					<dim>224</dim>
				</port>
			</output>
			<blobs>
				<weights offset="0" size="12"/>
				<biases offset="12" size="12"/>
			</blobs>
		</layer>
		<layer id="2" name="resnet_v1_50/conv1/Conv2D" precision="FP32" type="Convolution">
			<data dilations="1,1" group="1" kernel="7,7" output="64" pads_begin="3,3" pads_end="3,3" strides="2,2"/>
			<input>
				<port id="0">
					<dim>1</dim>
					<dim>3</dim>
					<dim>224</dim>
					<dim>224</dim>
				</port>
			</input>
			<output>
				<port id="3">
					<dim>1</dim>
					<dim>64</dim>
					<dim>112</dim>
					<dim>112</dim>
				</port>
			</output>
			<blobs>
				<weights offset="24" size="37632"/>
				<biases offset="37656" size="256"/>
			</blobs>
		</layer>
		<layer id="3" name="resnet_v1_50/conv1/Relu" precision="FP32" type="ReLU">
			<input>
				<port id="0">
					<dim>1</dim>
					<dim>64</dim>
					<dim>112</dim>
					<dim>112</dim>
				</port>
			</input>
			<output>
				<port id="1">
					<dim>1</dim>
					<dim>64</dim>
					<dim>112</dim>
					<dim>112</dim>
				</port>
			</output>
		</layer>
		<layer id="4" name="resnet_v1_50/pool1/MaxPool" precision="FP32" type="Pooling">
			<data auto_pad="same_upper" exclude-pad="true" kernel="3,3" pads_begin="0,0" pads_end="1,1" pool-method="max" strides="2,2"/>
			<input>
				<port id="0">
					<dim>1</dim>
					<dim>64</dim>
					<dim>112</dim>
					<dim>112</dim>
				</port>
			</input>
			<output>
				<port id="1">
					<dim>1</dim>
					<dim>64</dim>
					<dim>56</dim>
					<dim>56</dim>
				</port>
			</output>
		</layer>
		<layer id="5" name="resnet_v1_50/block1/unit_1/bottleneck_v1/shortcut/Conv2D" precision="FP32" type="Convolution">
			<data auto_pad="same_upper" dilations="1,1" group="1" kernel="1,1" output="256" pads_begin="0,0" pads_end="0,0" strides="1,1"/>
			<input>
				<port id="0">
					<dim>1</dim>
					<dim>64</dim>
					<dim>56</dim>
					<dim>56</dim>
				</port>
			</input>
			<output>
				<port id="3">
					<dim>1</dim>
					<dim>256</dim>
					<dim>56</dim>
					<dim>56</dim>
				</port>
			</output>
			<blobs>
				<weights offset="37912" size="65536"/>
				<biases offset="103448" size="1024"/>
			</blobs>
		</layer>
		<layer id="6" name="resnet_v1_50/block1/unit_1/bottleneck_v1/conv1/Conv2D" precision="FP32" type="Convolution">
			<data auto_pad="same_upper" dilations="1,1" group="1" kernel="1,1" output="64" pads_begin="0,0" pads_end="0,0" strides="1,1"/>
			<input>
				<port id="0">
					<dim>1</dim>
					<dim>64</dim>
					<dim>56</dim>
					<dim>56</dim>
				</port>
			</input>
			<output>
				<port id="3">
					<dim>1</dim>
					<dim>64</dim>
					<dim>56</dim>
					<dim>56</dim>
				</port>
			</output>
			<blobs>
				<weights offset="104472" size="16384"/>
				<biases offset="120856" size="256"/>
			</blobs>
		</layer>
		<layer id="7" name="resnet_v1_50/block1/unit_1/bottleneck_v1/conv1/Relu" precision="FP32" type="ReLU">
			<input>
				<port id="0">
					<dim>1</dim>
					<dim>64</dim>
					<dim>56</dim>
					<dim>56</dim>
				</port>
			</input>
			<output>
				<port id="1">
					<dim>1</dim>
					<dim>64</dim>
					<dim>56</dim>
					<dim>56</dim>
				</port>
			</output>
		</layer>
		<layer id="8" name="resnet_v1_50/block1/unit_1/bottleneck_v1/conv2/Conv2D" precision="FP32" type="Convolution">
			<data auto_pad="same_upper" dilations="1,1" group="1" kernel="3,3" output="64" pads_begin="1,1" pads_end="1,1" strides="1,1"/>
			<input>
				<port id="0">
					<dim>1</dim>
					<dim>64</dim>
					<dim>56</dim>
					<dim>56</dim>
				</port>
			</input>
			<output>
				<port id="3">
					<dim>1</dim>
					<dim>64</dim>
					<dim>56</dim>
					<dim>56</dim>
				</port>
			</output>
			<blobs>
				<weights offset="121112" size="147456"/>
				<biases offset="268568" size="256"/>
			</blobs>
		</layer>
		<layer id="9" name="resnet_v1_50/block1/unit_1/bottleneck_v1/conv2/Relu" precision="FP32" type="ReLU">
			<input>
				<port id="0">
					<dim>1</dim>
					<dim>64</dim>
					<dim>56</dim>
					<dim>56</dim>
				</port>
			</input>
			<output>
				<port id="1">
					<dim>1</dim>
					<dim>64</dim>
					<dim>56</dim>
					<dim>56</dim>
				</port>
			</output>
		</layer>
		<layer id="10" name="resnet_v1_50/block1/unit_1/bottleneck_v1/conv3/Conv2D" precision="FP32" type="Convolution">
			<data auto_pad="same_upper" dilations="1,1" group="1" kernel="1,1" output="256" pads_begin="0,0" pads_end="0,0" strides="1,1"/>
			<input>
				<port id="0">
					<dim>1</dim>
					<dim>64</dim>
					<dim>56</dim>
					<dim>56</dim>
				</port>
			</input>
			<output>
				<port id="3">
					<dim>1</dim>
					<dim>256</dim>
					<dim>56</dim>
					<dim>56</dim>
				</port>
			</output>
			<blobs>
				<weights offset="268824" size="65536"/>
				<biases offset="334360" size="1024"/>
			</blobs>
		</layer>
		<layer id="11" name="resnet_v1_50/block1/unit_1/bottleneck_v1/add" precision="FP32" type="Eltwise">
			<data operation="sum"/>
			<input>
				<port id="0">
					<dim>1</dim>
					<dim>256</dim>
					<dim>56</dim>
					<dim>56</dim>
				</port>
				<port id="1">
					<dim>1</dim>
					<dim>256</dim>
					<dim>56</dim>
					<dim>56</dim>
				</port>
			</input>
			<output>
				<port id="2">
					<dim>1</dim>
					<dim>256</dim>
					<dim>56</dim>
					<dim>56</dim>
				</port>
			</output>
		</layer>
		<layer id="12" name="resnet_v1_50/block1/unit_1/bottleneck_v1/Relu" precision="FP32" type="ReLU">
			<input>
				<port id="0">
					<dim>1</dim>
					<dim>256</dim>
					<dim>56</dim>
					<dim>56</dim>
				</port>
			</input>
			<output>
				<port id="1">
					<dim>1</dim>
					<dim>256</dim>
					<dim>56</dim>
					<dim>56</dim>
				</port>
			</output>
		</layer>
		<layer id="13" name="resnet_v1_50/block1/unit_2/bottleneck_v1/conv1/Conv2D" precision="FP32" type="Convolution">
			<data auto_pad="same_upper" dilations="1,1" group="1" kernel="1,1" output="64" pads_begin="0,0" pads_end="0,0" strides="1,1"/>
			<input>
				<port id="0">
					<dim>1</dim>
					<dim>256</dim>
					<dim>56</dim>
					<dim>56</dim>
				</port>
			</input>
			<output>
				<port id="3">
					<dim>1</dim>
					<dim>64</dim>
					<dim>56</dim>
					<dim>56</dim>
				</port>
			</output>
			<blobs>
				<weights offset="335384" size="65536"/>
				<biases offset="400920" size="256"/>
			</blobs>
		</layer>
		<layer id="14" name="resnet_v1_50/block1/unit_2/bottleneck_v1/conv1/Relu" precision="FP32" type="ReLU">
			<input>
				<port id="0">
					<dim>1</dim>
					<dim>64</dim>
					<dim>56</dim>
					<dim>56</dim>
				</port>
			</input>
			<output>
				<port id="1">
					<dim>1</dim>
					<dim>64</dim>
					<dim>56</dim>
					<dim>56</dim>
				</port>
			</output>
		</layer>
		<layer id="15" name="resnet_v1_50/block1/unit_2/bottleneck_v1/conv2/Conv2D" precision="FP32" type="Convolution">
			<data auto_pad="same_upper" dilations="1,1" group="1" kernel="3,3" output="64" pads_begin="1,1" pads_end="1,1" strides="1,1"/>
			<input>
				<port id="0">
					<dim>1</dim>
					<dim>64</dim>
					<dim>56</dim>
					<dim>56</dim>
				</port>
			</input>
			<output>
				<port id="3">
					<dim>1</dim>
					<dim>64</dim>
					<dim>56</dim>
					<dim>56</dim>
				</port>
			</output>
			<blobs>
				<weights offset="401176" size="147456"/>
				<biases offset="548632" size="256"/>
			</blobs>
		</layer>
		<layer id="16" name="resnet_v1_50/block1/unit_2/bottleneck_v1/conv2/Relu" precision="FP32" type="ReLU">
			<input>
				<port id="0">
					<dim>1</dim>
					<dim>64</dim>
					<dim>56</dim>
					<dim>56</dim>
				</port>
			</input>
			<output>
				<port id="1">
					<dim>1</dim>
					<dim>64</dim>
					<dim>56</dim>
					<dim>56</dim>
				</port>
			</output>
		</layer>
		<layer id="17" name="resnet_v1_50/block1/unit_2/bottleneck_v1/conv3/Conv2D" precision="FP32" type="Convolution">
			<data auto_pad="same_upper" dilations="1,1" group="1" kernel="1,1" output="256" pads_begin="0,0" pads_end="0,0" strides="1,1"/>
			<input>
				<port id="0">
					<dim>1</dim>
					<dim>64</dim>
					<dim>56</dim>
					<dim>56</dim>
				</port>
			</input>
			<output>
				<port id="3">
					<dim>1</dim>
					<dim>256</dim>
					<dim>56</dim>
					<dim>56</dim>
				</port>
			</output>
			<blobs>
				<weights offset="548888" size="65536"/>
				<biases offset="614424" size="1024"/>
			</blobs>
		</layer>
		<layer id="18" name="resnet_v1_50/block1/unit_2/bottleneck_v1/add" precision="FP32" type="Eltwise">
			<data operation="sum"/>
			<input>
				<port id="0">
					<dim>1</dim>
					<dim>256</dim>
					<dim>56</dim>
					<dim>56</dim>
				</port>
				<port id="1">
					<dim>1</dim>
					<dim>256</dim>
					<dim>56</dim>
					<dim>56</dim>
				</port>
			</input>
			<output>
				<port id="2">
					<dim>1</dim>
					<dim>256</dim>
					<dim>56</dim>
					<dim>56</dim>
				</port>
			</output>
		</layer>
		<layer id="19" name="resnet_v1_50/block1/unit_2/bottleneck_v1/Relu" precision="FP32" type="ReLU">
			<input>
				<port id="0">
					<dim>1</dim>
					<dim>256</dim>
					<dim>56</dim>
					<dim>56</dim>
				</port>
			</input>
			<output>
				<port id="1">
					<dim>1</dim>
					<dim>256</dim>
					<dim>56</dim>
					<dim>56</dim>
				</port>
			</output>
		</layer>
		<layer id="20" name="resnet_v1_50/block1/unit_3/bottleneck_v1/shortcut/MaxPool" precision="FP32" type="Pooling">
			<data auto_pad="same_upper" exclude-pad="true" kernel="1,1" pads_begin="0,0" pads_end="0,0" pool-method="max" strides="2,2"/>
			<input>
				<port id="0">
					<dim>1</dim>
					<dim>256</dim>
					<dim>56</dim>
					<dim>56</dim>
				</port>
			</input>
			<output>
				<port id="1">
					<dim>1</dim>
					<dim>256</dim>
					<dim>28</dim>
					<dim>28</dim>
				</port>
			</output>
		</layer>
		<layer id="21" name="resnet_v1_50/block1/unit_3/bottleneck_v1/conv1/Conv2D" precision="FP32" type="Convolution">
			<data auto_pad="same_upper" dilations="1,1" group="1" kernel="1,1" output="64" pads_begin="0,0" pads_end="0,0" strides="1,1"/>
			<input>
				<port id="0">
					<dim>1</dim>
					<dim>256</dim>
					<dim>56</dim>
					<dim>56</dim>
				</port>
			</input>
			<output>
				<port id="3">
					<dim>1</dim>
					<dim>64</dim>
					<dim>56</dim>
					<dim>56</dim>
				</port>
			</output>
			<blobs>
				<weights offset="615448" size="65536"/>
				<biases offset="680984" size="256"/>
			</blobs>
		</layer>
		<layer id="22" name="resnet_v1_50/block1/unit_3/bottleneck_v1/conv1/Relu" precision="FP32" type="ReLU">
			<input>
				<port id="0">
					<dim>1</dim>
					<dim>64</dim>
					<dim>56</dim>
					<dim>56</dim>
				</port>
			</input>
			<output>
				<port id="1">
					<dim>1</dim>
					<dim>64</dim>
					<dim>56</dim>
					<dim>56</dim>
				</port>
			</output>
		</layer>
		<layer id="23" name="resnet_v1_50/block1/unit_3/bottleneck_v1/conv2/Conv2D" precision="FP32" type="Convolution">
			<data dilations="1,1" group="1" kernel="3,3" output="64" pads_begin="1,1" pads_end="1,1" strides="2,2"/>
			<input>
				<port id="0">
					<dim>1</dim>
					<dim>64</dim>
					<dim>56</dim>
					<dim>56</dim>
				</port>
			</input>
			<output>
				<port id="3">
					<dim>1</dim>
					<dim>64</dim>
					<dim>28</dim>
					<dim>28</dim>
				</port>
			</output>
			<blobs>
				<weights offset="681240" size="147456"/>
				<biases offset="828696" size="256"/>
			</blobs>
		</layer>
		<layer id="24" name="resnet_v1_50/block1/unit_3/bottleneck_v1/conv2/Relu" precision="FP32" type="ReLU">
			<input>
				<port id="0">
					<dim>1</dim>
					<dim>64</dim>
					<dim>28</dim>
					<dim>28</dim>
				</port>
			</input>
			<output>
				<port id="1">
					<dim>1</dim>
					<dim>64</dim>
					<dim>28</dim>
					<dim>28</dim>
				</port>
			</output>
		</layer>
		<layer id="25" name="resnet_v1_50/block1/unit_3/bottleneck_v1/conv3/Conv2D" precision="FP32" type="Convolution">
			<data auto_pad="same_upper" dilations="1,1" group="1" kernel="1,1" output="256" pads_begin="0,0" pads_end="0,0" strides="1,1"/>
			<input>
				<port id="0">
					<dim>1</dim>
					<dim>64</dim>
					<dim>28</dim>
					<dim>28</dim>
				</port>
			</input>
			<output>
				<port id="3">
					<dim>1</dim>
					<dim>256</dim>
					<dim>28</dim>
					<dim>28</dim>
				</port>
			</output>
			<blobs>
				<weights offset="828952" size="65536"/>
				<biases offset="894488" size="1024"/>
			</blobs>
		</layer>
		<layer id="26" name="resnet_v1_50/block1/unit_3/bottleneck_v1/add" precision="FP32" type="Eltwise">
			<data operation="sum"/>
			<input>
				<port id="0">
					<dim>1</dim>
					<dim>256</dim>
					<dim>28</dim>
					<dim>28</dim>
				</port>
				<port id="1">
					<dim>1</dim>
					<dim>256</dim>
					<dim>28</dim>
					<dim>28</dim>
				</port>
			</input>
			<output>
				<port id="2">
					<dim>1</dim>
					<dim>256</dim>
					<dim>28</dim>
					<dim>28</dim>
				</port>
			</output>
		</layer>
		<layer id="27" name="resnet_v1_50/block1/unit_3/bottleneck_v1/Relu" precision="FP32" type="ReLU">
			<input>
				<port id="0">
					<dim>1</dim>
					<dim>256</dim>
					<dim>28</dim>
					<dim>28</dim>
				</port>
			</input>
			<output>
				<port id="1">
					<dim>1</dim>
					<dim>256</dim>
					<dim>28</dim>
					<dim>28</dim>
				</port>
			</output>
		</layer>
		<layer id="28" name="resnet_v1_50/block2/unit_1/bottleneck_v1/shortcut/Conv2D" precision="FP32" type="Convolution">
			<data auto_pad="same_upper" dilations="1,1" group="1" kernel="1,1" output="512" pads_begin="0,0" pads_end="0,0" strides="1,1"/>
			<input>
				<port id="0">
					<dim>1</dim>
					<dim>256</dim>
					<dim>28</dim>
					<dim>28</dim>
				</port>
			</input>
			<output>
				<port id="3">
					<dim>1</dim>
					<dim>512</dim>
					<dim>28</dim>
					<dim>28</dim>
				</port>
			</output>
			<blobs>
				<weights offset="895512" size="524288"/>
				<biases offset="1419800" size="2048"/>
			</blobs>
		</layer>
		<layer id="29" name="resnet_v1_50/block2/unit_1/bottleneck_v1/conv1/Conv2D" precision="FP32" type="Convolution">
			<data auto_pad="same_upper" dilations="1,1" group="1" kernel="1,1" output="128" pads_begin="0,0" pads_end="0,0" strides="1,1"/>
			<input>
				<port id="0">
					<dim>1</dim>
					<dim>256</dim>
					<dim>28</dim>
					<dim>28</dim>
				</port>
			</input>
			<output>
				<port id="3">
					<dim>1</dim>
					<dim>128</dim>
					<dim>28</dim>
					<dim>28</dim>
				</port>
			</output>
			<blobs>
				<weights offset="1421848" size="131072"/>
				<biases offset="1552920" size="512"/>
			</blobs>
		</layer>
		<layer id="30" name="resnet_v1_50/block2/unit_1/bottleneck_v1/conv1/Relu" precision="FP32" type="ReLU">
			<input>
				<port id="0">
					<dim>1</dim>
					<dim>128</dim>
					<dim>28</dim>
					<dim>28</dim>
				</port>
			</input>
			<output>
				<port id="1">
					<dim>1</dim>
					<dim>128</dim>
					<dim>28</dim>
					<dim>28</dim>
				</port>
			</output>
		</layer>
		<layer id="31" name="resnet_v1_50/block2/unit_1/bottleneck_v1/conv2/Conv2D" precision="FP32" type="Convolution">
			<data auto_pad="same_upper" dilations="1,1" group="1" kernel="3,3" output="128" pads_begin="1,1" pads_end="1,1" strides="1,1"/>
			<input>
				<port id="0">
					<dim>1</dim>
					<dim>128</dim>
					<dim>28</dim>
					<dim>28</dim>
				</port>
			</input>
			<output>
				<port id="3">
					<dim>1</dim>
					<dim>128</dim>
					<dim>28</dim>
					<dim>28</dim>
				</port>
			</output>
			<blobs>
				<weights offset="1553432" size="589824"/>
				<biases offset="2143256" size="512"/>
			</blobs>
		</layer>
		<layer id="32" name="resnet_v1_50/block2/unit_1/bottleneck_v1/conv2/Relu" precision="FP32" type="ReLU">
			<input>
				<port id="0">
					<dim>1</dim>
					<dim>128</dim>
					<dim>28</dim>
					<dim>28</dim>
				</port>
			</input>
			<output>
				<port id="1">
					<dim>1</dim>
					<dim>128</dim>
					<dim>28</dim>
					<dim>28</dim>
				</port>
			</output>
		</layer>
		<layer id="33" name="resnet_v1_50/block2/unit_1/bottleneck_v1/conv3/Conv2D" precision="FP32" type="Convolution">
			<data auto_pad="same_upper" dilations="1,1" group="1" kernel="1,1" output="512" pads_begin="0,0" pads_end="0,0" strides="1,1"/>
			<input>
				<port id="0">
					<dim>1</dim>
					<dim>128</dim>
					<dim>28</dim>
					<dim>28</dim>
				</port>
			</input>
			<output>
				<port id="3">
					<dim>1</dim>
					<dim>512</dim>
					<dim>28</dim>
					<dim>28</dim>
				</port>
			</output>
			<blobs>
				<weights offset="2143768" size="262144"/>
				<biases offset="2405912" size="2048"/>
			</blobs>
		</layer>
		<layer id="34" name="resnet_v1_50/block2/unit_1/bottleneck_v1/add" precision="FP32" type="Eltwise">
			<data operation="sum"/>
			<input>
				<port id="0">
					<dim>1</dim>
					<dim>512</dim>
					<dim>28</dim>
					<dim>28</dim>
				</port>
				<port id="1">
					<dim>1</dim>
					<dim>512</dim>
					<dim>28</dim>
					<dim>28</dim>
				</port>
			</input>
			<output>
				<port id="2">
					<dim>1</dim>
					<dim>512</dim>
					<dim>28</dim>
					<dim>28</dim>
				</port>
			</output>
		</layer>
		<layer id="35" name="resnet_v1_50/block2/unit_1/bottleneck_v1/Relu" precision="FP32" type="ReLU">
			<input>
				<port id="0">
					<dim>1</dim>
					<dim>512</dim>
					<dim>28</dim>
					<dim>28</dim>
				</port>
			</input>
			<output>
				<port id="1">
					<dim>1</dim>
					<dim>512</dim>
					<dim>28</dim>
					<dim>28</dim>
				</port>
			</output>
		</layer>
		<layer id="36" name="resnet_v1_50/block2/unit_2/bottleneck_v1/conv1/Conv2D" precision="FP32" type="Convolution">
			<data auto_pad="same_upper" dilations="1,1" group="1" kernel="1,1" output="128" pads_begin="0,0" pads_end="0,0" strides="1,1"/>
			<input>
				<port id="0">
					<dim>1</dim>
					<dim>512</dim>
					<dim>28</dim>
					<dim>28</dim>
				</port>
			</input>
			<output>
				<port id="3">
					<dim>1</dim>
					<dim>128</dim>
					<dim>28</dim>
					<dim>28</dim>
				</port>
			</output>
			<blobs>
				<weights offset="2407960" size="262144"/>
				<biases offset="2670104" size="512"/>
			</blobs>
		</layer>
		<layer id="37" name="resnet_v1_50/block2/unit_2/bottleneck_v1/conv1/Relu" precision="FP32" type="ReLU">
			<input>
				<port id="0">
					<dim>1</dim>
					<dim>128</dim>
					<dim>28</dim>
					<dim>28</dim>
				</port>
			</input>
			<output>
				<port id="1">
					<dim>1</dim>
					<dim>128</dim>
					<dim>28</dim>
					<dim>28</dim>
				</port>
			</output>
		</layer>
		<layer id="38" name="resnet_v1_50/block2/unit_2/bottleneck_v1/conv2/Conv2D" precision="FP32" type="Convolution">
			<data auto_pad="same_upper" dilations="1,1" group="1" kernel="3,3" output="128" pads_begin="1,1" pads_end="1,1" strides="1,1"/>
			<input>
				<port id="0">
					<dim>1</dim>
					<dim>128</dim>
					<dim>28</dim>
					<dim>28</dim>
				</port>
			</input>
			<output>
				<port id="3">
					<dim>1</dim>
					<dim>128</dim>
					<dim>28</dim>
					<dim>28</dim>
				</port>
			</output>
			<blobs>
				<weights offset="2670616" size="589824"/>
				<biases offset="3260440" size="512"/>
			</blobs>
		</layer>
		<layer id="39" name="resnet_v1_50/block2/unit_2/bottleneck_v1/conv2/Relu" precision="FP32" type="ReLU">
			<input>
				<port id="0">
					<dim>1</dim>
					<dim>128</dim>
					<dim>28</dim>
					<dim>28</dim>
				</port>
			</input>
			<output>
				<port id="1">
					<dim>1</dim>
					<dim>128</dim>
					<dim>28</dim>
					<dim>28</dim>
				</port>
			</output>
		</layer>
		<layer id="40" name="resnet_v1_50/block2/unit_2/bottleneck_v1/conv3/Conv2D" precision="FP32" type="Convolution">
			<data auto_pad="same_upper" dilations="1,1" group="1" kernel="1,1" output="512" pads_begin="0,0" pads_end="0,0" strides="1,1"/>
			<input>
				<port id="0">
					<dim>1</dim>
					<dim>128</dim>
					<dim>28</dim>
					<dim>28</dim>
				</port>
			</input>
			<output>
				<port id="3">
					<dim>1</dim>
					<dim>512</dim>
					<dim>28</dim>
					<dim>28</dim>
				</port>
			</output>
			<blobs>
				<weights offset="3260952" size="262144"/>
				<biases offset="3523096" size="2048"/>
			</blobs>
		</layer>
		<layer id="41" name="resnet_v1_50/block2/unit_2/bottleneck_v1/add" precision="FP32" type="Eltwise">
			<data operation="sum"/>
			<input>
				<port id="0">
					<dim>1</dim>
					<dim>512</dim>
					<dim>28</dim>
					<dim>28</dim>
				</port>
				<port id="1">
					<dim>1</dim>
					<dim>512</dim>
					<dim>28</dim>
					<dim>28</dim>
				</port>
			</input>
			<output>
				<port id="2">
					<dim>1</dim>
					<dim>512</dim>
					<dim>28</dim>
					<dim>28</dim>
				</port>
			</output>
		</layer>
		<layer id="42" name="resnet_v1_50/block2/unit_2/bottleneck_v1/Relu" precision="FP32" type="ReLU">
			<input>
				<port id="0">
					<dim>1</dim>
					<dim>512</dim>
					<dim>28</dim>
					<dim>28</dim>
				</port>
			</input>
			<output>
				<port id="1">
					<dim>1</dim>
					<dim>512</dim>
					<dim>28</dim>
					<dim>28</dim>
				</port>
			</output>
		</layer>
		<layer id="43" name="resnet_v1_50/block2/unit_3/bottleneck_v1/conv1/Conv2D" precision="FP32" type="Convolution">
			<data auto_pad="same_upper" dilations="1,1" group="1" kernel="1,1" output="128" pads_begin="0,0" pads_end="0,0" strides="1,1"/>
			<input>
				<port id="0">
					<dim>1</dim>
					<dim>512</dim>
					<dim>28</dim>
					<dim>28</dim>
				</port>
			</input>
			<output>
				<port id="3">
					<dim>1</dim>
					<dim>128</dim>
					<dim>28</dim>
					<dim>28</dim>
				</port>
			</output>
			<blobs>
				<weights offset="3525144" size="262144"/>
				<biases offset="3787288" size="512"/>
			</blobs>
		</layer>
		<layer id="44" name="resnet_v1_50/block2/unit_3/bottleneck_v1/conv1/Relu" precision="FP32" type="ReLU">
			<input>
				<port id="0">
					<dim>1</dim>
					<dim>128</dim>
					<dim>28</dim>
					<dim>28</dim>
				</port>
			</input>
			<output>
				<port id="1">
					<dim>1</dim>
					<dim>128</dim>
					<dim>28</dim>
					<dim>28</dim>
				</port>
			</output>
		</layer>
		<layer id="45" name="resnet_v1_50/block2/unit_3/bottleneck_v1/conv2/Conv2D" precision="FP32" type="Convolution">
			<data auto_pad="same_upper" dilations="1,1" group="1" kernel="3,3" output="128" pads_begin="1,1" pads_end="1,1" strides="1,1"/>
			<input>
				<port id="0">
					<dim>1</dim>
					<dim>128</dim>
					<dim>28</dim>
					<dim>28</dim>
				</port>
			</input>
			<output>
				<port id="3">
					<dim>1</dim>
					<dim>128</dim>
					<dim>28</dim>
					<dim>28</dim>
				</port>
			</output>
			<blobs>
				<weights offset="3787800" size="589824"/>
				<biases offset="4377624" size="512"/>
			</blobs>
		</layer>
		<layer id="46" name="resnet_v1_50/block2/unit_3/bottleneck_v1/conv2/Relu" precision="FP32" type="ReLU">
			<input>
				<port id="0">
					<dim>1</dim>
					<dim>128</dim>
					<dim>28</dim>
					<dim>28</dim>
				</port>
			</input>
			<output>
				<port id="1">
					<dim>1</dim>
					<dim>128</dim>
					<dim>28</dim>
					<dim>28</dim>
				</port>
			</output>
		</layer>
		<layer id="47" name="resnet_v1_50/block2/unit_3/bottleneck_v1/conv3/Conv2D" precision="FP32" type="Convolution">
			<data auto_pad="same_upper" dilations="1,1" group="1" kernel="1,1" output="512" pads_begin="0,0" pads_end="0,0" strides="1,1"/>
			<input>
				<port id="0">
					<dim>1</dim>
					<dim>128</dim>
					<dim>28</dim>
					<dim>28</dim>
				</port>
			</input>
			<output>
				<port id="3">
					<dim>1</dim>
					<dim>512</dim>
					<dim>28</dim>
					<dim>28</dim>
				</port>
			</output>
			<blobs>
				<weights offset="4378136" size="262144"/>
				<biases offset="4640280" size="2048"/>
			</blobs>
		</layer>
		<layer id="48" name="resnet_v1_50/block2/unit_3/bottleneck_v1/add" precision="FP32" type="Eltwise">
			<data operation="sum"/>
			<input>
				<port id="0">
					<dim>1</dim>
					<dim>512</dim>
					<dim>28</dim>
					<dim>28</dim>
				</port>
				<port id="1">
					<dim>1</dim>
					<dim>512</dim>
					<dim>28</dim>
					<dim>28</dim>
				</port>
			</input>
			<output>
				<port id="2">
					<dim>1</dim>
					<dim>512</dim>
					<dim>28</dim>
					<dim>28</dim>
				</port>
			</output>
		</layer>
		<layer id="49" name="resnet_v1_50/block2/unit_3/bottleneck_v1/Relu" precision="FP32" type="ReLU">
			<input>
				<port id="0">
					<dim>1</dim>
					<dim>512</dim>
					<dim>28</dim>
					<dim>28</dim>
				</port>
			</input>
			<output>
				<port id="1">
					<dim>1</dim>
					<dim>512</dim>
					<dim>28</dim>
					<dim>28</dim>
				</port>
			</output>
		</layer>
		<layer id="50" name="resnet_v1_50/block2/unit_4/bottleneck_v1/shortcut/MaxPool" precision="FP32" type="Pooling">
			<data auto_pad="same_upper" exclude-pad="true" kernel="1,1" pads_begin="0,0" pads_end="0,0" pool-method="max" strides="2,2"/>
			<input>
				<port id="0">
					<dim>1</dim>
					<dim>512</dim>
					<dim>28</dim>
					<dim>28</dim>
				</port>
			</input>
			<output>
				<port id="1">
					<dim>1</dim>
					<dim>512</dim>
					<dim>14</dim>
					<dim>14</dim>
				</port>
			</output>
		</layer>
		<layer id="51" name="resnet_v1_50/block2/unit_4/bottleneck_v1/conv1/Conv2D" precision="FP32" type="Convolution">
			<data auto_pad="same_upper" dilations="1,1" group="1" kernel="1,1" output="128" pads_begin="0,0" pads_end="0,0" strides="1,1"/>
			<input>
				<port id="0">
					<dim>1</dim>
					<dim>512</dim>
					<dim>28</dim>
					<dim>28</dim>
				</port>
			</input>
			<output>
				<port id="3">
					<dim>1</dim>
					<dim>128</dim>
					<dim>28</dim>
					<dim>28</dim>
				</port>
			</output>
			<blobs>
				<weights offset="4642328" size="262144"/>
				<biases offset="4904472" size="512"/>
			</blobs>
		</layer>
		<layer id="52" name="resnet_v1_50/block2/unit_4/bottleneck_v1/conv1/Relu" precision="FP32" type="ReLU">
			<input>
				<port id="0">
					<dim>1</dim>
					<dim>128</dim>
					<dim>28</dim>
					<dim>28</dim>
				</port>
			</input>
			<output>
				<port id="1">
					<dim>1</dim>
					<dim>128</dim>
					<dim>28</dim>
					<dim>28</dim>
				</port>
			</output>
		</layer>
		<layer id="53" name="resnet_v1_50/block2/unit_4/bottleneck_v1/conv2/Conv2D" precision="FP32" type="Convolution">
			<data dilations="1,1" group="1" kernel="3,3" output="128" pads_begin="1,1" pads_end="1,1" strides="2,2"/>
			<input>
				<port id="0">
					<dim>1</dim>
					<dim>128</dim>
					<dim>28</dim>
					<dim>28</dim>
				</port>
			</input>
			<output>
				<port id="3">
					<dim>1</dim>
					<dim>128</dim>
					<dim>14</dim>
					<dim>14</dim>
				</port>
			</output>
			<blobs>
				<weights offset="4904984" size="589824"/>
				<biases offset="5494808" size="512"/>
			</blobs>
		</layer>
		<layer id="54" name="resnet_v1_50/block2/unit_4/bottleneck_v1/conv2/Relu" precision="FP32" type="ReLU">
			<input>
				<port id="0">
					<dim>1</dim>
					<dim>128</dim>
					<dim>14</dim>
					<dim>14</dim>
				</port>
			</input>
			<output>
				<port id="1">
					<dim>1</dim>
					<dim>128</dim>
					<dim>14</dim>
					<dim>14</dim>
				</port>
			</output>
		</layer>
		<layer id="55" name="resnet_v1_50/block2/unit_4/bottleneck_v1/conv3/Conv2D" precision="FP32" type="Convolution">
			<data auto_pad="same_upper" dilations="1,1" group="1" kernel="1,1" output="512" pads_begin="0,0" pads_end="0,0" strides="1,1"/>
			<input>
				<port id="0">
					<dim>1</dim>
					<dim>128</dim>
					<dim>14</dim>
					<dim>14</dim>
				</port>
			</input>
			<output>
				<port id="3">
					<dim>1</dim>
					<dim>512</dim>
					<dim>14</dim>
					<dim>14</dim>
				</port>
			</output>
			<blobs>
				<weights offset="5495320" size="262144"/>
				<biases offset="5757464" size="2048"/>
			</blobs>
		</layer>
		<layer id="56" name="resnet_v1_50/block2/unit_4/bottleneck_v1/add" precision="FP32" type="Eltwise">
			<data operation="sum"/>
			<input>
				<port id="0">
					<dim>1</dim>
					<dim>512</dim>
					<dim>14</dim>
					<dim>14</dim>
				</port>
				<port id="1">
					<dim>1</dim>
					<dim>512</dim>
					<dim>14</dim>
					<dim>14</dim>
				</port>
			</input>
			<output>
				<port id="2">
					<dim>1</dim>
					<dim>512</dim>
					<dim>14</dim>
					<dim>14</dim>
				</port>
			</output>
		</layer>
		<layer id="57" name="resnet_v1_50/block2/unit_4/bottleneck_v1/Relu" precision="FP32" type="ReLU">
			<input>
				<port id="0">
					<dim>1</dim>
					<dim>512</dim>
					<dim>14</dim>
					<dim>14</dim>
				</port>
			</input>
			<output>
				<port id="1">
					<dim>1</dim>
					<dim>512</dim>
					<dim>14</dim>
					<dim>14</dim>
				</port>
			</output>
		</layer>
		<layer id="58" name="resnet_v1_50/block3/unit_1/bottleneck_v1/shortcut/Conv2D" precision="FP32" type="Convolution">
			<data auto_pad="same_upper" dilations="1,1" group="1" kernel="1,1" output="1024" pads_begin="0,0" pads_end="0,0" strides="1,1"/>
			<input>
				<port id="0">
					<dim>1</dim>
					<dim>512</dim>
					<dim>14</dim>
					<dim>14</dim>
				</port>
			</input>
			<output>
				<port id="3">
					<dim>1</dim>
					<dim>1024</dim>
					<dim>14</dim>
					<dim>14</dim>
				</port>
			</output>
			<blobs>
				<weights offset="5759512" size="2097152"/>
				<biases offset="7856664" size="4096"/>
			</blobs>
		</layer>
		<layer id="59" name="resnet_v1_50/block3/unit_1/bottleneck_v1/conv1/Conv2D" precision="FP32" type="Convolution">
			<data auto_pad="same_upper" dilations="1,1" group="1" kernel="1,1" output="256" pads_begin="0,0" pads_end="0,0" strides="1,1"/>
			<input>
				<port id="0">
					<dim>1</dim>
					<dim>512</dim>
					<dim>14</dim>
					<dim>14</dim>
				</port>
			</input>
			<output>
				<port id="3">
					<dim>1</dim>
					<dim>256</dim>
					<dim>14</dim>
					<dim>14</dim>
				</port>
			</output>
			<blobs>
				<weights offset="7860760" size="524288"/>
				<biases offset="8385048" size="1024"/>
			</blobs>
		</layer>
		<layer id="60" name="resnet_v1_50/block3/unit_1/bottleneck_v1/conv1/Relu" precision="FP32" type="ReLU">
			<input>
				<port id="0">
					<dim>1</dim>
					<dim>256</dim>
					<dim>14</dim>
					<dim>14</dim>
				</port>
			</input>
			<output>
				<port id="1">
					<dim>1</dim>
					<dim>256</dim>
					<dim>14</dim>
					<dim>14</dim>
				</port>
			</output>
		</layer>
		<layer id="61" name="resnet_v1_50/block3/unit_1/bottleneck_v1/conv2/Conv2D" precision="FP32" type="Convolution">
			<data auto_pad="same_upper" dilations="1,1" group="1" kernel="3,3" output="256" pads_begin="1,1" pads_end="1,1" strides="1,1"/>
			<input>
				<port id="0">
					<dim>1</dim>
					<dim>256</dim>
					<dim>14</dim>
					<dim>14</dim>
				</port>
			</input>
			<output>
				<port id="3">
					<dim>1</dim>
					<dim>256</dim>
					<dim>14</dim>
					<dim>14</dim>
				</port>
			</output>
			<blobs>
				<weights offset="8386072" size="2359296"/>
				<biases offset="10745368" size="1024"/>
			</blobs>
		</layer>
		<layer id="62" name="resnet_v1_50/block3/unit_1/bottleneck_v1/conv2/Relu" precision="FP32" type="ReLU">
			<input>
				<port id="0">
					<dim>1</dim>
					<dim>256</dim>
					<dim>14</dim>
					<dim>14</dim>
				</port>
			</input>
			<output>
				<port id="1">
					<dim>1</dim>
					<dim>256</dim>
					<dim>14</dim>
					<dim>14</dim>
				</port>
			</output>
		</layer>
		<layer id="63" name="resnet_v1_50/block3/unit_1/bottleneck_v1/conv3/Conv2D" precision="FP32" type="Convolution">
			<data auto_pad="same_upper" dilations="1,1" group="1" kernel="1,1" output="1024" pads_begin="0,0" pads_end="0,0" strides="1,1"/>
			<input>
				<port id="0">
					<dim>1</dim>
					<dim>256</dim>
					<dim>14</dim>
					<dim>14</dim>
				</port>
			</input>
			<output>
				<port id="3">
					<dim>1</dim>
					<dim>1024</dim>
					<dim>14</dim>
					<dim>14</dim>
				</port>
			</output>
			<blobs>
				<weights offset="10746392" size="1048576"/>
				<biases offset="11794968" size="4096"/>
			</blobs>
		</layer>
		<layer id="64" name="resnet_v1_50/block3/unit_1/bottleneck_v1/add" precision="FP32" type="Eltwise">
			<data operation="sum"/>
			<input>
				<port id="0">
					<dim>1</dim>
					<dim>1024</dim>
					<dim>14</dim>
					<dim>14</dim>
				</port>
				<port id="1">
					<dim>1</dim>
					<dim>1024</dim>
					<dim>14</dim>
					<dim>14</dim>
				</port>
			</input>
			<output>
				<port id="2">
					<dim>1</dim>
					<dim>1024</dim>
					<dim>14</dim>
					<dim>14</dim>
				</port>
			</output>
		</layer>
		<layer id="65" name="resnet_v1_50/block3/unit_1/bottleneck_v1/Relu" precision="FP32" type="ReLU">
			<input>
				<port id="0">
					<dim>1</dim>
					<dim>1024</dim>
					<dim>14</dim>
					<dim>14</dim>
				</port>
			</input>
			<output>
				<port id="1">
					<dim>1</dim>
					<dim>1024</dim>
					<dim>14</dim>
					<dim>14</dim>
				</port>
			</output>
		</layer>
		<layer id="66" name="resnet_v1_50/block3/unit_2/bottleneck_v1/conv1/Conv2D" precision="FP32" type="Convolution">
			<data auto_pad="same_upper" dilations="1,1" group="1" kernel="1,1" output="256" pads_begin="0,0" pads_end="0,0" strides="1,1"/>
			<input>
				<port id="0">
					<dim>1</dim>
					<dim>1024</dim>
					<dim>14</dim>
					<dim>14</dim>
				</port>
			</input>
			<output>
				<port id="3">
					<dim>1</dim>
					<dim>256</dim>
					<dim>14</dim>
					<dim>14</dim>
				</port>
			</output>
			<blobs>
				<weights offset="11799064" size="1048576"/>
				<biases offset="12847640" size="1024"/>
			</blobs>
		</layer>
		<layer id="67" name="resnet_v1_50/block3/unit_2/bottleneck_v1/conv1/Relu" precision="FP32" type="ReLU">
			<input>
				<port id="0">
					<dim>1</dim>
					<dim>256</dim>
					<dim>14</dim>
					<dim>14</dim>
				</port>
			</input>
			<output>
				<port id="1">
					<dim>1</dim>
					<dim>256</dim>
					<dim>14</dim>
					<dim>14</dim>
				</port>
			</output>
		</layer>
		<layer id="68" name="resnet_v1_50/block3/unit_2/bottleneck_v1/conv2/Conv2D" precision="FP32" type="Convolution">
			<data auto_pad="same_upper" dilations="1,1" group="1" kernel="3,3" output="256" pads_begin="1,1" pads_end="1,1" strides="1,1"/>
			<input>
				<port id="0">
					<dim>1</dim>
					<dim>256</dim>
					<dim>14</dim>
					<dim>14</dim>
				</port>
			</input>
			<output>
				<port id="3">
					<dim>1</dim>
					<dim>256</dim>
					<dim>14</dim>
					<dim>14</dim>
				</port>
			</output>
			<blobs>
				<weights offset="12848664" size="2359296"/>
				<biases offset="15207960" size="1024"/>
			</blobs>
		</layer>
		<layer id="69" name="resnet_v1_50/block3/unit_2/bottleneck_v1/conv2/Relu" precision="FP32" type="ReLU">
			<input>
				<port id="0">
					<dim>1</dim>
					<dim>256</dim>
					<dim>14</dim>
					<dim>14</dim>
				</port>
			</input>
			<output>
				<port id="1">
					<dim>1</dim>
					<dim>256</dim>
					<dim>14</dim>
					<dim>14</dim>
				</port>
			</output>
		</layer>
		<layer id="70" name="resnet_v1_50/block3/unit_2/bottleneck_v1/conv3/Conv2D" precision="FP32" type="Convolution">
			<data auto_pad="same_upper" dilations="1,1" group="1" kernel="1,1" output="1024" pads_begin="0,0" pads_end="0,0" strides="1,1"/>
			<input>
				<port id="0">
					<dim>1</dim>
					<dim>256</dim>
					<dim>14</dim>
					<dim>14</dim>
				</port>
			</input>
			<output>
				<port id="3">
					<dim>1</dim>
					<dim>1024</dim>
					<dim>14</dim>
					<dim>14</dim>
				</port>
			</output>
			<blobs>
				<weights offset="15208984" size="1048576"/>
				<biases offset="16257560" size="4096"/>
			</blobs>
		</layer>
		<layer id="71" name="resnet_v1_50/block3/unit_2/bottleneck_v1/add" precision="FP32" type="Eltwise">
			<data operation="sum"/>
			<input>
				<port id="0">
					<dim>1</dim>
					<dim>1024</dim>
					<dim>14</dim>
					<dim>14</dim>
				</port>
				<port id="1">
					<dim>1</dim>
					<dim>1024</dim>
					<dim>14</dim>
					<dim>14</dim>
				</port>
			</input>
			<output>
				<port id="2">
					<dim>1</dim>
					<dim>1024</dim>
					<dim>14</dim>
					<dim>14</dim>
				</port>
			</output>
		</layer>
		<layer id="72" name="resnet_v1_50/block3/unit_2/bottleneck_v1/Relu" precision="FP32" type="ReLU">
			<input>
				<port id="0">
					<dim>1</dim>
					<dim>1024</dim>
					<dim>14</dim>
					<dim>14</dim>
				</port>
			</input>
			<output>
				<port id="1">
					<dim>1</dim>
					<dim>1024</dim>
					<dim>14</dim>
					<dim>14</dim>
				</port>
			</output>
		</layer>
		<layer id="73" name="resnet_v1_50/block3/unit_3/bottleneck_v1/conv1/Conv2D" precision="FP32" type="Convolution">
			<data auto_pad="same_upper" dilations="1,1" group="1" kernel="1,1" output="256" pads_begin="0,0" pads_end="0,0" strides="1,1"/>
			<input>
				<port id="0">
					<dim>1</dim>
					<dim>1024</dim>
					<dim>14</dim>
					<dim>14</dim>
				</port>
			</input>
			<output>
				<port id="3">
					<dim>1</dim>
					<dim>256</dim>
					<dim>14</dim>
					<dim>14</dim>
				</port>
			</output>
			<blobs>
				<weights offset="16261656" size="1048576"/>
				<biases offset="17310232" size="1024"/>
			</blobs>
		</layer>
		<layer id="74" name="resnet_v1_50/block3/unit_3/bottleneck_v1/conv1/Relu" precision="FP32" type="ReLU">
			<input>
				<port id="0">
					<dim>1</dim>
					<dim>256</dim>
					<dim>14</dim>
					<dim>14</dim>
				</port>
			</input>
			<output>
				<port id="1">
					<dim>1</dim>
					<dim>256</dim>
					<dim>14</dim>
					<dim>14</dim>
				</port>
			</output>
		</layer>
		<layer id="75" name="resnet_v1_50/block3/unit_3/bottleneck_v1/conv2/Conv2D" precision="FP32" type="Convolution">
			<data auto_pad="same_upper" dilations="1,1" group="1" kernel="3,3" output="256" pads_begin="1,1" pads_end="1,1" strides="1,1"/>
			<input>
				<port id="0">
					<dim>1</dim>
					<dim>256</dim>
					<dim>14</dim>
					<dim>14</dim>
				</port>
			</input>
			<output>
				<port id="3">
					<dim>1</dim>
					<dim>256</dim>
					<dim>14</dim>
					<dim>14</dim>
				</port>
			</output>
			<blobs>
				<weights offset="17311256" size="2359296"/>
				<biases offset="19670552" size="1024"/>
			</blobs>
		</layer>
		<layer id="76" name="resnet_v1_50/block3/unit_3/bottleneck_v1/conv2/Relu" precision="FP32" type="ReLU">
			<input>
				<port id="0">
					<dim>1</dim>
					<dim>256</dim>
					<dim>14</dim>
					<dim>14</dim>
				</port>
			</input>
			<output>
				<port id="1">
					<dim>1</dim>
					<dim>256</dim>
					<dim>14</dim>
					<dim>14</dim>
				</port>
			</output>
		</layer>
		<layer id="77" name="resnet_v1_50/block3/unit_3/bottleneck_v1/conv3/Conv2D" precision="FP32" type="Convolution">
			<data auto_pad="same_upper" dilations="1,1" group="1" kernel="1,1" output="1024" pads_begin="0,0" pads_end="0,0" strides="1,1"/>
			<input>
				<port id="0">
					<dim>1</dim>
					<dim>256</dim>
					<dim>14</dim>
					<dim>14</dim>
				</port>
			</input>
			<output>
				<port id="3">
					<dim>1</dim>
					<dim>1024</dim>
					<dim>14</dim>
					<dim>14</dim>
				</port>
			</output>
			<blobs>
				<weights offset="19671576" size="1048576"/>
				<biases offset="20720152" size="4096"/>
			</blobs>
		</layer>
		<layer id="78" name="resnet_v1_50/block3/unit_3/bottleneck_v1/add" precision="FP32" type="Eltwise">
			<data operation="sum"/>
			<input>
				<port id="0">
					<dim>1</dim>
					<dim>1024</dim>
					<dim>14</dim>
					<dim>14</dim>
				</port>
				<port id="1">
					<dim>1</dim>
					<dim>1024</dim>
					<dim>14</dim>
					<dim>14</dim>
				</port>
			</input>
			<output>
				<port id="2">
					<dim>1</dim>
					<dim>1024</dim>
					<dim>14</dim>
					<dim>14</dim>
				</port>
			</output>
		</layer>
		<layer id="79" name="resnet_v1_50/block3/unit_3/bottleneck_v1/Relu" precision="FP32" type="ReLU">
			<input>
				<port id="0">
					<dim>1</dim>
					<dim>1024</dim>
					<dim>14</dim>
					<dim>14</dim>
				</port>
			</input>
			<output>
				<port id="1">
					<dim>1</dim>
					<dim>1024</dim>
					<dim>14</dim>
					<dim>14</dim>
				</port>
			</output>
		</layer>
		<layer id="80" name="resnet_v1_50/block3/unit_4/bottleneck_v1/conv1/Conv2D" precision="FP32" type="Convolution">
			<data auto_pad="same_upper" dilations="1,1" group="1" kernel="1,1" output="256" pads_begin="0,0" pads_end="0,0" strides="1,1"/>
			<input>
				<port id="0">
					<dim>1</dim>
					<dim>1024</dim>
					<dim>14</dim>
					<dim>14</dim>
				</port>
			</input>
			<output>
				<port id="3">
					<dim>1</dim>
					<dim>256</dim>
					<dim>14</dim>
					<dim>14</dim>
				</port>
			</output>
			<blobs>
				<weights offset="20724248" size="1048576"/>
				<biases offset="21772824" size="1024"/>
			</blobs>
		</layer>
		<layer id="81" name="resnet_v1_50/block3/unit_4/bottleneck_v1/conv1/Relu" precision="FP32" type="ReLU">
			<input>
				<port id="0">
					<dim>1</dim>
					<dim>256</dim>
					<dim>14</dim>
					<dim>14</dim>
				</port>
			</input>
			<output>
				<port id="1">
					<dim>1</dim>
					<dim>256</dim>
					<dim>14</dim>
					<dim>14</dim>
				</port>
			</output>
		</layer>
		<layer id="82" name="resnet_v1_50/block3/unit_4/bottleneck_v1/conv2/Conv2D" precision="FP32" type="Convolution">
			<data auto_pad="same_upper" dilations="1,1" group="1" kernel="3,3" output="256" pads_begin="1,1" pads_end="1,1" strides="1,1"/>
			<input>
				<port id="0">
					<dim>1</dim>
					<dim>256</dim>
					<dim>14</dim>
					<dim>14</dim>
				</port>
			</input>
			<output>
				<port id="3">
					<dim>1</dim>
					<dim>256</dim>
					<dim>14</dim>
					<dim>14</dim>
				</port>
			</output>
			<blobs>
				<weights offset="21773848" size="2359296"/>
				<biases offset="24133144" size="1024"/>
			</blobs>
		</layer>
		<layer id="83" name="resnet_v1_50/block3/unit_4/bottleneck_v1/conv2/Relu" precision="FP32" type="ReLU">
			<input>
				<port id="0">
					<dim>1</dim>
					<dim>256</dim>
					<dim>14</dim>
					<dim>14</dim>
				</port>
			</input>
			<output>
				<port id="1">
					<dim>1</dim>
					<dim>256</dim>
					<dim>14</dim>
					<dim>14</dim>
				</port>
			</output>
		</layer>
		<layer id="84" name="resnet_v1_50/block3/unit_4/bottleneck_v1/conv3/Conv2D" precision="FP32" type="Convolution">
			<data auto_pad="same_upper" dilations="1,1" group="1" kernel="1,1" output="1024" pads_begin="0,0" pads_end="0,0" strides="1,1"/>
			<input>
				<port id="0">
					<dim>1</dim>
					<dim>256</dim>
					<dim>14</dim>
					<dim>14</dim>
				</port>
			</input>
			<output>
				<port id="3">
					<dim>1</dim>
					<dim>1024</dim>
					<dim>14</dim>
					<dim>14</dim>
				</port>
			</output>
			<blobs>
				<weights offset="24134168" size="1048576"/>
				<biases offset="25182744" size="4096"/>
			</blobs>
		</layer>
		<layer id="85" name="resnet_v1_50/block3/unit_4/bottleneck_v1/add" precision="FP32" type="Eltwise">
			<data operation="sum"/>
			<input>
				<port id="0">
					<dim>1</dim>
					<dim>1024</dim>
					<dim>14</dim>
					<dim>14</dim>
				</port>
				<port id="1">
					<dim>1</dim>
					<dim>1024</dim>
					<dim>14</dim>
					<dim>14</dim>
				</port>
			</input>
			<output>
				<port id="2">
					<dim>1</dim>
					<dim>1024</dim>
					<dim>14</dim>
					<dim>14</dim>
				</port>
			</output>
		</layer>
		<layer id="86" name="resnet_v1_50/block3/unit_4/bottleneck_v1/Relu" precision="FP32" type="ReLU">
			<input>
				<port id="0">
					<dim>1</dim>
					<dim>1024</dim>
					<dim>14</dim>
					<dim>14</dim>
				</port>
			</input>
			<output>
				<port id="1">
					<dim>1</dim>
					<dim>1024</dim>
					<dim>14</dim>
					<dim>14</dim>
				</port>
			</output>
		</layer>
		<layer id="87" name="resnet_v1_50/block3/unit_5/bottleneck_v1/conv1/Conv2D" precision="FP32" type="Convolution">
			<data auto_pad="same_upper" dilations="1,1" group="1" kernel="1,1" output="256" pads_begin="0,0" pads_end="0,0" strides="1,1"/>
			<input>
				<port id="0">
					<dim>1</dim>
					<dim>1024</dim>
					<dim>14</dim>
					<dim>14</dim>
				</port>
			</input>
			<output>
				<port id="3">
					<dim>1</dim>
					<dim>256</dim>
					<dim>14</dim>
					<dim>14</dim>
				</port>
			</output>
			<blobs>
				<weights offset="25186840" size="1048576"/>
				<biases offset="26235416" size="1024"/>
			</blobs>
		</layer>
		<layer id="88" name="resnet_v1_50/block3/unit_5/bottleneck_v1/conv1/Relu" precision="FP32" type="ReLU">
			<input>
				<port id="0">
					<dim>1</dim>
					<dim>256</dim>
					<dim>14</dim>
					<dim>14</dim>
				</port>
			</input>
			<output>
				<port id="1">
					<dim>1</dim>
					<dim>256</dim>
					<dim>14</dim>
					<dim>14</dim>
				</port>
			</output>
		</layer>
		<layer id="89" name="resnet_v1_50/block3/unit_5/bottleneck_v1/conv2/Conv2D" precision="FP32" type="Convolution">
			<data auto_pad="same_upper" dilations="1,1" group="1" kernel="3,3" output="256" pads_begin="1,1" pads_end="1,1" strides="1,1"/>
			<input>
				<port id="0">
					<dim>1</dim>
					<dim>256</dim>
					<dim>14</dim>
					<dim>14</dim>
				</port>
			</input>
			<output>
				<port id="3">
					<dim>1</dim>
					<dim>256</dim>
					<dim>14</dim>
					<dim>14</dim>
				</port>
			</output>
			<blobs>
				<weights offset="26236440" size="2359296"/>
				<biases offset="28595736" size="1024"/>
			</blobs>
		</layer>
		<layer id="90" name="resnet_v1_50/block3/unit_5/bottleneck_v1/conv2/Relu" precision="FP32" type="ReLU">
			<input>
				<port id="0">
					<dim>1</dim>
					<dim>256</dim>
					<dim>14</dim>
					<dim>14</dim>
				</port>
			</input>
			<output>
				<port id="1">
					<dim>1</dim>
					<dim>256</dim>
					<dim>14</dim>
					<dim>14</dim>
				</port>
			</output>
		</layer>
		<layer id="91" name="resnet_v1_50/block3/unit_5/bottleneck_v1/conv3/Conv2D" precision="FP32" type="Convolution">
			<data auto_pad="same_upper" dilations="1,1" group="1" kernel="1,1" output="1024" pads_begin="0,0" pads_end="0,0" strides="1,1"/>
			<input>
				<port id="0">
					<dim>1</dim>
					<dim>256</dim>
					<dim>14</dim>
					<dim>14</dim>
				</port>
			</input>
			<output>
				<port id="3">
					<dim>1</dim>
					<dim>1024</dim>
					<dim>14</dim>
					<dim>14</dim>
				</port>
			</output>
			<blobs>
				<weights offset="28596760" size="1048576"/>
				<biases offset="29645336" size="4096"/>
			</blobs>
		</layer>
		<layer id="92" name="resnet_v1_50/block3/unit_5/bottleneck_v1/add" precision="FP32" type="Eltwise">
			<data operation="sum"/>
			<input>
				<port id="0">
					<dim>1</dim>
					<dim>1024</dim>
					<dim>14</dim>
					<dim>14</dim>
				</port>
				<port id="1">
					<dim>1</dim>
					<dim>1024</dim>
					<dim>14</dim>
					<dim>14</dim>
				</port>
			</input>
			<output>
				<port id="2">
					<dim>1</dim>
					<dim>1024</dim>
					<dim>14</dim>
					<dim>14</dim>
				</port>
			</output>
		</layer>
		<layer id="93" name="resnet_v1_50/block3/unit_5/bottleneck_v1/Relu" precision="FP32" type="ReLU">
			<input>
				<port id="0">
					<dim>1</dim>
					<dim>1024</dim>
					<dim>14</dim>
					<dim>14</dim>
				</port>
			</input>
			<output>
				<port id="1">
					<dim>1</dim>
					<dim>1024</dim>
					<dim>14</dim>
					<dim>14</dim>
				</port>
			</output>
		</layer>
		<layer id="94" name="resnet_v1_50/block3/unit_6/bottleneck_v1/shortcut/MaxPool" precision="FP32" type="Pooling">
			<data auto_pad="same_upper" exclude-pad="true" kernel="1,1" pads_begin="0,0" pads_end="0,0" pool-method="max" strides="2,2"/>
			<input>
				<port id="0">
					<dim>1</dim>
					<dim>1024</dim>
					<dim>14</dim>
					<dim>14</dim>
				</port>
			</input>
			<output>
				<port id="1">
					<dim>1</dim>
					<dim>1024</dim>
					<dim>7</dim>
					<dim>7</dim>
				</port>
			</output>
		</layer>
		<layer id="95" name="resnet_v1_50/block3/unit_6/bottleneck_v1/conv1/Conv2D" precision="FP32" type="Convolution">
			<data auto_pad="same_upper" dilations="1,1" group="1" kernel="1,1" output="256" pads_begin="0,0" pads_end="0,0" strides="1,1"/>
			<input>
				<port id="0">
					<dim>1</dim>
					<dim>1024</dim>
					<dim>14</dim>
					<dim>14</dim>
				</port>
			</input>
			<output>
				<port id="3">
					<dim>1</dim>
					<dim>256</dim>
					<dim>14</dim>
					<dim>14</dim>
				</port>
			</output>
			<blobs>
				<weights offset="29649432" size="1048576"/>
				<biases offset="30698008" size="1024"/>
			</blobs>
		</layer>
		<layer id="96" name="resnet_v1_50/block3/unit_6/bottleneck_v1/conv1/Relu" precision="FP32" type="ReLU">
			<input>
				<port id="0">
					<dim>1</dim>
					<dim>256</dim>
					<dim>14</dim>
					<dim>14</dim>
				</port>
			</input>
			<output>
				<port id="1">
					<dim>1</dim>
					<dim>256</dim>
					<dim>14</dim>
					<dim>14</dim>
				</port>
			</output>
		</layer>
		<layer id="97" name="resnet_v1_50/block3/unit_6/bottleneck_v1/conv2/Conv2D" precision="FP32" type="Convolution">
			<data dilations="1,1" group="1" kernel="3,3" output="256" pads_begin="1,1" pads_end="1,1" strides="2,2"/>
			<input>
				<port id="0">
					<dim>1</dim>
					<dim>256</dim>
					<dim>14</dim>
					<dim>14</dim>
				</port>
			</input>
			<output>
				<port id="3">
					<dim>1</dim>
					<dim>256</dim>
					<dim>7</dim>
					<dim>7</dim>
				</port>
			</output>
			<blobs>
				<weights offset="30699032" size="2359296"/>
				<biases offset="33058328" size="1024"/>
			</blobs>
		</layer>
		<layer id="98" name="resnet_v1_50/block3/unit_6/bottleneck_v1/conv2/Relu" precision="FP32" type="ReLU">
			<input>
				<port id="0">
					<dim>1</dim>
					<dim>256</dim>
					<dim>7</dim>
					<dim>7</dim>
				</port>
			</input>
			<output>
				<port id="1">
					<dim>1</dim>
					<dim>256</dim>
					<dim>7</dim>
					<dim>7</dim>
				</port>
			</output>
		</layer>
		<layer id="99" name="resnet_v1_50/block3/unit_6/bottleneck_v1/conv3/Conv2D" precision="FP32" type="Convolution">
			<data auto_pad="same_upper" dilations="1,1" group="1" kernel="1,1" output="1024" pads_begin="0,0" pads_end="0,0" strides="1,1"/>
			<input>
				<port id="0">
					<dim>1</dim>
					<dim>256</dim>
					<dim>7</dim>
					<dim>7</dim>
				</port>
			</input>
			<output>
				<port id="3">
					<dim>1</dim>
					<dim>1024</dim>
					<dim>7</dim>
					<dim>7</dim>
				</port>
			</output>
			<blobs>
				<weights offset="33059352" size="1048576"/>
				<biases offset="34107928" size="4096"/>
			</blobs>
		</layer>
		<layer id="100" name="resnet_v1_50/block3/unit_6/bottleneck_v1/add" precision="FP32" type="Eltwise">
			<data operation="sum"/>
			<input>
				<port id="0">
					<dim>1</dim>
					<dim>1024</dim>
					<dim>7</dim>
					<dim>7</dim>
				</port>
				<port id="1">
					<dim>1</dim>
					<dim>1024</dim>
					<dim>7</dim>
					<dim>7</dim>
				</port>
			</input>
			<output>
				<port id="2">
					<dim>1</dim>
					<dim>1024</dim>
					<dim>7</dim>
					<dim>7</dim>
				</port>
			</output>
		</layer>
		<layer id="101" name="resnet_v1_50/block3/unit_6/bottleneck_v1/Relu" precision="FP32" type="ReLU">
			<input>
				<port id="0">
					<dim>1</dim>
					<dim>1024</dim>
					<dim>7</dim>
					<dim>7</dim>
				</port>
			</input>
			<output>
				<port id="1">
					<dim>1</dim>
					<dim>1024</dim>
					<dim>7</dim>
					<dim>7</dim>
				</port>
			</output>
		</layer>
		<layer id="102" name="resnet_v1_50/block4/unit_1/bottleneck_v1/shortcut/Conv2D" precision="FP32" type="Convolution">
			<data auto_pad="same_upper" dilations="1,1" group="1" kernel="1,1" output="2048" pads_begin="0,0" pads_end="0,0" strides="1,1"/>
			<input>
				<port id="0">
					<dim>1</dim>
					<dim>1024</dim>
					<dim>7</dim>
					<dim>7</dim>
				</port>
			</input>
			<output>
				<port id="3">
					<dim>1</dim>
					<dim>2048</dim>
					<dim>7</dim>
					<dim>7</dim>
				</port>
			</output>
			<blobs>
				<weights offset="34112024" size="8388608"/>
				<biases offset="42500632" size="8192"/>
			</blobs>
		</layer>
		<layer id="103" name="resnet_v1_50/block4/unit_1/bottleneck_v1/conv1/Conv2D" precision="FP32" type="Convolution">
			<data auto_pad="same_upper" dilations="1,1" group="1" kernel="1,1" output="512" pads_begin="0,0" pads_end="0,0" strides="1,1"/>
			<input>
				<port id="0">
					<dim>1</dim>
					<dim>1024</dim>
					<dim>7</dim>
					<dim>7</dim>
				</port>
			</input>
			<output>
				<port id="3">
					<dim>1</dim>
					<dim>512</dim>
					<dim>7</dim>
					<dim>7</dim>
				</port>
			</output>
			<blobs>
				<weights offset="42508824" size="2097152"/>
				<biases offset="44605976" size="2048"/>
			</blobs>
		</layer>
		<layer id="104" name="resnet_v1_50/block4/unit_1/bottleneck_v1/conv1/Relu" precision="FP32" type="ReLU">
			<input>
				<port id="0">
					<dim>1</dim>
					<dim>512</dim>
					<dim>7</dim>
					<dim>7</dim>
				</port>
			</input>
			<output>
				<port id="1">
					<dim>1</dim>
					<dim>512</dim>
					<dim>7</dim>
					<dim>7</dim>
				</port>
			</output>
		</layer>
		<layer id="105" name="resnet_v1_50/block4/unit_1/bottleneck_v1/conv2/Conv2D" precision="FP32" type="Convolution">
			<data auto_pad="same_upper" dilations="1,1" group="1" kernel="3,3" output="512" pads_begin="1,1" pads_end="1,1" strides="1,1"/>
			<input>
				<port id="0">
					<dim>1</dim>
					<dim>512</dim>
					<dim>7</dim>
					<dim>7</dim>
				</port>
			</input>
			<output>
				<port id="3">
					<dim>1</dim>
					<dim>512</dim>
					<dim>7</dim>
					<dim>7</dim>
				</port>
			</output>
			<blobs>
				<weights offset="44608024" size="9437184"/>
				<biases offset="54045208" size="2048"/>
			</blobs>
		</layer>
		<layer id="106" name="resnet_v1_50/block4/unit_1/bottleneck_v1/conv2/Relu" precision="FP32" type="ReLU">
			<input>
				<port id="0">
					<dim>1</dim>
					<dim>512</dim>
					<dim>7</dim>
					<dim>7</dim>
				</port>
			</input>
			<output>
				<port id="1">
					<dim>1</dim>
					<dim>512</dim>
					<dim>7</dim>
					<dim>7</dim>
				</port>
			</output>
		</layer>
		<layer id="107" name="resnet_v1_50/block4/unit_1/bottleneck_v1/conv3/Conv2D" precision="FP32" type="Convolution">
			<data auto_pad="same_upper" dilations="1,1" group="1" kernel="1,1" output="2048" pads_begin="0,0" pads_end="0,0" strides="1,1"/>
			<input>
				<port id="0">
					<dim>1</dim>
					<dim>512</dim>
					<dim>7</dim>
					<dim>7</dim>
				</port>
			</input>
			<output>
				<port id="3">
					<dim>1</dim>
					<dim>2048</dim>
					<dim>7</dim>
					<dim>7</dim>
				</port>
			</output>
			<blobs>
				<weights offset="54047256" size="4194304"/>
				<biases offset="58241560" size="8192"/>
			</blobs>
		</layer>
		<layer id="108" name="resnet_v1_50/block4/unit_1/bottleneck_v1/add" precision="FP32" type="Eltwise">
			<data operation="sum"/>
			<input>
				<port id="0">
					<dim>1</dim>
					<dim>2048</dim>
					<dim>7</dim>
					<dim>7</dim>
				</port>
				<port id="1">
					<dim>1</dim>
					<dim>2048</dim>
					<dim>7</dim>
					<dim>7</dim>
				</port>
			</input>
			<output>
				<port id="2">
					<dim>1</dim>
					<dim>2048</dim>
					<dim>7</dim>
					<dim>7</dim>
				</port>
			</output>
		</layer>
		<layer id="109" name="resnet_v1_50/block4/unit_1/bottleneck_v1/Relu" precision="FP32" type="ReLU">
			<input>
				<port id="0">
					<dim>1</dim>
					<dim>2048</dim>
					<dim>7</dim>
					<dim>7</dim>
				</port>
			</input>
			<output>
				<port id="1">
					<dim>1</dim>
					<dim>2048</dim>
					<dim>7</dim>
					<dim>7</dim>
				</port>
			</output>
		</layer>
		<layer id="110" name="resnet_v1_50/block4/unit_2/bottleneck_v1/conv1/Conv2D" precision="FP32" type="Convolution">
			<data auto_pad="same_upper" dilations="1,1" group="1" kernel="1,1" output="512" pads_begin="0,0" pads_end="0,0" strides="1,1"/>
			<input>
				<port id="0">
					<dim>1</dim>
					<dim>2048</dim>
					<dim>7</dim>
					<dim>7</dim>
				</port>
			</input>
			<output>
				<port id="3">
					<dim>1</dim>
					<dim>512</dim>
					<dim>7</dim>
					<dim>7</dim>
				</port>
			</output>
			<blobs>
				<weights offset="58249752" size="4194304"/>
				<biases offset="62444056" size="2048"/>
			</blobs>
		</layer>
		<layer id="111" name="resnet_v1_50/block4/unit_2/bottleneck_v1/conv1/Relu" precision="FP32" type="ReLU">
			<input>
				<port id="0">
					<dim>1</dim>
					<dim>512</dim>
					<dim>7</dim>
					<dim>7</dim>
				</port>
			</input>
			<output>
				<port id="1">
					<dim>1</dim>
					<dim>512</dim>
					<dim>7</dim>
					<dim>7</dim>
				</port>
			</output>
		</layer>
		<layer id="112" name="resnet_v1_50/block4/unit_2/bottleneck_v1/conv2/Conv2D" precision="FP32" type="Convolution">
			<data auto_pad="same_upper" dilations="1,1" group="1" kernel="3,3" output="512" pads_begin="1,1" pads_end="1,1" strides="1,1"/>
			<input>
				<port id="0">
					<dim>1</dim>
					<dim>512</dim>
					<dim>7</dim>
					<dim>7</dim>
				</port>
			</input>
			<output>
				<port id="3">
					<dim>1</dim>
					<dim>512</dim>
					<dim>7</dim>
					<dim>7</dim>
				</port>
			</output>
			<blobs>
				<weights offset="62446104" size="9437184"/>
				<biases offset="71883288" size="2048"/>
			</blobs>
		</layer>
		<layer id="113" name="resnet_v1_50/block4/unit_2/bottleneck_v1/conv2/Relu" precision="FP32" type="ReLU">
			<input>
				<port id="0">
					<dim>1</dim>
					<dim>512</dim>
					<dim>7</dim>
					<dim>7</dim>
				</port>
			</input>
			<output>
				<port id="1">
					<dim>1</dim>
					<dim>512</dim>
					<dim>7</dim>
					<dim>7</dim>
				</port>
			</output>
		</layer>
		<layer id="114" name="resnet_v1_50/block4/unit_2/bottleneck_v1/conv3/Conv2D" precision="FP32" type="Convolution">
			<data auto_pad="same_upper" dilations="1,1" group="1" kernel="1,1" output="2048" pads_begin="0,0" pads_end="0,0" strides="1,1"/>
			<input>
				<port id="0">
					<dim>1</dim>
					<dim>512</dim>
					<dim>7</dim>
					<dim>7</dim>
				</port>
			</input>
			<output>
				<port id="3">
					<dim>1</dim>
					<dim>2048</dim>
					<dim>7</dim>
					<dim>7</dim>
				</port>
			</output>
			<blobs>
				<weights offset="71885336" size="4194304"/>
				<biases offset="76079640" size="8192"/>
			</blobs>
		</layer>
		<layer id="115" name="resnet_v1_50/block4/unit_2/bottleneck_v1/add" precision="FP32" type="Eltwise">
			<data operation="sum"/>
			<input>
				<port id="0">
					<dim>1</dim>
					<dim>2048</dim>
					<dim>7</dim>
					<dim>7</dim>
				</port>
				<port id="1">
					<dim>1</dim>
					<dim>2048</dim>
					<dim>7</dim>
					<dim>7</dim>
				</port>
			</input>
			<output>
				<port id="2">
					<dim>1</dim>
					<dim>2048</dim>
					<dim>7</dim>
					<dim>7</dim>
				</port>
			</output>
		</layer>
		<layer id="116" name="resnet_v1_50/block4/unit_2/bottleneck_v1/Relu" precision="FP32" type="ReLU">
			<input>
				<port id="0">
					<dim>1</dim>
					<dim>2048</dim>
					<dim>7</dim>
					<dim>7</dim>
				</port>
			</input>
			<output>
				<port id="1">
					<dim>1</dim>
					<dim>2048</dim>
					<dim>7</dim>
					<dim>7</dim>
				</port>
			</output>
		</layer>
		<layer id="117" name="resnet_v1_50/block4/unit_3/bottleneck_v1/conv1/Conv2D" precision="FP32" type="Convolution">
			<data auto_pad="same_upper" dilations="1,1" group="1" kernel="1,1" output="512" pads_begin="0,0" pads_end="0,0" strides="1,1"/>
			<input>
				<port id="0">
					<dim>1</dim>
					<dim>2048</dim>
					<dim>7</dim>
					<dim>7</dim>
				</port>
			</input>
			<output>
				<port id="3">
					<dim>1</dim>
					<dim>512</dim>
					<dim>7</dim>
					<dim>7</dim>
				</port>
			</output>
			<blobs>
				<weights offset="76087832" size="4194304"/>
				<biases offset="80282136" size="2048"/>
			</blobs>
		</layer>
		<layer id="118" name="resnet_v1_50/block4/unit_3/bottleneck_v1/conv1/Relu" precision="FP32" type="ReLU">
			<input>
				<port id="0">
					<dim>1</dim>
					<dim>512</dim>
					<dim>7</dim>
					<dim>7</dim>
				</port>
			</input>
			<output>
				<port id="1">
					<dim>1</dim>
					<dim>512</dim>
					<dim>7</dim>
					<dim>7</dim>
				</port>
			</output>
		</layer>
		<layer id="119" name="resnet_v1_50/block4/unit_3/bottleneck_v1/conv2/Conv2D" precision="FP32" type="Convolution">
			<data auto_pad="same_upper" dilations="1,1" group="1" kernel="3,3" output="512" pads_begin="1,1" pads_end="1,1" strides="1,1"/>
			<input>
				<port id="0">
					<dim>1</dim>
					<dim>512</dim>
					<dim>7</dim>
					<dim>7</dim>
				</port>
			</input>
			<output>
				<port id="3">
					<dim>1</dim>
					<dim>512</dim>
					<dim>7</dim>
					<dim>7</dim>
				</port>
			</output>
			<blobs>
				<weights offset="80284184" size="9437184"/>
				<biases offset="89721368" size="2048"/>
			</blobs>
		</layer>
		<layer id="120" name="resnet_v1_50/block4/unit_3/bottleneck_v1/conv2/Relu" precision="FP32" type="ReLU">
			<input>
				<port id="0">
					<dim>1</dim>
					<dim>512</dim>
					<dim>7</dim>
					<dim>7</dim>
				</port>
			</input>
			<output>
				<port id="1">
					<dim>1</dim>
					<dim>512</dim>
					<dim>7</dim>
					<dim>7</dim>
				</port>
			</output>
		</layer>
		<layer id="121" name="resnet_v1_50/block4/unit_3/bottleneck_v1/conv3/Conv2D" precision="FP32" type="Convolution">
			<data auto_pad="same_upper" dilations="1,1" group="1" kernel="1,1" output="2048" pads_begin="0,0" pads_end="0,0" strides="1,1"/>
			<input>
				<port id="0">
					<dim>1</dim>
					<dim>512</dim>
					<dim>7</dim>
					<dim>7</dim>
				</port>
			</input>
			<output>
				<port id="3">
					<dim>1</dim>
					<dim>2048</dim>
					<dim>7</dim>
					<dim>7</dim>
				</port>
			</output>
			<blobs>
				<weights offset="89723416" size="4194304"/>
				<biases offset="93917720" size="8192"/>
			</blobs>
		</layer>
		<layer id="122" name="resnet_v1_50/block4/unit_3/bottleneck_v1/add" precision="FP32" type="Eltwise">
			<data operation="sum"/>
			<input>
				<port id="0">
					<dim>1</dim>
					<dim>2048</dim>
					<dim>7</dim>
					<dim>7</dim>
				</port>
				<port id="1">
					<dim>1</dim>
					<dim>2048</dim>
					<dim>7</dim>
					<dim>7</dim>
				</port>
			</input>
			<output>
				<port id="2">
					<dim>1</dim>
					<dim>2048</dim>
					<dim>7</dim>
					<dim>7</dim>
				</port>
			</output>
		</layer>
		<layer id="123" name="resnet_v1_50/block4/unit_3/bottleneck_v1/Relu" precision="FP32" type="ReLU">
			<input>
				<port id="0">
					<dim>1</dim>
					<dim>2048</dim>
					<dim>7</dim>
					<dim>7</dim>
				</port>
			</input>
			<output>
				<port id="1">
					<dim>1</dim>
					<dim>2048</dim>
					<dim>7</dim>
					<dim>7</dim>
				</port>
			</output>
		</layer>
		<layer id="124" name="resnet_v1_50/pool5" precision="FP32" type="Pooling">
			<data exclude-pad="true" kernel="7,7" pads_begin="0,0" pads_end="0,0" pool-method="avg" rounding-type="ceil" strides="1,1"/>
			<input>
				<port id="0">
					<dim>1</dim>
					<dim>2048</dim>
					<dim>7</dim>
					<dim>7</dim>
				</port>
			</input>
			<output>
				<port id="1">
					<dim>1</dim>
					<dim>2048</dim>
					<dim>1</dim>
					<dim>1</dim>
				</port>
			</output>
		</layer>
		<layer id="125" name="resnet_v1_50/logits/Conv2D" precision="FP32" type="Convolution">
			<data auto_pad="same_upper" dilations="1,1" group="1" kernel="1,1" output="1000" pads_begin="0,0" pads_end="0,0" strides="1,1"/>
			<input>
				<port id="0">
					<dim>1</dim>
					<dim>2048</dim>
					<dim>1</dim>
					<dim>1</dim>
				</port>
			</input>
			<output>
				<port id="3">
					<dim>1</dim>
					<dim>1000</dim>
					<dim>1</dim>
					<dim>1</dim>
				</port>
			</output>
			<blobs>
				<weights offset="93925912" size="8192000"/>
				<biases offset="102117912" size="4000"/>
			</blobs>
		</layer>
		<layer id="126" name="resnet_v1_50/predictions/Reshape" precision="FP32" type="Reshape">
			<data axis="0" dim="-1,1000" num_axes="-1"/>
			<input>
				<port id="0">
					<dim>1</dim>
					<dim>1000</dim>
					<dim>1</dim>
					<dim>1</dim>
				</port>
			</input>
			<output>
				<port id="1">
					<dim>1</dim>
					<dim>1000</dim>
				</port>
			</output>
		</layer>
		<layer id="127" name="resnet_v1_50/predictions/Softmax" precision="FP32" type="SoftMax">
			<input>
				<port id="0">
					<dim>1</dim>
					<dim>1000</dim>
				</port>
			</input>
			<output>
				<port id="1">
					<dim>1</dim>
					<dim>1000</dim>
				</port>
			</output>
		</layer>
		<layer id="128" name="resnet_v1_50/predictions/Reshape_1" precision="FP32" type="Reshape">
			<data axis="0" dim="1,1000" num_axes="-1"/>
			<input>
				<port id="0">
					<dim>1</dim>
					<dim>1000</dim>
				</port>
			</input>
			<output>
				<port id="1">
					<dim>1</dim>
					<dim>1000</dim>
				</port>
			</output>
		</layer>
	</layers>
	<edges>
		<edge from-layer="0" from-port="0" to-layer="1" to-port="0"/>
		<edge from-layer="1" from-port="3" to-layer="2" to-port="0"/>
		<edge from-layer="2" from-port="3" to-layer="3" to-port="0"/>
		<edge from-layer="3" from-port="1" to-layer="4" to-port="0"/>
		<edge from-layer="4" from-port="1" to-layer="5" to-port="0"/>
		<edge from-layer="4" from-port="1" to-layer="6" to-port="0"/>
		<edge from-layer="6" from-port="3" to-layer="7" to-port="0"/>
		<edge from-layer="7" from-port="1" to-layer="8" to-port="0"/>
		<edge from-layer="8" from-port="3" to-layer="9" to-port="0"/>
		<edge from-layer="9" from-port="1" to-layer="10" to-port="0"/>
		<edge from-layer="5" from-port="3" to-layer="11" to-port="0"/>
		<edge from-layer="10" from-port="3" to-layer="11" to-port="1"/>
		<edge from-layer="11" from-port="2" to-layer="12" to-port="0"/>
		<edge from-layer="12" from-port="1" to-layer="13" to-port="0"/>
		<edge from-layer="13" from-port="3" to-layer="14" to-port="0"/>
		<edge from-layer="14" from-port="1" to-layer="15" to-port="0"/>
		<edge from-layer="15" from-port="3" to-layer="16" to-port="0"/>
		<edge from-layer="16" from-port="1" to-layer="17" to-port="0"/>
		<edge from-layer="12" from-port="1" to-layer="18" to-port="0"/>
		<edge from-layer="17" from-port="3" to-layer="18" to-port="1"/>
		<edge from-layer="18" from-port="2" to-layer="19" to-port="0"/>
		<edge from-layer="19" from-port="1" to-layer="20" to-port="0"/>
		<edge from-layer="19" from-port="1" to-layer="21" to-port="0"/>
		<edge from-layer="21" from-port="3" to-layer="22" to-port="0"/>
		<edge from-layer="22" from-port="1" to-layer="23" to-port="0"/>
		<edge from-layer="23" from-port="3" to-layer="24" to-port="0"/>
		<edge from-layer="24" from-port="1" to-layer="25" to-port="0"/>
		<edge from-layer="20" from-port="1" to-layer="26" to-port="0"/>
		<edge from-layer="25" from-port="3" to-layer="26" to-port="1"/>
		<edge from-layer="26" from-port="2" to-layer="27" to-port="0"/>
		<edge from-layer="27" from-port="1" to-layer="28" to-port="0"/>
		<edge from-layer="27" from-port="1" to-layer="29" to-port="0"/>
		<edge from-layer="29" from-port="3" to-layer="30" to-port="0"/>
		<edge from-layer="30" from-port="1" to-layer="31" to-port="0"/>
		<edge from-layer="31" from-port="3" to-layer="32" to-port="0"/>
		<edge from-layer="32" from-port="1" to-layer="33" to-port="0"/>
		<edge from-layer="28" from-port="3" to-layer="34" to-port="0"/>
		<edge from-layer="33" from-port="3" to-layer="34" to-port="1"/>
		<edge from-layer="34" from-port="2" to-layer="35" to-port="0"/>
		<edge from-layer="35" from-port="1" to-layer="36" to-port="0"/>
		<edge from-layer="36" from-port="3" to-layer="37" to-port="0"/>
		<edge from-layer="37" from-port="1" to-layer="38" to-port="0"/>
		<edge from-layer="38" from-port="3" to-layer="39" to-port="0"/>
		<edge from-layer="39" from-port="1" to-layer="40" to-port="0"/>
		<edge from-layer="35" from-port="1" to-layer="41" to-port="0"/>
		<edge from-layer="40" from-port="3" to-layer="41" to-port="1"/>
		<edge from-layer="41" from-port="2" to-layer="42" to-port="0"/>
		<edge from-layer="42" from-port="1" to-layer="43" to-port="0"/>
		<edge from-layer="43" from-port="3" to-layer="44" to-port="0"/>
		<edge from-layer="44" from-port="1" to-layer="45" to-port="0"/>
		<edge from-layer="45" from-port="3" to-layer="46" to-port="0"/>
		<edge from-layer="46" from-port="1" to-layer="47" to-port="0"/>
		<edge from-layer="42" from-port="1" to-layer="48" to-port="0"/>
		<edge from-layer="47" from-port="3" to-layer="48" to-port="1"/>
		<edge from-layer="48" from-port="2" to-layer="49" to-port="0"/>
		<edge from-layer="49" from-port="1" to-layer="50" to-port="0"/>
		<edge from-layer="49" from-port="1" to-layer="51" to-port="0"/>
		<edge from-layer="51" from-port="3" to-layer="52" to-port="0"/>
		<edge from-layer="52" from-port="1" to-layer="53" to-port="0"/>
		<edge from-layer="53" from-port="3" to-layer="54" to-port="0"/>
		<edge from-layer="54" from-port="1" to-layer="55" to-port="0"/>
		<edge from-layer="50" from-port="1" to-layer="56" to-port="0"/>
		<edge from-layer="55" from-port="3" to-layer="56" to-port="1"/>
		<edge from-layer="56" from-port="2" to-layer="57" to-port="0"/>
		<edge from-layer="57" from-port="1" to-layer="58" to-port="0"/>
		<edge from-layer="57" from-port="1" to-layer="59" to-port="0"/>
		<edge from-layer="59" from-port="3" to-layer="60" to-port="0"/>
		<edge from-layer="60" from-port="1" to-layer="61" to-port="0"/>
		<edge from-layer="61" from-port="3" to-layer="62" to-port="0"/>
		<edge from-layer="62" from-port="1" to-layer="63" to-port="0"/>
		<edge from-layer="58" from-port="3" to-layer="64" to-port="0"/>
		<edge from-layer="63" from-port="3" to-layer="64" to-port="1"/>
		<edge from-layer="64" from-port="2" to-layer="65" to-port="0"/>
		<edge from-layer="65" from-port="1" to-layer="66" to-port="0"/>
		<edge from-layer="66" from-port="3" to-layer="67" to-port="0"/>
		<edge from-layer="67" from-port="1" to-layer="68" to-port="0"/>
		<edge from-layer="68" from-port="3" to-layer="69" to-port="0"/>
		<edge from-layer="69" from-port="1" to-layer="70" to-port="0"/>
		<edge from-layer="65" from-port="1" to-layer="71" to-port="0"/>
		<edge from-layer="70" from-port="3" to-layer="71" to-port="1"/>
		<edge from-layer="71" from-port="2" to-layer="72" to-port="0"/>
		<edge from-layer="72" from-port="1" to-layer="73" to-port="0"/>
		<edge from-layer="73" from-port="3" to-layer="74" to-port="0"/>
		<edge from-layer="74" from-port="1" to-layer="75" to-port="0"/>
		<edge from-layer="75" from-port="3" to-layer="76" to-port="0"/>
		<edge from-layer="76" from-port="1" to-layer="77" to-port="0"/>
		<edge from-layer="72" from-port="1" to-layer="78" to-port="0"/>
		<edge from-layer="77" from-port="3" to-layer="78" to-port="1"/>
		<edge from-layer="78" from-port="2" to-layer="79" to-port="0"/>
		<edge from-layer="79" from-port="1" to-layer="80" to-port="0"/>
		<edge from-layer="80" from-port="3" to-layer="81" to-port="0"/>
		<edge from-layer="81" from-port="1" to-layer="82" to-port="0"/>
		<edge from-layer="82" from-port="3" to-layer="83" to-port="0"/>
		<edge from-layer="83" from-port="1" to-layer="84" to-port="0"/>
		<edge from-layer="79" from-port="1" to-layer="85" to-port="0"/>
		<edge from-layer="84" from-port="3" to-layer="85" to-port="1"/>
		<edge from-layer="85" from-port="2" to-layer="86" to-port="0"/>
		<edge from-layer="86" from-port="1" to-layer="87" to-port="0"/>
		<edge from-layer="87" from-port="3" to-layer="88" to-port="0"/>
		<edge from-layer="88" from-port="1" to-layer="89" to-port="0"/>
		<edge from-layer="89" from-port="3" to-layer="90" to-port="0"/>
		<edge from-layer="90" from-port="1" to-layer="91" to-port="0"/>
		<edge from-layer="86" from-port="1" to-layer="92" to-port="0"/>
		<edge from-layer="91" from-port="3" to-layer="92" to-port="1"/>
		<edge from-layer="92" from-port="2" to-layer="93" to-port="0"/>
		<edge from-layer="93" from-port="1" to-layer="94" to-port="0"/>
		<edge from-layer="93" from-port="1" to-layer="95" to-port="0"/>
		<edge from-layer="95" from-port="3" to-layer="96" to-port="0"/>
		<edge from-layer="96" from-port="1" to-layer="97" to-port="0"/>
		<edge from-layer="97" from-port="3" to-layer="98" to-port="0"/>
		<edge from-layer="98" from-port="1" to-layer="99" to-port="0"/>
		<edge from-layer="94" from-port="1" to-layer="100" to-port="0"/>
		<edge from-layer="99" from-port="3" to-layer="100" to-port="1"/>
		<edge from-layer="100" from-port="2" to-layer="101" to-port="0"/>
		<edge from-layer="101" from-port="1" to-layer="102" to-port="0"/>
		<edge from-layer="101" from-port="1" to-layer="103" to-port="0"/>
		<edge from-layer="103" from-port="3" to-layer="104" to-port="0"/>
		<edge from-layer="104" from-port="1" to-layer="105" to-port="0"/>
		<edge from-layer="105" from-port="3" to-layer="106" to-port="0"/>
		<edge from-layer="106" from-port="1" to-layer="107" to-port="0"/>
		<edge from-layer="102" from-port="3" to-layer="108" to-port="0"/>
		<edge from-layer="107" from-port="3" to-layer="108" to-port="1"/>
		<edge from-layer="108" from-port="2" to-layer="109" to-port="0"/>
		<edge from-layer="109" from-port="1" to-layer="110" to-port="0"/>
		<edge from-layer="110" from-port="3" to-layer="111" to-port="0"/>
		<edge from-layer="111" from-port="1" to-layer="112" to-port="0"/>
		<edge from-layer="112" from-port="3" to-layer="113" to-port="0"/>
		<edge from-layer="113" from-port="1" to-layer="114" to-port="0"/>
		<edge from-layer="109" from-port="1" to-layer="115" to-port="0"/>
		<edge from-layer="114" from-port="3" to-layer="115" to-port="1"/>
		<edge from-layer="115" from-port="2" to-layer="116" to-port="0"/>
		<edge from-layer="116" from-port="1" to-layer="117" to-port="0"/>
		<edge from-layer="117" from-port="3" to-layer="118" to-port="0"/>
		<edge from-layer="118" from-port="1" to-layer="119" to-port="0"/>
		<edge from-layer="119" from-port="3" to-layer="120" to-port="0"/>
		<edge from-layer="120" from-port="1" to-layer="121" to-port="0"/>
		<edge from-layer="116" from-port="1" to-layer="122" to-port="0"/>
		<edge from-layer="121" from-port="3" to-layer="122" to-port="1"/>
		<edge from-layer="122" from-port="2" to-layer="123" to-port="0"/>
		<edge from-layer="123" from-port="1" to-layer="124" to-port="0"/>
		<edge from-layer="124" from-port="1" to-layer="125" to-port="0"/>
		<edge from-layer="125" from-port="3" to-layer="126" to-port="0"/>
		<edge from-layer="126" from-port="1" to-layer="127" to-port="0"/>
		<edge from-layer="127" from-port="1" to-layer="128" to-port="0"/>
	</edges>
	<meta_data>
		<MO_version value="1.4.292.6ef7232d"/>
		<cli_parameters>
			<data_type value="FP32"/>
			<disable_fusing value="False"/>
			<disable_gfusing value="False"/>
			<disable_nhwc_to_nchw value="False"/>
			<disable_omitting_optional value="False"/>
			<disable_resnet_optimization value="False"/>
			<enable_flattening_nested_params value="False"/>
			<extensions value="DIR"/>
			<framework value="tf"/>
			<generate_deprecated_IR_V2 value="False"/>
			<input value="input"/>
			<input_model value="DIR/resnet_v1_50.frozen.pb"/>
			<input_model_is_text value="False"/>
			<input_shape value="[1,224,224,3]"/>
			<k value="DIR/CustomLayersMapping.xml"/>
			<legacy_mxnet_model value="False"/>
			<log_level value="ERROR"/>
			<mean_values value="[123,117,104]"/>
			<move_to_preprocess value="False"/>
			<offload_unsupported_operations_to_tf value="False"/>
			<output_dir value="DIR"/>
			<remove_output_softmax value="False"/>
			<reverse_input_channels value="True"/>
			<save_params_from_nd value="False"/>
			<scale_values value="()"/>
			<silent value="False"/>
			<version value="False"/>
			<unset unset_cli_parameters="batch, counts, finegrain_fusing, freeze_placeholder_with_value, input_checkpoint, input_meta_graph, input_proto, input_symbol, mean_file, mean_file_offsets, model_name, nd_prefix_name, output, pretrained_model_name, saved_model_dir, saved_model_tags, scale, tensorboard_logdir, tensorflow_custom_layer_libraries, tensorflow_custom_operations_config_update, tensorflow_object_detection_api_pipeline_config, tensorflow_operation_patterns, tensorflow_subgraph_patterns, tensorflow_use_custom_operations_config"/>
		</cli_parameters>
	</meta_data>
</net>
