<?xml version="1.0" encoding="UTF-8"?>
<net name="ssd_mobilenet" version="3" batch="1">
	<layers>
		<layer name="data" type="Input" precision="FP32" id="0">
			<output>
				<port id="0">
					<dim>1</dim>
					<dim>3</dim>
					<dim>300</dim>
					<dim>300</dim>
				</port>
			</output>
		</layer>
		<layer name="Mul1_/Fused_Mul_/FusedScaleShift_" type="ScaleShift" precision="FP32" id="1">
			<data broadcast="0"/>
			<input>
				<port id="0">
					<dim>1</dim>
					<dim>3</dim>
					<dim>300</dim>
					<dim>300</dim>
				</port>
			</input>
			<output>
				<port id="1">
					<dim>1</dim>
					<dim>3</dim>
					<dim>300</dim>
					<dim>300</dim>
				</port>
			</output>
			<blobs>
				<biases offset="0" size="12"/>
				<weights offset="12" size="12"/>
			</blobs>
		</layer>
		<layer name="conv0" type="Convolution" precision="FP32" id="2">
			<data dilations="1,1" group="1" kernel="3,3" output="32" pads_begin="1,1" pads_end="1,1" quantization_level="FP32" strides="2,2"/>
			<input>
				<port id="0">
					<dim>1</dim>
					<dim>3</dim>
					<dim>300</dim>
					<dim>300</dim>
				</port>
			</input>
			<output>
				<port id="1">
					<dim>1</dim>
					<dim>32</dim>
					<dim>150</dim>
					<dim>150</dim>
				</port>
			</output>
			<blobs>
				<biases offset="24" size="128"/>
				<weights offset="152" size="3456"/>
			</blobs>
		</layer>
		<layer name="conv0/relu" type="ReLU" precision="FP32" id="3">
			<data negative_slope="0.0"/>
			<input>
				<port id="0">
					<dim>1</dim>
					<dim>32</dim>
					<dim>150</dim>
					<dim>150</dim>
				</port>
			</input>
			<output>
				<port id="1">
					<dim>1</dim>
					<dim>32</dim>
					<dim>150</dim>
					<dim>150</dim>
				</port>
			</output>
		</layer>
		<layer name="conv1/dw" type="Convolution" precision="FP32" id="4">
			<data dilations="1,1" group="32" kernel="3,3" output="32" pads_begin="1,1" pads_end="1,1" quantization_level="FP32" strides="1,1"/>
			<input>
				<port id="0">
					<dim>1</dim>
					<dim>32</dim>
					<dim>150</dim>
					<dim>150</dim>
				</port>
			</input>
			<output>
				<port id="1">
					<dim>1</dim>
					<dim>32</dim>
					<dim>150</dim>
					<dim>150</dim>
				</port>
			</output>
			<blobs>
				<biases offset="3608" size="128"/>
				<weights offset="3736" size="1152"/>
			</blobs>
		</layer>
		<layer name="conv1/dw/relu" type="ReLU" precision="FP32" id="5">
			<data negative_slope="0.0"/>
			<input>
				<port id="0">
					<dim>1</dim>
					<dim>32</dim>
					<dim>150</dim>
					<dim>150</dim>
				</port>
			</input>
			<output>
				<port id="1">
					<dim>1</dim>
					<dim>32</dim>
					<dim>150</dim>
					<dim>150</dim>
				</port>
			</output>
		</layer>
		<layer name="conv1" type="Convolution" precision="FP32" id="6">
			<data dilations="1,1" group="1" kernel="1,1" output="64" pads_begin="0,0" pads_end="0,0" quantization_level="I8" strides="1,1"/>
			<input>
				<port id="0">
					<dim>1</dim>
					<dim>32</dim>
					<dim>150</dim>
					<dim>150</dim>
				</port>
			</input>
			<output>
				<port id="1">
					<dim>1</dim>
					<dim>64</dim>
					<dim>150</dim>
					<dim>150</dim>
				</port>
			</output>
			<blobs>
				<biases offset="4888" size="256"/>
				<weights offset="5144" size="8192"/>
			</blobs>
		</layer>
		<layer name="conv1/relu" type="ReLU" precision="FP32" id="7">
			<data negative_slope="0.0"/>
			<input>
				<port id="0">
					<dim>1</dim>
					<dim>64</dim>
					<dim>150</dim>
					<dim>150</dim>
				</port>
			</input>
			<output>
				<port id="1">
					<dim>1</dim>
					<dim>64</dim>
					<dim>150</dim>
					<dim>150</dim>
				</port>
			</output>
		</layer>
		<layer name="conv2/dw" type="Convolution" precision="FP32" id="8">
			<data dilations="1,1" group="64" kernel="3,3" output="64" pads_begin="1,1" pads_end="1,1" quantization_level="I8" strides="2,2"/>
			<input>
				<port id="0">
					<dim>1</dim>
					<dim>64</dim>
					<dim>150</dim>
					<dim>150</dim>
				</port>
			</input>
			<output>
				<port id="1">
					<dim>1</dim>
					<dim>64</dim>
					<dim>75</dim>
					<dim>75</dim>
				</port>
			</output>
			<blobs>
				<biases offset="13336" size="256"/>
				<weights offset="13592" size="2304"/>
			</blobs>
		</layer>
		<layer name="conv2/dw/relu" type="ReLU" precision="FP32" id="9">
			<data negative_slope="0.0"/>
			<input>
				<port id="0">
					<dim>1</dim>
					<dim>64</dim>
					<dim>75</dim>
					<dim>75</dim>
				</port>
			</input>
			<output>
				<port id="1">
					<dim>1</dim>
					<dim>64</dim>
					<dim>75</dim>
					<dim>75</dim>
				</port>
			</output>
		</layer>
		<layer name="conv2" type="Convolution" precision="FP32" id="10">
			<data dilations="1,1" group="1" kernel="1,1" output="128" pads_begin="0,0" pads_end="0,0" quantization_level="I8" strides="1,1"/>
			<input>
				<port id="0">
					<dim>1</dim>
					<dim>64</dim>
					<dim>75</dim>
					<dim>75</dim>
				</port>
			</input>
			<output>
				<port id="1">
					<dim>1</dim>
					<dim>128</dim>
					<dim>75</dim>
					<dim>75</dim>
				</port>
			</output>
			<blobs>
				<biases offset="15896" size="512"/>
				<weights offset="16408" size="32768"/>
			</blobs>
		</layer>
		<layer name="conv2/relu" type="ReLU" precision="FP32" id="11">
			<data negative_slope="0.0"/>
			<input>
				<port id="0">
					<dim>1</dim>
					<dim>128</dim>
					<dim>75</dim>
					<dim>75</dim>
				</port>
			</input>
			<output>
				<port id="1">
					<dim>1</dim>
					<dim>128</dim>
					<dim>75</dim>
					<dim>75</dim>
				</port>
			</output>
		</layer>
		<layer name="conv3/dw" type="Convolution" precision="FP32" id="12">
			<data dilations="1,1" group="128" kernel="3,3" output="128" pads_begin="1,1" pads_end="1,1" quantization_level="I8" strides="1,1"/>
			<input>
				<port id="0">
					<dim>1</dim>
					<dim>128</dim>
					<dim>75</dim>
					<dim>75</dim>
				</port>
			</input>
			<output>
				<port id="1">
					<dim>1</dim>
					<dim>128</dim>
					<dim>75</dim>
					<dim>75</dim>
				</port>
			</output>
			<blobs>
				<biases offset="49176" size="512"/>
				<weights offset="49688" size="4608"/>
			</blobs>
		</layer>
		<layer name="conv3/dw/relu" type="ReLU" precision="FP32" id="13">
			<data negative_slope="0.0"/>
			<input>
				<port id="0">
					<dim>1</dim>
					<dim>128</dim>
					<dim>75</dim>
					<dim>75</dim>
				</port>
			</input>
			<output>
				<port id="1">
					<dim>1</dim>
					<dim>128</dim>
					<dim>75</dim>
					<dim>75</dim>
				</port>
			</output>
		</layer>
		<layer name="conv3" type="Convolution" precision="FP32" id="14">
			<data dilations="1,1" group="1" kernel="1,1" output="128" pads_begin="0,0" pads_end="0,0" quantization_level="I8" strides="1,1"/>
			<input>
				<port id="0">
					<dim>1</dim>
					<dim>128</dim>
					<dim>75</dim>
					<dim>75</dim>
				</port>
			</input>
			<output>
				<port id="1">
					<dim>1</dim>
					<dim>128</dim>
					<dim>75</dim>
					<dim>75</dim>
				</port>
			</output>
			<blobs>
				<biases offset="54296" size="512"/>
				<weights offset="54808" size="65536"/>
			</blobs>
		</layer>
		<layer name="conv3/relu" type="ReLU" precision="FP32" id="15">
			<data negative_slope="0.0"/>
			<input>
				<port id="0">
					<dim>1</dim>
					<dim>128</dim>
					<dim>75</dim>
					<dim>75</dim>
				</port>
			</input>
			<output>
				<port id="1">
					<dim>1</dim>
					<dim>128</dim>
					<dim>75</dim>
					<dim>75</dim>
				</port>
			</output>
		</layer>
		<layer name="conv4/dw" type="Convolution" precision="FP32" id="16">
			<data dilations="1,1" group="128" kernel="3,3" output="128" pads_begin="1,1" pads_end="1,1" quantization_level="I8" strides="2,2"/>
			<input>
				<port id="0">
					<dim>1</dim>
					<dim>128</dim>
					<dim>75</dim>
					<dim>75</dim>
				</port>
			</input>
			<output>
				<port id="1">
					<dim>1</dim>
					<dim>128</dim>
					<dim>38</dim>
					<dim>38</dim>
				</port>
			</output>
			<blobs>
				<biases offset="120344" size="512"/>
				<weights offset="120856" size="4608"/>
			</blobs>
		</layer>
		<layer name="conv4/dw/relu" type="ReLU" precision="FP32" id="17">
			<data negative_slope="0.0"/>
			<input>
				<port id="0">
					<dim>1</dim>
					<dim>128</dim>
					<dim>38</dim>
					<dim>38</dim>
				</port>
			</input>
			<output>
				<port id="1">
					<dim>1</dim>
					<dim>128</dim>
					<dim>38</dim>
					<dim>38</dim>
				</port>
			</output>
		</layer>
		<layer name="conv4" type="Convolution" precision="FP32" id="18">
			<data dilations="1,1" group="1" kernel="1,1" output="256" pads_begin="0,0" pads_end="0,0" quantization_level="I8" strides="1,1"/>
			<input>
				<port id="0">
					<dim>1</dim>
					<dim>128</dim>
					<dim>38</dim>
					<dim>38</dim>
				</port>
			</input>
			<output>
				<port id="1">
					<dim>1</dim>
					<dim>256</dim>
					<dim>38</dim>
					<dim>38</dim>
				</port>
			</output>
			<blobs>
				<biases offset="125464" size="1024"/>
				<weights offset="126488" size="131072"/>
			</blobs>
		</layer>
		<layer name="conv4/relu" type="ReLU" precision="FP32" id="19">
			<data negative_slope="0.0"/>
			<input>
				<port id="0">
					<dim>1</dim>
					<dim>256</dim>
					<dim>38</dim>
					<dim>38</dim>
				</port>
			</input>
			<output>
				<port id="1">
					<dim>1</dim>
					<dim>256</dim>
					<dim>38</dim>
					<dim>38</dim>
				</port>
			</output>
		</layer>
		<layer name="conv5/dw" type="Convolution" precision="FP32" id="20">
			<data dilations="1,1" group="256" kernel="3,3" output="256" pads_begin="1,1" pads_end="1,1" quantization_level="I8" strides="1,1"/>
			<input>
				<port id="0">
					<dim>1</dim>
					<dim>256</dim>
					<dim>38</dim>
					<dim>38</dim>
				</port>
			</input>
			<output>
				<port id="1">
					<dim>1</dim>
					<dim>256</dim>
					<dim>38</dim>
					<dim>38</dim>
				</port>
			</output>
			<blobs>
				<biases offset="257560" size="1024"/>
				<weights offset="258584" size="9216"/>
			</blobs>
		</layer>
		<layer name="conv5/dw/relu" type="ReLU" precision="FP32" id="21">
			<data negative_slope="0.0"/>
			<input>
				<port id="0">
					<dim>1</dim>
					<dim>256</dim>
					<dim>38</dim>
					<dim>38</dim>
				</port>
			</input>
			<output>
				<port id="1">
					<dim>1</dim>
					<dim>256</dim>
					<dim>38</dim>
					<dim>38</dim>
				</port>
			</output>
		</layer>
		<layer name="conv5" type="Convolution" precision="FP32" id="22">
			<data dilations="1,1" group="1" kernel="1,1" output="256" pads_begin="0,0" pads_end="0,0" quantization_level="I8" strides="1,1"/>
			<input>
				<port id="0">
					<dim>1</dim>
					<dim>256</dim>
					<dim>38</dim>
					<dim>38</dim>
				</port>
			</input>
			<output>
				<port id="1">
					<dim>1</dim>
					<dim>256</dim>
					<dim>38</dim>
					<dim>38</dim>
				</port>
			</output>
			<blobs>
				<biases offset="267800" size="1024"/>
				<weights offset="268824" size="262144"/>
			</blobs>
		</layer>
		<layer name="conv5/relu" type="ReLU" precision="FP32" id="23">
			<data negative_slope="0.0"/>
			<input>
				<port id="0">
					<dim>1</dim>
					<dim>256</dim>
					<dim>38</dim>
					<dim>38</dim>
				</port>
			</input>
			<output>
				<port id="1">
					<dim>1</dim>
					<dim>256</dim>
					<dim>38</dim>
					<dim>38</dim>
				</port>
			</output>
		</layer>
		<layer name="conv6/dw" type="Convolution" precision="FP32" id="24">
			<data dilations="1,1" group="256" kernel="3,3" output="256" pads_begin="1,1" pads_end="1,1" quantization_level="I8" strides="2,2"/>
			<input>
				<port id="0">
					<dim>1</dim>
					<dim>256</dim>
					<dim>38</dim>
					<dim>38</dim>
				</port>
			</input>
			<output>
				<port id="1">
					<dim>1</dim>
					<dim>256</dim>
					<dim>19</dim>
					<dim>19</dim>
				</port>
			</output>
			<blobs>
				<biases offset="530968" size="1024"/>
				<weights offset="531992" size="9216"/>
			</blobs>
		</layer>
		<layer name="conv6/dw/relu" type="ReLU" precision="FP32" id="25">
			<data negative_slope="0.0"/>
			<input>
				<port id="0">
					<dim>1</dim>
					<dim>256</dim>
					<dim>19</dim>
					<dim>19</dim>
				</port>
			</input>
			<output>
				<port id="1">
					<dim>1</dim>
					<dim>256</dim>
					<dim>19</dim>
					<dim>19</dim>
				</port>
			</output>
		</layer>
		<layer name="conv6" type="Convolution" precision="FP32" id="26">
			<data dilations="1,1" group="1" kernel="1,1" output="512" pads_begin="0,0" pads_end="0,0" quantization_level="I8" strides="1,1"/>
			<input>
				<port id="0">
					<dim>1</dim>
					<dim>256</dim>
					<dim>19</dim>
					<dim>19</dim>
				</port>
			</input>
			<output>
				<port id="1">
					<dim>1</dim>
					<dim>512</dim>
					<dim>19</dim>
					<dim>19</dim>
				</port>
			</output>
			<blobs>
				<biases offset="541208" size="2048"/>
				<weights offset="543256" size="524288"/>
			</blobs>
		</layer>
		<layer name="conv6/relu" type="ReLU" precision="FP32" id="27">
			<data negative_slope="0.0"/>
			<input>
				<port id="0">
					<dim>1</dim>
					<dim>512</dim>
					<dim>19</dim>
					<dim>19</dim>
				</port>
			</input>
			<output>
				<port id="1">
					<dim>1</dim>
					<dim>512</dim>
					<dim>19</dim>
					<dim>19</dim>
				</port>
			</output>
		</layer>
		<layer name="conv7/dw" type="Convolution" precision="FP32" id="28">
			<data dilations="1,1" group="512" kernel="3,3" output="512" pads_begin="1,1" pads_end="1,1" quantization_level="I8" strides="1,1"/>
			<input>
				<port id="0">
					<dim>1</dim>
					<dim>512</dim>
					<dim>19</dim>
					<dim>19</dim>
				</port>
			</input>
			<output>
				<port id="1">
					<dim>1</dim>
					<dim>512</dim>
					<dim>19</dim>
					<dim>19</dim>
				</port>
			</output>
			<blobs>
				<biases offset="1067544" size="2048"/>
				<weights offset="1069592" size="18432"/>
			</blobs>
		</layer>
		<layer name="conv7/dw/relu" type="ReLU" precision="FP32" id="29">
			<data negative_slope="0.0"/>
			<input>
				<port id="0">
					<dim>1</dim>
					<dim>512</dim>
					<dim>19</dim>
					<dim>19</dim>
				</port>
			</input>
			<output>
				<port id="1">
					<dim>1</dim>
					<dim>512</dim>
					<dim>19</dim>
					<dim>19</dim>
				</port>
			</output>
		</layer>
		<layer name="conv7" type="Convolution" precision="FP32" id="30">
			<data dilations="1,1" group="1" kernel="1,1" output="512" pads_begin="0,0" pads_end="0,0" quantization_level="I8" strides="1,1"/>
			<input>
				<port id="0">
					<dim>1</dim>
					<dim>512</dim>
					<dim>19</dim>
					<dim>19</dim>
				</port>
			</input>
			<output>
				<port id="1">
					<dim>1</dim>
					<dim>512</dim>
					<dim>19</dim>
					<dim>19</dim>
				</port>
			</output>
			<blobs>
				<biases offset="1088024" size="2048"/>
				<weights offset="1090072" size="1048576"/>
			</blobs>
		</layer>
		<layer name="conv7/relu" type="ReLU" precision="FP32" id="31">
			<data negative_slope="0.0"/>
			<input>
				<port id="0">
					<dim>1</dim>
					<dim>512</dim>
					<dim>19</dim>
					<dim>19</dim>
				</port>
			</input>
			<output>
				<port id="1">
					<dim>1</dim>
					<dim>512</dim>
					<dim>19</dim>
					<dim>19</dim>
				</port>
			</output>
		</layer>
		<layer name="conv8/dw" type="Convolution" precision="FP32" id="32">
			<data dilations="1,1" group="512" kernel="3,3" output="512" pads_begin="1,1" pads_end="1,1" quantization_level="I8" strides="1,1"/>
			<input>
				<port id="0">
					<dim>1</dim>
					<dim>512</dim>
					<dim>19</dim>
					<dim>19</dim>
				</port>
			</input>
			<output>
				<port id="1">
					<dim>1</dim>
					<dim>512</dim>
					<dim>19</dim>
					<dim>19</dim>
				</port>
			</output>
			<blobs>
				<biases offset="2138648" size="2048"/>
				<weights offset="2140696" size="18432"/>
			</blobs>
		</layer>
		<layer name="conv8/dw/relu" type="ReLU" precision="FP32" id="33">
			<data negative_slope="0.0"/>
			<input>
				<port id="0">
					<dim>1</dim>
					<dim>512</dim>
					<dim>19</dim>
					<dim>19</dim>
				</port>
			</input>
			<output>
				<port id="1">
					<dim>1</dim>
					<dim>512</dim>
					<dim>19</dim>
					<dim>19</dim>
				</port>
			</output>
		</layer>
		<layer name="conv8" type="Convolution" precision="FP32" id="34">
			<data dilations="1,1" group="1" kernel="1,1" output="512" pads_begin="0,0" pads_end="0,0" quantization_level="I8" strides="1,1"/>
			<input>
				<port id="0">
					<dim>1</dim>
					<dim>512</dim>
					<dim>19</dim>
					<dim>19</dim>
				</port>
			</input>
			<output>
				<port id="1">
					<dim>1</dim>
					<dim>512</dim>
					<dim>19</dim>
					<dim>19</dim>
				</port>
			</output>
			<blobs>
				<biases offset="2159128" size="2048"/>
				<weights offset="2161176" size="1048576"/>
			</blobs>
		</layer>
		<layer name="conv8/relu" type="ReLU" precision="FP32" id="35">
			<data negative_slope="0.0"/>
			<input>
				<port id="0">
					<dim>1</dim>
					<dim>512</dim>
					<dim>19</dim>
					<dim>19</dim>
				</port>
			</input>
			<output>
				<port id="1">
					<dim>1</dim>
					<dim>512</dim>
					<dim>19</dim>
					<dim>19</dim>
				</port>
			</output>
		</layer>
		<layer name="conv9/dw" type="Convolution" precision="FP32" id="36">
			<data dilations="1,1" group="512" kernel="3,3" output="512" pads_begin="1,1" pads_end="1,1" quantization_level="I8" strides="1,1"/>
			<input>
				<port id="0">
					<dim>1</dim>
					<dim>512</dim>
					<dim>19</dim>
					<dim>19</dim>
				</port>
			</input>
			<output>
				<port id="1">
					<dim>1</dim>
					<dim>512</dim>
					<dim>19</dim>
					<dim>19</dim>
				</port>
			</output>
			<blobs>
				<biases offset="3209752" size="2048"/>
				<weights offset="3211800" size="18432"/>
			</blobs>
		</layer>
		<layer name="conv9/dw/relu" type="ReLU" precision="FP32" id="37">
			<data negative_slope="0.0"/>
			<input>
				<port id="0">
					<dim>1</dim>
					<dim>512</dim>
					<dim>19</dim>
					<dim>19</dim>
				</port>
			</input>
			<output>
				<port id="1">
					<dim>1</dim>
					<dim>512</dim>
					<dim>19</dim>
					<dim>19</dim>
				</port>
			</output>
		</layer>
		<layer name="conv9" type="Convolution" precision="FP32" id="38">
			<data dilations="1,1" group="1" kernel="1,1" output="512" pads_begin="0,0" pads_end="0,0" quantization_level="I8" strides="1,1"/>
			<input>
				<port id="0">
					<dim>1</dim>
					<dim>512</dim>
					<dim>19</dim>
					<dim>19</dim>
				</port>
			</input>
			<output>
				<port id="1">
					<dim>1</dim>
					<dim>512</dim>
					<dim>19</dim>
					<dim>19</dim>
				</port>
			</output>
			<blobs>
				<biases offset="3230232" size="2048"/>
				<weights offset="3232280" size="1048576"/>
			</blobs>
		</layer>
		<layer name="conv9/relu" type="ReLU" precision="FP32" id="39">
			<data negative_slope="0.0"/>
			<input>
				<port id="0">
					<dim>1</dim>
					<dim>512</dim>
					<dim>19</dim>
					<dim>19</dim>
				</port>
			</input>
			<output>
				<port id="1">
					<dim>1</dim>
					<dim>512</dim>
					<dim>19</dim>
					<dim>19</dim>
				</port>
			</output>
		</layer>
		<layer name="conv10/dw" type="Convolution" precision="FP32" id="40">
			<data dilations="1,1" group="512" kernel="3,3" output="512" pads_begin="1,1" pads_end="1,1" quantization_level="I8" strides="1,1"/>
			<input>
				<port id="0">
					<dim>1</dim>
					<dim>512</dim>
					<dim>19</dim>
					<dim>19</dim>
				</port>
			</input>
			<output>
				<port id="1">
					<dim>1</dim>
					<dim>512</dim>
					<dim>19</dim>
					<dim>19</dim>
				</port>
			</output>
			<blobs>
				<biases offset="4280856" size="2048"/>
				<weights offset="4282904" size="18432"/>
			</blobs>
		</layer>
		<layer name="conv10/dw/relu" type="ReLU" precision="FP32" id="41">
			<data negative_slope="0.0"/>
			<input>
				<port id="0">
					<dim>1</dim>
					<dim>512</dim>
					<dim>19</dim>
					<dim>19</dim>
				</port>
			</input>
			<output>
				<port id="1">
					<dim>1</dim>
					<dim>512</dim>
					<dim>19</dim>
					<dim>19</dim>
				</port>
			</output>
		</layer>
		<layer name="conv10" type="Convolution" precision="FP32" id="42">
			<data dilations="1,1" group="1" kernel="1,1" output="512" pads_begin="0,0" pads_end="0,0" quantization_level="I8" strides="1,1"/>
			<input>
				<port id="0">
					<dim>1</dim>
					<dim>512</dim>
					<dim>19</dim>
					<dim>19</dim>
				</port>
			</input>
			<output>
				<port id="1">
					<dim>1</dim>
					<dim>512</dim>
					<dim>19</dim>
					<dim>19</dim>
				</port>
			</output>
			<blobs>
				<biases offset="4301336" size="2048"/>
				<weights offset="4303384" size="1048576"/>
			</blobs>
		</layer>
		<layer name="conv10/relu" type="ReLU" precision="FP32" id="43">
			<data negative_slope="0.0"/>
			<input>
				<port id="0">
					<dim>1</dim>
					<dim>512</dim>
					<dim>19</dim>
					<dim>19</dim>
				</port>
			</input>
			<output>
				<port id="1">
					<dim>1</dim>
					<dim>512</dim>
					<dim>19</dim>
					<dim>19</dim>
				</port>
			</output>
		</layer>
		<layer name="conv11/dw" type="Convolution" precision="FP32" id="44">
			<data dilations="1,1" group="512" kernel="3,3" output="512" pads_begin="1,1" pads_end="1,1" quantization_level="I8" strides="1,1"/>
			<input>
				<port id="0">
					<dim>1</dim>
					<dim>512</dim>
					<dim>19</dim>
					<dim>19</dim>
				</port>
			</input>
			<output>
				<port id="1">
					<dim>1</dim>
					<dim>512</dim>
					<dim>19</dim>
					<dim>19</dim>
				</port>
			</output>
			<blobs>
				<biases offset="5351960" size="2048"/>
				<weights offset="5354008" size="18432"/>
			</blobs>
		</layer>
		<layer name="conv11/dw/relu" type="ReLU" precision="FP32" id="45">
			<data negative_slope="0.0"/>
			<input>
				<port id="0">
					<dim>1</dim>
					<dim>512</dim>
					<dim>19</dim>
					<dim>19</dim>
				</port>
			</input>
			<output>
				<port id="1">
					<dim>1</dim>
					<dim>512</dim>
					<dim>19</dim>
					<dim>19</dim>
				</port>
			</output>
		</layer>
		<layer name="conv11" type="Convolution" precision="FP32" id="46">
			<data dilations="1,1" group="1" kernel="1,1" output="512" pads_begin="0,0" pads_end="0,0" quantization_level="I8" strides="1,1"/>
			<input>
				<port id="0">
					<dim>1</dim>
					<dim>512</dim>
					<dim>19</dim>
					<dim>19</dim>
				</port>
			</input>
			<output>
				<port id="1">
					<dim>1</dim>
					<dim>512</dim>
					<dim>19</dim>
					<dim>19</dim>
				</port>
			</output>
			<blobs>
				<biases offset="5372440" size="2048"/>
				<weights offset="5374488" size="1048576"/>
			</blobs>
		</layer>
		<layer name="conv11/relu" type="ReLU" precision="FP32" id="47">
			<data negative_slope="0.0"/>
			<input>
				<port id="0">
					<dim>1</dim>
					<dim>512</dim>
					<dim>19</dim>
					<dim>19</dim>
				</port>
			</input>
			<output>
				<port id="1">
					<dim>1</dim>
					<dim>512</dim>
					<dim>19</dim>
					<dim>19</dim>
				</port>
			</output>
		</layer>
		<layer name="conv12/dw" type="Convolution" precision="FP32" id="48">
			<data dilations="1,1" group="512" kernel="3,3" output="512" pads_begin="1,1" pads_end="1,1" quantization_level="I8" strides="2,2"/>
			<input>
				<port id="0">
					<dim>1</dim>
					<dim>512</dim>
					<dim>19</dim>
					<dim>19</dim>
				</port>
			</input>
			<output>
				<port id="1">
					<dim>1</dim>
					<dim>512</dim>
					<dim>10</dim>
					<dim>10</dim>
				</port>
			</output>
			<blobs>
				<biases offset="6423064" size="2048"/>
				<weights offset="6425112" size="18432"/>
			</blobs>
		</layer>
		<layer name="conv12/dw/relu" type="ReLU" precision="FP32" id="49">
			<data negative_slope="0.0"/>
			<input>
				<port id="0">
					<dim>1</dim>
					<dim>512</dim>
					<dim>10</dim>
					<dim>10</dim>
				</port>
			</input>
			<output>
				<port id="1">
					<dim>1</dim>
					<dim>512</dim>
					<dim>10</dim>
					<dim>10</dim>
				</port>
			</output>
		</layer>
		<layer name="conv12" type="Convolution" precision="FP32" id="50">
			<data dilations="1,1" group="1" kernel="1,1" output="1024" pads_begin="0,0" pads_end="0,0" quantization_level="I8" strides="1,1"/>
			<input>
				<port id="0">
					<dim>1</dim>
					<dim>512</dim>
					<dim>10</dim>
					<dim>10</dim>
				</port>
			</input>
			<output>
				<port id="1">
					<dim>1</dim>
					<dim>1024</dim>
					<dim>10</dim>
					<dim>10</dim>
				</port>
			</output>
			<blobs>
				<biases offset="6443544" size="4096"/>
				<weights offset="6447640" size="2097152"/>
			</blobs>
		</layer>
		<layer name="conv12/relu" type="ReLU" precision="FP32" id="51">
			<data negative_slope="0.0"/>
			<input>
				<port id="0">
					<dim>1</dim>
					<dim>1024</dim>
					<dim>10</dim>
					<dim>10</dim>
				</port>
			</input>
			<output>
				<port id="1">
					<dim>1</dim>
					<dim>1024</dim>
					<dim>10</dim>
					<dim>10</dim>
				</port>
			</output>
		</layer>
		<layer name="conv13/dw" type="Convolution" precision="FP32" id="52">
			<data dilations="1,1" group="1024" kernel="3,3" output="1024" pads_begin="1,1" pads_end="1,1" quantization_level="I8" strides="1,1"/>
			<input>
				<port id="0">
					<dim>1</dim>
					<dim>1024</dim>
					<dim>10</dim>
					<dim>10</dim>
				</port>
			</input>
			<output>
				<port id="1">
					<dim>1</dim>
					<dim>1024</dim>
					<dim>10</dim>
					<dim>10</dim>
				</port>
			</output>
			<blobs>
				<biases offset="8544792" size="4096"/>
				<weights offset="8548888" size="36864"/>
			</blobs>
		</layer>
		<layer name="conv13/dw/relu" type="ReLU" precision="FP32" id="53">
			<data negative_slope="0.0"/>
			<input>
				<port id="0">
					<dim>1</dim>
					<dim>1024</dim>
					<dim>10</dim>
					<dim>10</dim>
				</port>
			</input>
			<output>
				<port id="1">
					<dim>1</dim>
					<dim>1024</dim>
					<dim>10</dim>
					<dim>10</dim>
				</port>
			</output>
		</layer>
		<layer name="conv13" type="Convolution" precision="FP32" id="54">
			<data dilations="1,1" group="1" kernel="1,1" output="1024" pads_begin="0,0" pads_end="0,0" quantization_level="I8" strides="1,1"/>
			<input>
				<port id="0">
					<dim>1</dim>
					<dim>1024</dim>
					<dim>10</dim>
					<dim>10</dim>
				</port>
			</input>
			<output>
				<port id="1">
					<dim>1</dim>
					<dim>1024</dim>
					<dim>10</dim>
					<dim>10</dim>
				</port>
			</output>
			<blobs>
				<biases offset="8585752" size="4096"/>
				<weights offset="8589848" size="4194304"/>
			</blobs>
		</layer>
		<layer name="conv13/relu" type="ReLU" precision="FP32" id="55">
			<data negative_slope="0.0"/>
			<input>
				<port id="0">
					<dim>1</dim>
					<dim>1024</dim>
					<dim>10</dim>
					<dim>10</dim>
				</port>
			</input>
			<output>
				<port id="1">
					<dim>1</dim>
					<dim>1024</dim>
					<dim>10</dim>
					<dim>10</dim>
				</port>
			</output>
		</layer>
		<layer name="conv14_1" type="Convolution" precision="FP32" id="56">
			<data dilations="1,1" group="1" kernel="1,1" output="256" pads_begin="0,0" pads_end="0,0" quantization_level="I8" strides="1,1"/>
			<input>
				<port id="0">
					<dim>1</dim>
					<dim>1024</dim>
					<dim>10</dim>
					<dim>10</dim>
				</port>
			</input>
			<output>
				<port id="1">
					<dim>1</dim>
					<dim>256</dim>
					<dim>10</dim>
					<dim>10</dim>
				</port>
			</output>
			<blobs>
				<biases offset="12784152" size="1024"/>
				<weights offset="12785176" size="1048576"/>
			</blobs>
		</layer>
		<layer name="conv14_1/relu" type="ReLU" precision="FP32" id="57">
			<data negative_slope="0.0"/>
			<input>
				<port id="0">
					<dim>1</dim>
					<dim>256</dim>
					<dim>10</dim>
					<dim>10</dim>
				</port>
			</input>
			<output>
				<port id="1">
					<dim>1</dim>
					<dim>256</dim>
					<dim>10</dim>
					<dim>10</dim>
				</port>
			</output>
		</layer>
		<layer name="conv14_2" type="Convolution" precision="FP32" id="58">
			<data dilations="1,1" group="1" kernel="3,3" output="512" pads_begin="1,1" pads_end="1,1" quantization_level="I8" strides="2,2"/>
			<input>
				<port id="0">
					<dim>1</dim>
					<dim>256</dim>
					<dim>10</dim>
					<dim>10</dim>
				</port>
			</input>
			<output>
				<port id="1">
					<dim>1</dim>
					<dim>512</dim>
					<dim>5</dim>
					<dim>5</dim>
				</port>
			</output>
			<blobs>
				<biases offset="13833752" size="2048"/>
				<weights offset="13835800" size="4718592"/>
			</blobs>
		</layer>
		<layer name="conv14_2/relu" type="ReLU" precision="FP32" id="59">
			<data negative_slope="0.0"/>
			<input>
				<port id="0">
					<dim>1</dim>
					<dim>512</dim>
					<dim>5</dim>
					<dim>5</dim>
				</port>
			</input>
			<output>
				<port id="1">
					<dim>1</dim>
					<dim>512</dim>
					<dim>5</dim>
					<dim>5</dim>
				</port>
			</output>
		</layer>
		<layer name="conv15_1" type="Convolution" precision="FP32" id="60">
			<data dilations="1,1" group="1" kernel="1,1" output="128" pads_begin="0,0" pads_end="0,0" quantization_level="I8" strides="1,1"/>
			<input>
				<port id="0">
					<dim>1</dim>
					<dim>512</dim>
					<dim>5</dim>
					<dim>5</dim>
				</port>
			</input>
			<output>
				<port id="1">
					<dim>1</dim>
					<dim>128</dim>
					<dim>5</dim>
					<dim>5</dim>
				</port>
			</output>
			<blobs>
				<biases offset="18554392" size="512"/>
				<weights offset="18554904" size="262144"/>
			</blobs>
		</layer>
		<layer name="conv15_1/relu" type="ReLU" precision="FP32" id="61">
			<data negative_slope="0.0"/>
			<input>
				<port id="0">
					<dim>1</dim>
					<dim>128</dim>
					<dim>5</dim>
					<dim>5</dim>
				</port>
			</input>
			<output>
				<port id="1">
					<dim>1</dim>
					<dim>128</dim>
					<dim>5</dim>
					<dim>5</dim>
				</port>
			</output>
		</layer>
		<layer name="conv15_2" type="Convolution" precision="FP32" id="62">
			<data dilations="1,1" group="1" kernel="3,3" output="256" pads_begin="1,1" pads_end="1,1" quantization_level="I8" strides="2,2"/>
			<input>
				<port id="0">
					<dim>1</dim>
					<dim>128</dim>
					<dim>5</dim>
					<dim>5</dim>
				</port>
			</input>
			<output>
				<port id="1">
					<dim>1</dim>
					<dim>256</dim>
					<dim>3</dim>
					<dim>3</dim>
				</port>
			</output>
			<blobs>
				<biases offset="18817048" size="1024"/>
				<weights offset="18818072" size="1179648"/>
			</blobs>
		</layer>
		<layer name="conv15_2/relu" type="ReLU" precision="FP32" id="63">
			<data negative_slope="0.0"/>
			<input>
				<port id="0">
					<dim>1</dim>
					<dim>256</dim>
					<dim>3</dim>
					<dim>3</dim>
				</port>
			</input>
			<output>
				<port id="1">
					<dim>1</dim>
					<dim>256</dim>
					<dim>3</dim>
					<dim>3</dim>
				</port>
			</output>
		</layer>
		<layer name="conv16_1" type="Convolution" precision="FP32" id="64">
			<data dilations="1,1" group="1" kernel="1,1" output="128" pads_begin="0,0" pads_end="0,0" quantization_level="FP32" strides="1,1"/>
			<input>
				<port id="0">
					<dim>1</dim>
					<dim>256</dim>
					<dim>3</dim>
					<dim>3</dim>
				</port>
			</input>
			<output>
				<port id="1">
					<dim>1</dim>
					<dim>128</dim>
					<dim>3</dim>
					<dim>3</dim>
				</port>
			</output>
			<blobs>
				<biases offset="19997720" size="512"/>
				<weights offset="19998232" size="131072"/>
			</blobs>
		</layer>
		<layer name="conv16_1/relu" type="ReLU" precision="FP32" id="65">
			<data negative_slope="0.0"/>
			<input>
				<port id="0">
					<dim>1</dim>
					<dim>128</dim>
					<dim>3</dim>
					<dim>3</dim>
				</port>
			</input>
			<output>
				<port id="1">
					<dim>1</dim>
					<dim>128</dim>
					<dim>3</dim>
					<dim>3</dim>
				</port>
			</output>
		</layer>
		<layer name="conv16_2" type="Convolution" precision="FP32" id="66">
			<data dilations="1,1" group="1" kernel="3,3" output="256" pads_begin="1,1" pads_end="1,1" quantization_level="FP32" strides="2,2"/>
			<input>
				<port id="0">
					<dim>1</dim>
					<dim>128</dim>
					<dim>3</dim>
					<dim>3</dim>
				</port>
			</input>
			<output>
				<port id="1">
					<dim>1</dim>
					<dim>256</dim>
					<dim>2</dim>
					<dim>2</dim>
				</port>
			</output>
			<blobs>
				<biases offset="20129304" size="1024"/>
				<weights offset="20130328" size="1179648"/>
			</blobs>
		</layer>
		<layer name="conv16_2/relu" type="ReLU" precision="FP32" id="67">
			<data negative_slope="0.0"/>
			<input>
				<port id="0">
					<dim>1</dim>
					<dim>256</dim>
					<dim>2</dim>
					<dim>2</dim>
				</port>
			</input>
			<output>
				<port id="1">
					<dim>1</dim>
					<dim>256</dim>
					<dim>2</dim>
					<dim>2</dim>
				</port>
			</output>
		</layer>
		<layer name="conv17_1" type="Convolution" precision="FP32" id="68">
			<data dilations="1,1" group="1" kernel="1,1" output="64" pads_begin="0,0" pads_end="0,0" quantization_level="I8" strides="1,1"/>
			<input>
				<port id="0">
					<dim>1</dim>
					<dim>256</dim>
					<dim>2</dim>
					<dim>2</dim>
				</port>
			</input>
			<output>
				<port id="1">
					<dim>1</dim>
					<dim>64</dim>
					<dim>2</dim>
					<dim>2</dim>
				</port>
			</output>
			<blobs>
				<biases offset="21309976" size="256"/>
				<weights offset="21310232" size="65536"/>
			</blobs>
		</layer>
		<layer name="conv17_1/relu" type="ReLU" precision="FP32" id="69">
			<data negative_slope="0.0"/>
			<input>
				<port id="0">
					<dim>1</dim>
					<dim>64</dim>
					<dim>2</dim>
					<dim>2</dim>
				</port>
			</input>
			<output>
				<port id="1">
					<dim>1</dim>
					<dim>64</dim>
					<dim>2</dim>
					<dim>2</dim>
				</port>
			</output>
		</layer>
		<layer name="conv17_2" type="Convolution" precision="FP32" id="70">
			<data dilations="1,1" group="1" kernel="3,3" output="128" pads_begin="1,1" pads_end="1,1" quantization_level="I8" strides="2,2"/>
			<input>
				<port id="0">
					<dim>1</dim>
					<dim>64</dim>
					<dim>2</dim>
					<dim>2</dim>
				</port>
			</input>
			<output>
				<port id="1">
					<dim>1</dim>
					<dim>128</dim>
					<dim>1</dim>
					<dim>1</dim>
				</port>
			</output>
			<blobs>
				<biases offset="21375768" size="512"/>
				<weights offset="21376280" size="294912"/>
			</blobs>
		</layer>
		<layer name="conv17_2/relu" type="ReLU" precision="FP32" id="71">
			<data negative_slope="0.0"/>
			<input>
				<port id="0">
					<dim>1</dim>
					<dim>128</dim>
					<dim>1</dim>
					<dim>1</dim>
				</port>
			</input>
			<output>
				<port id="1">
					<dim>1</dim>
					<dim>128</dim>
					<dim>1</dim>
					<dim>1</dim>
				</port>
			</output>
		</layer>
		<layer name="conv17_2_mbox_priorbox" type="PriorBox" precision="FP32" id="72">
			<data aspect_ratio="2.0,3.0" clip="0" flip="1" max_size="300.0" min_size="285.0" offset="0.5" variance="0.10000000149011612,0.10000000149011612,0.20000000298023224,0.20000000298023224"/>
			<input>
				<port id="0">
					<dim>1</dim>
					<dim>128</dim>
					<dim>1</dim>
					<dim>1</dim>
				</port>
				<port id="1">
					<dim>1</dim>
					<dim>3</dim>
					<dim>300</dim>
					<dim>300</dim>
				</port>
			</input>
			<output>
				<port id="2">
					<dim>1</dim>
					<dim>2</dim>
					<dim>24</dim>
				</port>
			</output>
		</layer>
		<layer name="conv17_2_mbox_loc" type="Convolution" precision="FP32" id="73">
			<data dilations="1,1" group="1" kernel="1,1" output="24" pads_begin="0,0" pads_end="0,0" quantization_level="I8" strides="1,1"/>
			<input>
				<port id="0">
					<dim>1</dim>
					<dim>128</dim>
					<dim>1</dim>
					<dim>1</dim>
				</port>
			</input>
			<output>
				<port id="1">
					<dim>1</dim>
					<dim>24</dim>
					<dim>1</dim>
					<dim>1</dim>
				</port>
			</output>
			<blobs>
				<biases offset="21671192" size="96"/>
				<weights offset="21671288" size="12288"/>
			</blobs>
		</layer>
		<layer name="conv17_2_mbox_loc_perm" type="Permute" precision="FP32" id="74">
			<data order="0,2,3,1"/>
			<input>
				<port id="0">
					<dim>1</dim>
					<dim>24</dim>
					<dim>1</dim>
					<dim>1</dim>
				</port>
			</input>
			<output>
				<port id="1">
					<dim>1</dim>
					<dim>1</dim>
					<dim>1</dim>
					<dim>24</dim>
				</port>
			</output>
		</layer>
		<layer name="conv17_2_mbox_loc_flat" type="Flatten" precision="FP32" id="75">
			<data axis="1" end_axis="-1"/>
			<input>
				<port id="0">
					<dim>1</dim>
					<dim>1</dim>
					<dim>1</dim>
					<dim>24</dim>
				</port>
			</input>
			<output>
				<port id="1">
					<dim>1</dim>
					<dim>24</dim>
				</port>
			</output>
		</layer>
		<layer name="conv17_2_mbox_conf" type="Convolution" precision="FP32" id="76">
			<data dilations="1,1" group="1" kernel="1,1" output="126" pads_begin="0,0" pads_end="0,0" quantization_level="I8" strides="1,1"/>
			<input>
				<port id="0">
					<dim>1</dim>
					<dim>128</dim>
					<dim>1</dim>
					<dim>1</dim>
				</port>
			</input>
			<output>
				<port id="1">
					<dim>1</dim>
					<dim>126</dim>
					<dim>1</dim>
					<dim>1</dim>
				</port>
			</output>
			<blobs>
				<biases offset="21683576" size="504"/>
				<weights offset="21684080" size="64512"/>
			</blobs>
		</layer>
		<layer name="conv17_2_mbox_conf_perm" type="Permute" precision="FP32" id="77">
			<data order="0,2,3,1"/>
			<input>
				<port id="0">
					<dim>1</dim>
					<dim>126</dim>
					<dim>1</dim>
					<dim>1</dim>
				</port>
			</input>
			<output>
				<port id="1">
					<dim>1</dim>
					<dim>1</dim>
					<dim>1</dim>
					<dim>126</dim>
				</port>
			</output>
		</layer>
		<layer name="conv17_2_mbox_conf_flat" type="Flatten" precision="FP32" id="78">
			<data axis="1" end_axis="-1"/>
			<input>
				<port id="0">
					<dim>1</dim>
					<dim>1</dim>
					<dim>1</dim>
					<dim>126</dim>
				</port>
			</input>
			<output>
				<port id="1">
					<dim>1</dim>
					<dim>126</dim>
				</port>
			</output>
		</layer>
		<layer name="conv16_2_mbox_priorbox" type="PriorBox" precision="FP32" id="79">
			<data aspect_ratio="2.0,3.0" clip="0" flip="1" max_size="285.0" min_size="240.0" offset="0.5" variance="0.10000000149011612,0.10000000149011612,0.20000000298023224,0.20000000298023224"/>
			<input>
				<port id="0">
					<dim>1</dim>
					<dim>256</dim>
					<dim>2</dim>
					<dim>2</dim>
				</port>
				<port id="1">
					<dim>1</dim>
					<dim>3</dim>
					<dim>300</dim>
					<dim>300</dim>
				</port>
			</input>
			<output>
				<port id="2">
					<dim>1</dim>
					<dim>2</dim>
					<dim>96</dim>
				</port>
			</output>
		</layer>
		<layer name="conv16_2_mbox_loc" type="Convolution" precision="FP32" id="80">
			<data dilations="1,1" group="1" kernel="1,1" output="24" pads_begin="0,0" pads_end="0,0" quantization_level="I8" strides="1,1"/>
			<input>
				<port id="0">
					<dim>1</dim>
					<dim>256</dim>
					<dim>2</dim>
					<dim>2</dim>
				</port>
			</input>
			<output>
				<port id="1">
					<dim>1</dim>
					<dim>24</dim>
					<dim>2</dim>
					<dim>2</dim>
				</port>
			</output>
			<blobs>
				<biases offset="21748592" size="96"/>
				<weights offset="21748688" size="24576"/>
			</blobs>
		</layer>
		<layer name="conv16_2_mbox_loc_perm" type="Permute" precision="FP32" id="81">
			<data order="0,2,3,1"/>
			<input>
				<port id="0">
					<dim>1</dim>
					<dim>24</dim>
					<dim>2</dim>
					<dim>2</dim>
				</port>
			</input>
			<output>
				<port id="1">
					<dim>1</dim>
					<dim>2</dim>
					<dim>2</dim>
					<dim>24</dim>
				</port>
			</output>
		</layer>
		<layer name="conv16_2_mbox_loc_flat" type="Flatten" precision="FP32" id="82">
			<data axis="1" end_axis="-1"/>
			<input>
				<port id="0">
					<dim>1</dim>
					<dim>2</dim>
					<dim>2</dim>
					<dim>24</dim>
				</port>
			</input>
			<output>
				<port id="1">
					<dim>1</dim>
					<dim>96</dim>
				</port>
			</output>
		</layer>
		<layer name="conv16_2_mbox_conf" type="Convolution" precision="FP32" id="83">
			<data dilations="1,1" group="1" kernel="1,1" output="126" pads_begin="0,0" pads_end="0,0" quantization_level="I8" strides="1,1"/>
			<input>
				<port id="0">
					<dim>1</dim>
					<dim>256</dim>
					<dim>2</dim>
					<dim>2</dim>
				</port>
			</input>
			<output>
				<port id="1">
					<dim>1</dim>
					<dim>126</dim>
					<dim>2</dim>
					<dim>2</dim>
				</port>
			</output>
			<blobs>
				<biases offset="21773264" size="504"/>
				<weights offset="21773768" size="129024"/>
			</blobs>
		</layer>
		<layer name="conv16_2_mbox_conf_perm" type="Permute" precision="FP32" id="84">
			<data order="0,2,3,1"/>
			<input>
				<port id="0">
					<dim>1</dim>
					<dim>126</dim>
					<dim>2</dim>
					<dim>2</dim>
				</port>
			</input>
			<output>
				<port id="1">
					<dim>1</dim>
					<dim>2</dim>
					<dim>2</dim>
					<dim>126</dim>
				</port>
			</output>
		</layer>
		<layer name="conv16_2_mbox_conf_flat" type="Flatten" precision="FP32" id="85">
			<data axis="1" end_axis="-1"/>
			<input>
				<port id="0">
					<dim>1</dim>
					<dim>2</dim>
					<dim>2</dim>
					<dim>126</dim>
				</port>
			</input>
			<output>
				<port id="1">
					<dim>1</dim>
					<dim>504</dim>
				</port>
			</output>
		</layer>
		<layer name="conv15_2_mbox_priorbox" type="PriorBox" precision="FP32" id="86">
			<data aspect_ratio="2.0,3.0" clip="0" flip="1" max_size="240.0" min_size="195.0" offset="0.5" variance="0.10000000149011612,0.10000000149011612,0.20000000298023224,0.20000000298023224"/>
			<input>
				<port id="0">
					<dim>1</dim>
					<dim>256</dim>
					<dim>3</dim>
					<dim>3</dim>
				</port>
				<port id="1">
					<dim>1</dim>
					<dim>3</dim>
					<dim>300</dim>
					<dim>300</dim>
				</port>
			</input>
			<output>
				<port id="2">
					<dim>1</dim>
					<dim>2</dim>
					<dim>216</dim>
				</port>
			</output>
		</layer>
		<layer name="conv15_2_mbox_loc" type="Convolution" precision="FP32" id="87">
			<data dilations="1,1" group="1" kernel="1,1" output="24" pads_begin="0,0" pads_end="0,0" quantization_level="I8" strides="1,1"/>
			<input>
				<port id="0">
					<dim>1</dim>
					<dim>256</dim>
					<dim>3</dim>
					<dim>3</dim>
				</port>
			</input>
			<output>
				<port id="1">
					<dim>1</dim>
					<dim>24</dim>
					<dim>3</dim>
					<dim>3</dim>
				</port>
			</output>
			<blobs>
				<biases offset="21902792" size="96"/>
				<weights offset="21902888" size="24576"/>
			</blobs>
		</layer>
		<layer name="conv15_2_mbox_loc_perm" type="Permute" precision="FP32" id="88">
			<data order="0,2,3,1"/>
			<input>
				<port id="0">
					<dim>1</dim>
					<dim>24</dim>
					<dim>3</dim>
					<dim>3</dim>
				</port>
			</input>
			<output>
				<port id="1">
					<dim>1</dim>
					<dim>3</dim>
					<dim>3</dim>
					<dim>24</dim>
				</port>
			</output>
		</layer>
		<layer name="conv15_2_mbox_loc_flat" type="Flatten" precision="FP32" id="89">
			<data axis="1" end_axis="-1"/>
			<input>
				<port id="0">
					<dim>1</dim>
					<dim>3</dim>
					<dim>3</dim>
					<dim>24</dim>
				</port>
			</input>
			<output>
				<port id="1">
					<dim>1</dim>
					<dim>216</dim>
				</port>
			</output>
		</layer>
		<layer name="conv15_2_mbox_conf" type="Convolution" precision="FP32" id="90">
			<data dilations="1,1" group="1" kernel="1,1" output="126" pads_begin="0,0" pads_end="0,0" quantization_level="I8" strides="1,1"/>
			<input>
				<port id="0">
					<dim>1</dim>
					<dim>256</dim>
					<dim>3</dim>
					<dim>3</dim>
				</port>
			</input>
			<output>
				<port id="1">
					<dim>1</dim>
					<dim>126</dim>
					<dim>3</dim>
					<dim>3</dim>
				</port>
			</output>
			<blobs>
				<biases offset="21927464" size="504"/>
				<weights offset="21927968" size="129024"/>
			</blobs>
		</layer>
		<layer name="conv15_2_mbox_conf_perm" type="Permute" precision="FP32" id="91">
			<data order="0,2,3,1"/>
			<input>
				<port id="0">
					<dim>1</dim>
					<dim>126</dim>
					<dim>3</dim>
					<dim>3</dim>
				</port>
			</input>
			<output>
				<port id="1">
					<dim>1</dim>
					<dim>3</dim>
					<dim>3</dim>
					<dim>126</dim>
				</port>
			</output>
		</layer>
		<layer name="conv15_2_mbox_conf_flat" type="Flatten" precision="FP32" id="92">
			<data axis="1" end_axis="-1"/>
			<input>
				<port id="0">
					<dim>1</dim>
					<dim>3</dim>
					<dim>3</dim>
					<dim>126</dim>
				</port>
			</input>
			<output>
				<port id="1">
					<dim>1</dim>
					<dim>1134</dim>
				</port>
			</output>
		</layer>
		<layer name="conv14_2_mbox_priorbox" type="PriorBox" precision="FP32" id="93">
			<data aspect_ratio="2.0,3.0" clip="0" flip="1" max_size="195.0" min_size="150.0" offset="0.5" variance="0.10000000149011612,0.10000000149011612,0.20000000298023224,0.20000000298023224"/>
			<input>
				<port id="0">
					<dim>1</dim>
					<dim>512</dim>
					<dim>5</dim>
					<dim>5</dim>
				</port>
				<port id="1">
					<dim>1</dim>
					<dim>3</dim>
					<dim>300</dim>
					<dim>300</dim>
				</port>
			</input>
			<output>
				<port id="2">
					<dim>1</dim>
					<dim>2</dim>
					<dim>600</dim>
				</port>
			</output>
		</layer>
		<layer name="conv14_2_mbox_loc" type="Convolution" precision="FP32" id="94">
			<data dilations="1,1" group="1" kernel="1,1" output="24" pads_begin="0,0" pads_end="0,0" quantization_level="I8" strides="1,1"/>
			<input>
				<port id="0">
					<dim>1</dim>
					<dim>512</dim>
					<dim>5</dim>
					<dim>5</dim>
				</port>
			</input>
			<output>
				<port id="1">
					<dim>1</dim>
					<dim>24</dim>
					<dim>5</dim>
					<dim>5</dim>
				</port>
			</output>
			<blobs>
				<biases offset="22056992" size="96"/>
				<weights offset="22057088" size="49152"/>
			</blobs>
		</layer>
		<layer name="conv14_2_mbox_loc_perm" type="Permute" precision="FP32" id="95">
			<data order="0,2,3,1"/>
			<input>
				<port id="0">
					<dim>1</dim>
					<dim>24</dim>
					<dim>5</dim>
					<dim>5</dim>
				</port>
			</input>
			<output>
				<port id="1">
					<dim>1</dim>
					<dim>5</dim>
					<dim>5</dim>
					<dim>24</dim>
				</port>
			</output>
		</layer>
		<layer name="conv14_2_mbox_loc_flat" type="Flatten" precision="FP32" id="96">
			<data axis="1" end_axis="-1"/>
			<input>
				<port id="0">
					<dim>1</dim>
					<dim>5</dim>
					<dim>5</dim>
					<dim>24</dim>
				</port>
			</input>
			<output>
				<port id="1">
					<dim>1</dim>
					<dim>600</dim>
				</port>
			</output>
		</layer>
		<layer name="conv14_2_mbox_conf" type="Convolution" precision="FP32" id="97">
			<data dilations="1,1" group="1" kernel="1,1" output="126" pads_begin="0,0" pads_end="0,0" quantization_level="I8" strides="1,1"/>
			<input>
				<port id="0">
					<dim>1</dim>
					<dim>512</dim>
					<dim>5</dim>
					<dim>5</dim>
				</port>
			</input>
			<output>
				<port id="1">
					<dim>1</dim>
					<dim>126</dim>
					<dim>5</dim>
					<dim>5</dim>
				</port>
			</output>
			<blobs>
				<biases offset="22106240" size="504"/>
				<weights offset="22106744" size="258048"/>
			</blobs>
		</layer>
		<layer name="conv14_2_mbox_conf_perm" type="Permute" precision="FP32" id="98">
			<data order="0,2,3,1"/>
			<input>
				<port id="0">
					<dim>1</dim>
					<dim>126</dim>
					<dim>5</dim>
					<dim>5</dim>
				</port>
			</input>
			<output>
				<port id="1">
					<dim>1</dim>
					<dim>5</dim>
					<dim>5</dim>
					<dim>126</dim>
				</port>
			</output>
		</layer>
		<layer name="conv14_2_mbox_conf_flat" type="Flatten" precision="FP32" id="99">
			<data axis="1" end_axis="-1"/>
			<input>
				<port id="0">
					<dim>1</dim>
					<dim>5</dim>
					<dim>5</dim>
					<dim>126</dim>
				</port>
			</input>
			<output>
				<port id="1">
					<dim>1</dim>
					<dim>3150</dim>
				</port>
			</output>
		</layer>
		<layer name="conv13_mbox_priorbox" type="PriorBox" precision="FP32" id="100">
			<data aspect_ratio="2.0,3.0" clip="0" flip="1" max_size="150.0" min_size="105.0" offset="0.5" variance="0.10000000149011612,0.10000000149011612,0.20000000298023224,0.20000000298023224"/>
			<input>
				<port id="0">
					<dim>1</dim>
					<dim>1024</dim>
					<dim>10</dim>
					<dim>10</dim>
				</port>
				<port id="1">
					<dim>1</dim>
					<dim>3</dim>
					<dim>300</dim>
					<dim>300</dim>
				</port>
			</input>
			<output>
				<port id="2">
					<dim>1</dim>
					<dim>2</dim>
					<dim>2400</dim>
				</port>
			</output>
		</layer>
		<layer name="conv13_mbox_loc" type="Convolution" precision="FP32" id="101">
			<data dilations="1,1" group="1" kernel="1,1" output="24" pads_begin="0,0" pads_end="0,0" quantization_level="I8" strides="1,1"/>
			<input>
				<port id="0">
					<dim>1</dim>
					<dim>1024</dim>
					<dim>10</dim>
					<dim>10</dim>
				</port>
			</input>
			<output>
				<port id="1">
					<dim>1</dim>
					<dim>24</dim>
					<dim>10</dim>
					<dim>10</dim>
				</port>
			</output>
			<blobs>
				<biases offset="22364792" size="96"/>
				<weights offset="22364888" size="98304"/>
			</blobs>
		</layer>
		<layer name="conv13_mbox_loc_perm" type="Permute" precision="FP32" id="102">
			<data order="0,2,3,1"/>
			<input>
				<port id="0">
					<dim>1</dim>
					<dim>24</dim>
					<dim>10</dim>
					<dim>10</dim>
				</port>
			</input>
			<output>
				<port id="1">
					<dim>1</dim>
					<dim>10</dim>
					<dim>10</dim>
					<dim>24</dim>
				</port>
			</output>
		</layer>
		<layer name="conv13_mbox_loc_flat" type="Flatten" precision="FP32" id="103">
			<data axis="1" end_axis="-1"/>
			<input>
				<port id="0">
					<dim>1</dim>
					<dim>10</dim>
					<dim>10</dim>
					<dim>24</dim>
				</port>
			</input>
			<output>
				<port id="1">
					<dim>1</dim>
					<dim>2400</dim>
				</port>
			</output>
		</layer>
		<layer name="conv13_mbox_conf" type="Convolution" precision="FP32" id="104">
			<data dilations="1,1" group="1" kernel="1,1" output="126" pads_begin="0,0" pads_end="0,0" quantization_level="I8" strides="1,1"/>
			<input>
				<port id="0">
					<dim>1</dim>
					<dim>1024</dim>
					<dim>10</dim>
					<dim>10</dim>
				</port>
			</input>
			<output>
				<port id="1">
					<dim>1</dim>
					<dim>126</dim>
					<dim>10</dim>
					<dim>10</dim>
				</port>
			</output>
			<blobs>
				<biases offset="22463192" size="504"/>
				<weights offset="22463696" size="516096"/>
			</blobs>
		</layer>
		<layer name="conv13_mbox_conf_perm" type="Permute" precision="FP32" id="105">
			<data order="0,2,3,1"/>
			<input>
				<port id="0">
					<dim>1</dim>
					<dim>126</dim>
					<dim>10</dim>
					<dim>10</dim>
				</port>
			</input>
			<output>
				<port id="1">
					<dim>1</dim>
					<dim>10</dim>
					<dim>10</dim>
					<dim>126</dim>
				</port>
			</output>
		</layer>
		<layer name="conv13_mbox_conf_flat" type="Flatten" precision="FP32" id="106">
			<data axis="1" end_axis="-1"/>
			<input>
				<port id="0">
					<dim>1</dim>
					<dim>10</dim>
					<dim>10</dim>
					<dim>126</dim>
				</port>
			</input>
			<output>
				<port id="1">
					<dim>1</dim>
					<dim>12600</dim>
				</port>
			</output>
		</layer>
		<layer name="conv11_mbox_priorbox" type="PriorBox" precision="FP32" id="107">
			<data aspect_ratio="2.0" clip="0" flip="1" max_size="" min_size="60.0" offset="0.5" variance="0.10000000149011612,0.10000000149011612,0.20000000298023224,0.20000000298023224"/>
			<input>
				<port id="0">
					<dim>1</dim>
					<dim>512</dim>
					<dim>19</dim>
					<dim>19</dim>
				</port>
				<port id="1">
					<dim>1</dim>
					<dim>3</dim>
					<dim>300</dim>
					<dim>300</dim>
				</port>
			</input>
			<output>
				<port id="2">
					<dim>1</dim>
					<dim>2</dim>
					<dim>4332</dim>
				</port>
			</output>
		</layer>
		<layer name="mbox_priorbox" type="Concat" precision="FP32" id="108">
			<data axis="2"/>
			<input>
				<port id="0">
					<dim>1</dim>
					<dim>2</dim>
					<dim>4332</dim>
				</port>
				<port id="1">
					<dim>1</dim>
					<dim>2</dim>
					<dim>2400</dim>
				</port>
				<port id="2">
					<dim>1</dim>
					<dim>2</dim>
					<dim>600</dim>
				</port>
				<port id="3">
					<dim>1</dim>
					<dim>2</dim>
					<dim>216</dim>
				</port>
				<port id="4">
					<dim>1</dim>
					<dim>2</dim>
					<dim>96</dim>
				</port>
				<port id="5">
					<dim>1</dim>
					<dim>2</dim>
					<dim>24</dim>
				</port>
			</input>
			<output>
				<port id="6">
					<dim>1</dim>
					<dim>2</dim>
					<dim>7668</dim>
				</port>
			</output>
		</layer>
		<layer name="conv11_mbox_loc" type="Convolution" precision="FP32" id="109">
			<data dilations="1,1" group="1" kernel="1,1" output="12" pads_begin="0,0" pads_end="0,0" quantization_level="I8" strides="1,1"/>
			<input>
				<port id="0">
					<dim>1</dim>
					<dim>512</dim>
					<dim>19</dim>
					<dim>19</dim>
				</port>
			</input>
			<output>
				<port id="1">
					<dim>1</dim>
					<dim>12</dim>
					<dim>19</dim>
					<dim>19</dim>
				</port>
			</output>
			<blobs>
				<biases offset="22979792" size="48"/>
				<weights offset="22979840" size="24576"/>
			</blobs>
		</layer>
		<layer name="conv11_mbox_loc_perm" type="Permute" precision="FP32" id="110">
			<data order="0,2,3,1"/>
			<input>
				<port id="0">
					<dim>1</dim>
					<dim>12</dim>
					<dim>19</dim>
					<dim>19</dim>
				</port>
			</input>
			<output>
				<port id="1">
					<dim>1</dim>
					<dim>19</dim>
					<dim>19</dim>
					<dim>12</dim>
				</port>
			</output>
		</layer>
		<layer name="conv11_mbox_loc_flat" type="Flatten" precision="FP32" id="111">
			<data axis="1" end_axis="-1"/>
			<input>
				<port id="0">
					<dim>1</dim>
					<dim>19</dim>
					<dim>19</dim>
					<dim>12</dim>
				</port>
			</input>
			<output>
				<port id="1">
					<dim>1</dim>
					<dim>4332</dim>
				</port>
			</output>
		</layer>
		<layer name="mbox_loc" type="Concat" precision="FP32" id="112">
			<data axis="1"/>
			<input>
				<port id="0">
					<dim>1</dim>
					<dim>4332</dim>
				</port>
				<port id="1">
					<dim>1</dim>
					<dim>2400</dim>
				</port>
				<port id="2">
					<dim>1</dim>
					<dim>600</dim>
				</port>
				<port id="3">
					<dim>1</dim>
					<dim>216</dim>
				</port>
				<port id="4">
					<dim>1</dim>
					<dim>96</dim>
				</port>
				<port id="5">
					<dim>1</dim>
					<dim>24</dim>
				</port>
			</input>
			<output>
				<port id="6">
					<dim>1</dim>
					<dim>7668</dim>
				</port>
			</output>
		</layer>
		<layer name="conv11_mbox_conf" type="Convolution" precision="FP32" id="113">
			<data dilations="1,1" group="1" kernel="1,1" output="63" pads_begin="0,0" pads_end="0,0" quantization_level="I8" strides="1,1"/>
			<input>
				<port id="0">
					<dim>1</dim>
					<dim>512</dim>
					<dim>19</dim>
					<dim>19</dim>
				</port>
			</input>
			<output>
				<port id="1">
					<dim>1</dim>
					<dim>63</dim>
					<dim>19</dim>
					<dim>19</dim>
				</port>
			</output>
			<blobs>
				<biases offset="23004416" size="252"/>
				<weights offset="23004668" size="129024"/>
			</blobs>
		</layer>
		<layer name="conv11_mbox_conf_perm" type="Permute" precision="FP32" id="114">
			<data order="0,2,3,1"/>
			<input>
				<port id="0">
					<dim>1</dim>
					<dim>63</dim>
					<dim>19</dim>
					<dim>19</dim>
				</port>
			</input>
			<output>
				<port id="1">
					<dim>1</dim>
					<dim>19</dim>
					<dim>19</dim>
					<dim>63</dim>
				</port>
			</output>
		</layer>
		<layer name="conv11_mbox_conf_flat" type="Flatten" precision="FP32" id="115">
			<data axis="1" end_axis="-1"/>
			<input>
				<port id="0">
					<dim>1</dim>
					<dim>19</dim>
					<dim>19</dim>
					<dim>63</dim>
				</port>
			</input>
			<output>
				<port id="1">
					<dim>1</dim>
					<dim>22743</dim>
				</port>
			</output>
		</layer>
		<layer name="mbox_conf" type="Concat" precision="FP32" id="116">
			<data axis="1"/>
			<input>
				<port id="0">
					<dim>1</dim>
					<dim>22743</dim>
				</port>
				<port id="1">
					<dim>1</dim>
					<dim>12600</dim>
				</port>
				<port id="2">
					<dim>1</dim>
					<dim>3150</dim>
				</port>
				<port id="3">
					<dim>1</dim>
					<dim>1134</dim>
				</port>
				<port id="4">
					<dim>1</dim>
					<dim>504</dim>
				</port>
				<port id="5">
					<dim>1</dim>
					<dim>126</dim>
				</port>
			</input>
			<output>
				<port id="6">
					<dim>1</dim>
					<dim>40257</dim>
				</port>
			</output>
		</layer>
		<layer name="mbox_conf_reshape" type="Reshape" precision="FP32" id="117">
			<data axis="0" dim="0,-1,21" num_axes="-1"/>
			<input>
				<port id="0">
					<dim>1</dim>
					<dim>40257</dim>
				</port>
			</input>
			<output>
				<port id="1">
					<dim>1</dim>
					<dim>1917</dim>
					<dim>21</dim>
				</port>
			</output>
		</layer>
		<layer name="mbox_conf_softmax" type="SoftMax" precision="FP32" id="118">
			<data axis="2"/>
			<input>
				<port id="0">
					<dim>1</dim>
					<dim>1917</dim>
					<dim>21</dim>
				</port>
			</input>
			<output>
				<port id="1">
					<dim>1</dim>
					<dim>1917</dim>
					<dim>21</dim>
				</port>
			</output>
		</layer>
		<layer name="mbox_conf_flatten" type="Flatten" precision="FP32" id="119">
			<data axis="1" end_axis="-1"/>
			<input>
				<port id="0">
					<dim>1</dim>
					<dim>1917</dim>
					<dim>21</dim>
				</port>
			</input>
			<output>
				<port id="1">
					<dim>1</dim>
					<dim>40257</dim>
				</port>
			</output>
		</layer>
		<layer name="detection_out" type="DetectionOutput" precision="FP32" id="120">
			<data background_label_id="0" code_type="caffe.PriorBoxParameter.CENTER_SIZE" confidence_threshold="0.009999999776482582" eta="1.0" input_height="1" input_width="1" keep_top_k="200" nms_threshold="0.44999998807907104" normalized="1" num_classes="21" share_location="1" top_k="400" variance_encoded_in_target="0" visualize="False"/>
			<input>
				<port id="0">
					<dim>1</dim>
					<dim>7668</dim>
				</port>
				<port id="1">
					<dim>1</dim>
					<dim>40257</dim>
				</port>
				<port id="2">
					<dim>1</dim>
					<dim>2</dim>
					<dim>7668</dim>
				</port>
			</input>
			<output>
				<port id="3">
					<dim>1</dim>
					<dim>1</dim>
					<dim>200</dim>
					<dim>7</dim>
				</port>
			</output>
		</layer>
	</layers>
	<edges>
		<edge from-layer="0" from-port="0" to-layer="1" to-port="0"/>
		<edge from-layer="1" from-port="1" to-layer="2" to-port="0"/>
		<edge from-layer="1" from-port="1" to-layer="107" to-port="1"/>
		<edge from-layer="1" from-port="1" to-layer="100" to-port="1"/>
		<edge from-layer="1" from-port="1" to-layer="93" to-port="1"/>
		<edge from-layer="1" from-port="1" to-layer="86" to-port="1"/>
		<edge from-layer="1" from-port="1" to-layer="79" to-port="1"/>
		<edge from-layer="1" from-port="1" to-layer="72" to-port="1"/>
		<edge from-layer="2" from-port="1" to-layer="3" to-port="0"/>
		<edge from-layer="3" from-port="1" to-layer="4" to-port="0"/>
		<edge from-layer="4" from-port="1" to-layer="5" to-port="0"/>
		<edge from-layer="5" from-port="1" to-layer="6" to-port="0"/>
		<edge from-layer="6" from-port="1" to-layer="7" to-port="0"/>
		<edge from-layer="7" from-port="1" to-layer="8" to-port="0"/>
		<edge from-layer="8" from-port="1" to-layer="9" to-port="0"/>
		<edge from-layer="9" from-port="1" to-layer="10" to-port="0"/>
		<edge from-layer="10" from-port="1" to-layer="11" to-port="0"/>
		<edge from-layer="11" from-port="1" to-layer="12" to-port="0"/>
		<edge from-layer="12" from-port="1" to-layer="13" to-port="0"/>
		<edge from-layer="13" from-port="1" to-layer="14" to-port="0"/>
		<edge from-layer="14" from-port="1" to-layer="15" to-port="0"/>
		<edge from-layer="15" from-port="1" to-layer="16" to-port="0"/>
		<edge from-layer="16" from-port="1" to-layer="17" to-port="0"/>
		<edge from-layer="17" from-port="1" to-layer="18" to-port="0"/>
		<edge from-layer="18" from-port="1" to-layer="19" to-port="0"/>
		<edge from-layer="19" from-port="1" to-layer="20" to-port="0"/>
		<edge from-layer="20" from-port="1" to-layer="21" to-port="0"/>
		<edge from-layer="21" from-port="1" to-layer="22" to-port="0"/>
		<edge from-layer="22" from-port="1" to-layer="23" to-port="0"/>
		<edge from-layer="23" from-port="1" to-layer="24" to-port="0"/>
		<edge from-layer="24" from-port="1" to-layer="25" to-port="0"/>
		<edge from-layer="25" from-port="1" to-layer="26" to-port="0"/>
		<edge from-layer="26" from-port="1" to-layer="27" to-port="0"/>
		<edge from-layer="27" from-port="1" to-layer="28" to-port="0"/>
		<edge from-layer="28" from-port="1" to-layer="29" to-port="0"/>
		<edge from-layer="29" from-port="1" to-layer="30" to-port="0"/>
		<edge from-layer="30" from-port="1" to-layer="31" to-port="0"/>
		<edge from-layer="31" from-port="1" to-layer="32" to-port="0"/>
		<edge from-layer="32" from-port="1" to-layer="33" to-port="0"/>
		<edge from-layer="33" from-port="1" to-layer="34" to-port="0"/>
		<edge from-layer="34" from-port="1" to-layer="35" to-port="0"/>
		<edge from-layer="35" from-port="1" to-layer="36" to-port="0"/>
		<edge from-layer="36" from-port="1" to-layer="37" to-port="0"/>
		<edge from-layer="37" from-port="1" to-layer="38" to-port="0"/>
		<edge from-layer="38" from-port="1" to-layer="39" to-port="0"/>
		<edge from-layer="39" from-port="1" to-layer="40" to-port="0"/>
		<edge from-layer="40" from-port="1" to-layer="41" to-port="0"/>
		<edge from-layer="41" from-port="1" to-layer="42" to-port="0"/>
		<edge from-layer="42" from-port="1" to-layer="43" to-port="0"/>
		<edge from-layer="43" from-port="1" to-layer="44" to-port="0"/>
		<edge from-layer="44" from-port="1" to-layer="45" to-port="0"/>
		<edge from-layer="45" from-port="1" to-layer="46" to-port="0"/>
		<edge from-layer="46" from-port="1" to-layer="47" to-port="0"/>
		<edge from-layer="47" from-port="1" to-layer="113" to-port="0"/>
		<edge from-layer="47" from-port="1" to-layer="109" to-port="0"/>
		<edge from-layer="47" from-port="1" to-layer="107" to-port="0"/>
		<edge from-layer="47" from-port="1" to-layer="48" to-port="0"/>
		<edge from-layer="48" from-port="1" to-layer="49" to-port="0"/>
		<edge from-layer="49" from-port="1" to-layer="50" to-port="0"/>
		<edge from-layer="50" from-port="1" to-layer="51" to-port="0"/>
		<edge from-layer="51" from-port="1" to-layer="52" to-port="0"/>
		<edge from-layer="52" from-port="1" to-layer="53" to-port="0"/>
		<edge from-layer="53" from-port="1" to-layer="54" to-port="0"/>
		<edge from-layer="54" from-port="1" to-layer="55" to-port="0"/>
		<edge from-layer="55" from-port="1" to-layer="104" to-port="0"/>
		<edge from-layer="55" from-port="1" to-layer="101" to-port="0"/>
		<edge from-layer="55" from-port="1" to-layer="100" to-port="0"/>
		<edge from-layer="55" from-port="1" to-layer="56" to-port="0"/>
		<edge from-layer="56" from-port="1" to-layer="57" to-port="0"/>
		<edge from-layer="57" from-port="1" to-layer="58" to-port="0"/>
		<edge from-layer="58" from-port="1" to-layer="59" to-port="0"/>
		<edge from-layer="59" from-port="1" to-layer="97" to-port="0"/>
		<edge from-layer="59" from-port="1" to-layer="94" to-port="0"/>
		<edge from-layer="59" from-port="1" to-layer="93" to-port="0"/>
		<edge from-layer="59" from-port="1" to-layer="60" to-port="0"/>
		<edge from-layer="60" from-port="1" to-layer="61" to-port="0"/>
		<edge from-layer="61" from-port="1" to-layer="62" to-port="0"/>
		<edge from-layer="62" from-port="1" to-layer="63" to-port="0"/>
		<edge from-layer="63" from-port="1" to-layer="90" to-port="0"/>
		<edge from-layer="63" from-port="1" to-layer="87" to-port="0"/>
		<edge from-layer="63" from-port="1" to-layer="86" to-port="0"/>
		<edge from-layer="63" from-port="1" to-layer="64" to-port="0"/>
		<edge from-layer="64" from-port="1" to-layer="65" to-port="0"/>
		<edge from-layer="65" from-port="1" to-layer="66" to-port="0"/>
		<edge from-layer="66" from-port="1" to-layer="67" to-port="0"/>
		<edge from-layer="67" from-port="1" to-layer="83" to-port="0"/>
		<edge from-layer="67" from-port="1" to-layer="80" to-port="0"/>
		<edge from-layer="67" from-port="1" to-layer="79" to-port="0"/>
		<edge from-layer="67" from-port="1" to-layer="68" to-port="0"/>
		<edge from-layer="68" from-port="1" to-layer="69" to-port="0"/>
		<edge from-layer="69" from-port="1" to-layer="70" to-port="0"/>
		<edge from-layer="70" from-port="1" to-layer="71" to-port="0"/>
		<edge from-layer="71" from-port="1" to-layer="76" to-port="0"/>
		<edge from-layer="71" from-port="1" to-layer="73" to-port="0"/>
		<edge from-layer="71" from-port="1" to-layer="72" to-port="0"/>
		<edge from-layer="72" from-port="2" to-layer="108" to-port="5"/>
		<edge from-layer="73" from-port="1" to-layer="74" to-port="0"/>
		<edge from-layer="74" from-port="1" to-layer="75" to-port="0"/>
		<edge from-layer="75" from-port="1" to-layer="112" to-port="5"/>
		<edge from-layer="76" from-port="1" to-layer="77" to-port="0"/>
		<edge from-layer="77" from-port="1" to-layer="78" to-port="0"/>
		<edge from-layer="78" from-port="1" to-layer="116" to-port="5"/>
		<edge from-layer="79" from-port="2" to-layer="108" to-port="4"/>
		<edge from-layer="80" from-port="1" to-layer="81" to-port="0"/>
		<edge from-layer="81" from-port="1" to-layer="82" to-port="0"/>
		<edge from-layer="82" from-port="1" to-layer="112" to-port="4"/>
		<edge from-layer="83" from-port="1" to-layer="84" to-port="0"/>
		<edge from-layer="84" from-port="1" to-layer="85" to-port="0"/>
		<edge from-layer="85" from-port="1" to-layer="116" to-port="4"/>
		<edge from-layer="86" from-port="2" to-layer="108" to-port="3"/>
		<edge from-layer="87" from-port="1" to-layer="88" to-port="0"/>
		<edge from-layer="88" from-port="1" to-layer="89" to-port="0"/>
		<edge from-layer="89" from-port="1" to-layer="112" to-port="3"/>
		<edge from-layer="90" from-port="1" to-layer="91" to-port="0"/>
		<edge from-layer="91" from-port="1" to-layer="92" to-port="0"/>
		<edge from-layer="92" from-port="1" to-layer="116" to-port="3"/>
		<edge from-layer="93" from-port="2" to-layer="108" to-port="2"/>
		<edge from-layer="94" from-port="1" to-layer="95" to-port="0"/>
		<edge from-layer="95" from-port="1" to-layer="96" to-port="0"/>
		<edge from-layer="96" from-port="1" to-layer="112" to-port="2"/>
		<edge from-layer="97" from-port="1" to-layer="98" to-port="0"/>
		<edge from-layer="98" from-port="1" to-layer="99" to-port="0"/>
		<edge from-layer="99" from-port="1" to-layer="116" to-port="2"/>
		<edge from-layer="100" from-port="2" to-layer="108" to-port="1"/>
		<edge from-layer="101" from-port="1" to-layer="102" to-port="0"/>
		<edge from-layer="102" from-port="1" to-layer="103" to-port="0"/>
		<edge from-layer="103" from-port="1" to-layer="112" to-port="1"/>
		<edge from-layer="104" from-port="1" to-layer="105" to-port="0"/>
		<edge from-layer="105" from-port="1" to-layer="106" to-port="0"/>
		<edge from-layer="106" from-port="1" to-layer="116" to-port="1"/>
		<edge from-layer="107" from-port="2" to-layer="108" to-port="0"/>
		<edge from-layer="108" from-port="6" to-layer="120" to-port="2"/>
		<edge from-layer="109" from-port="1" to-layer="110" to-port="0"/>
		<edge from-layer="110" from-port="1" to-layer="111" to-port="0"/>
		<edge from-layer="111" from-port="1" to-layer="112" to-port="0"/>
		<edge from-layer="112" from-port="6" to-layer="120" to-port="0"/>
		<edge from-layer="113" from-port="1" to-layer="114" to-port="0"/>
		<edge from-layer="114" from-port="1" to-layer="115" to-port="0"/>
		<edge from-layer="115" from-port="1" to-layer="116" to-port="0"/>
		<edge from-layer="116" from-port="6" to-layer="117" to-port="0"/>
		<edge from-layer="117" from-port="1" to-layer="118" to-port="0"/>
		<edge from-layer="118" from-port="1" to-layer="119" to-port="0"/>
		<edge from-layer="119" from-port="1" to-layer="120" to-port="1"/>
	</edges>
	<statistics>
		<layer>
			<name>Mul1_/Fused_Mul_/FusedScaleShift_</name>
			<min>-1.000000, -1.000000, -1.000000</min>
			<max>1.000000, 1.000000, 1.000000</max>
		</layer>
		<layer>
			<name>conv0</name>
			<min>… 0.257965</min>
			<max>… 2.390480</max>
		</layer>
		<layer>
			<name>conv0/relu</name>
			<min>… 0.257965</min>
			<max>… 2.390480</max>
		</layer>
		<layer>
			<name>conv1</name>
			<min>… -1.947464</min>
			<max>… 7.168524</max>
		</layer>
		<layer>
			<name>conv1/dw</name>
			<min>… -7.809968</min>
			<max>… 2.840685</max>
		</layer>
		<layer>
			<name>conv1/dw/relu</name>
			<min>… -0.000000</min>
			<max>… 2.840685</max>
		</layer>
		<layer>
			<name>conv1/relu</name>
			<min>… -0.000000</min>
			<max>… 7.168524</max>
		</layer>
		<layer>
			<name>conv10</name>
			<min>… -1.801691</min>
			<max>… 3.912476</max>
		</layer>
		<layer>
			<name>conv10/dw</name>
			<min>… -0.914575</min>
			<max>… 3.749209</max>
		</layer>
		<layer>
			<name>conv10/dw/relu</name>
			<min>… -0.000000</min>
			<max>… 3.749209</max>
		</layer>
		<layer>
			<name>conv10/relu</name>
			<min>… -0.000000</min>
			<max>… 3.912476</max>
		</layer>
		<layer>
			<name>conv11</name>
			<min>… -1.772219</min>
			<max>… 1.236740</max>
		</layer>
		<layer>
			<name>conv11/dw</name>
			<min>… -1.031674</min>
			<max>… 3.144824</max>
		</layer>
		<layer>
			<name>conv11/dw/relu</name>
			<min>… -0.000000</min>
			<max>… 3.144824</max>
		</layer>
		<layer>
			<name>conv11/relu</name>
			<min>… -0.000000</min>
			<max>… 1.236740</max>
		</layer>
		<layer>
			<name>conv11_mbox_conf</name>
			<min>… -193.904755</min>
			<max>… 0.000000</max>
		</layer>
		<layer>
			<name>conv11_mbox_conf_flat</name>
			<min>-289.546783</min>
			<max>0.000000</max>
		</layer>
		<layer>
			<name>conv11_mbox_conf_perm</name>
			<min>… -127.082649</min>
			<max>… 0.000000</max>
		</layer>
		<layer>
			<name>conv11_mbox_loc</name>
			<min>-3.492205, -4.441654, -13.678790, -12.956884, -3.517344, -4.101623, -15.730532, -11.383554, -4.006676, -4.774395, -12.118210, -15.304674</min>
			<max>4.264431, 4.736601, 3.306419, 3.393357, 4.513747, 4.185853, 3.255685, 3.402143, 3.620801, 4.991652, 3.481210, 3.341627</max>
		</layer>
		<layer>
			<name>conv11_mbox_loc_flat</name>
			<min>-16.494110</min>
			<max>5.071408</max>
		</layer>
		<layer>
			<name>conv11_mbox_loc_perm</name>
			<min>… -13.677714</min>
			<max>… 2.967053</max>
		</layer>
		<layer>
			<name>conv11_mbox_priorbox</name>
			<min/>
			<max/>
		</layer>
		<layer>
			<name>conv12</name>
			<min>… 0.854670</min>
			<max>… 2.752579</max>
		</layer>
		<layer>
			<name>conv12/dw</name>
			<min>… 0.332875</min>
			<max>… 3.573292</max>
		</layer>
		<layer>
			<name>conv12/dw/relu</name>
			<min>… 0.332875</min>
			<max>… 3.573292</max>
		</layer>
		<layer>
			<name>conv12/relu</name>
			<min>… 0.854670</min>
			<max>… 2.752579</max>
		</layer>
		<layer>
			<name>conv13</name>
			<min>… -28.892517</min>
			<max>… 0.000000</max>
		</layer>
		<layer>
			<name>conv13/dw</name>
			<min>… -7.892043</min>
			<max>… 2.684997</max>
		</layer>
		<layer>
			<name>conv13/dw/relu</name>
			<min>… -0.000000</min>
			<max>… 2.684997</max>
		</layer>
		<layer>
			<name>conv13/relu</name>
			<min>… -0.000000</min>
			<max>… 0.000000</max>
		</layer>
		<layer>
			<name>conv13_mbox_conf</name>
			<min>… -343.202362</min>
			<max>… 0.000000</max>
		</layer>
		<layer>
			<name>conv13_mbox_conf_flat</name>
			<min>-451.870667</min>
			<max>10.486270</max>
		</layer>
		<layer>
			<name>conv13_mbox_conf_perm</name>
			<min>-450.051208, -129.646851, -122.728065, -88.656960, -95.441971, -99.278015, -94.336227, -102.543564, -94.103188, -447.082825</min>
			<max>10.337923, 10.034616, 0.000000, 0.000000, 0.000000, 0.000000, 0.000000, 0.000000, 2.972469, 7.600560</max>
		</layer>
		<layer>
			<name>conv13_mbox_loc</name>
			<min>… -23.411877</min>
			<max>… 2.208140</max>
		</layer>
		<layer>
			<name>conv13_mbox_loc_flat</name>
			<min>-30.786119</min>
			<max>17.513948</max>
		</layer>
		<layer>
			<name>conv13_mbox_loc_perm</name>
			<min>-30.786119, -5.166546, -4.299763, -4.091530, -4.148116, -3.927544, -4.137535, -3.868507, -3.975218, -25.886406</min>
			<max>17.513948, 3.260985, 3.705132, 3.941560, 3.785957, 3.845180, 3.743312, 3.650450, 3.316501, 12.512003</max>
		</layer>
		<layer>
			<name>conv13_mbox_priorbox</name>
			<min/>
			<max/>
		</layer>
		<layer>
			<name>conv14_1</name>
			<min>… -2.215278</min>
			<max>… 0.821568</max>
		</layer>
		<layer>
			<name>conv14_1/relu</name>
			<min>… -0.000000</min>
			<max>… 0.821568</max>
		</layer>
		<layer>
			<name>conv14_2</name>
			<min>… -1.630728</min>
			<max>… 2.346292</max>
		</layer>
		<layer>
			<name>conv14_2/relu</name>
			<min>… -0.000000</min>
			<max>… 2.346292</max>
		</layer>
		<layer>
			<name>conv14_2_mbox_conf</name>
			<min>… -84.201233</min>
			<max>… 0.000000</max>
		</layer>
		<layer>
			<name>conv14_2_mbox_conf_flat</name>
			<min>-104.121971</min>
			<max>0.000000</max>
		</layer>
		<layer>
			<name>conv14_2_mbox_conf_perm</name>
			<min>-97.137993, -71.522690, -88.395813, -81.503326, -96.584183</min>
			<max>0.000000, 0.000000, 0.000000, 0.000000, 0.000000</max>
		</layer>
		<layer>
			<name>conv14_2_mbox_loc</name>
			<min>… -3.414938</min>
			<max>… 0.975035</max>
		</layer>
		<layer>
			<name>conv14_2_mbox_loc_flat</name>
			<min>-3.829029</min>
			<max>3.771509</max>
		</layer>
		<layer>
			<name>conv14_2_mbox_loc_perm</name>
			<min>-2.983091, -3.177490, -3.676821, -3.625721, -3.458116</min>
			<max>3.284242, 3.512757, 3.621296, 3.336895, 3.132995</max>
		</layer>
		<layer>
			<name>conv14_2_mbox_priorbox</name>
			<min/>
			<max/>
		</layer>
		<layer>
			<name>conv15_1</name>
			<min>… -1.196824</min>
			<max>… 0.952577</max>
		</layer>
		<layer>
			<name>conv15_1/relu</name>
			<min>… -0.000000</min>
			<max>… 0.952577</max>
		</layer>
		<layer>
			<name>conv15_2</name>
			<min>… -1.775123</min>
			<max>… 2.010312</max>
		</layer>
		<layer>
			<name>conv15_2/relu</name>
			<min>… -0.000000</min>
			<max>… 2.010312</max>
		</layer>
		<layer>
			<name>conv15_2_mbox_conf</name>
			<min>… -77.590034</min>
			<max>… 0.000000</max>
		</layer>
		<layer>
			<name>conv15_2_mbox_conf_flat</name>
			<min>-89.479935</min>
			<max>0.000000</max>
		</layer>
		<layer>
			<name>conv15_2_mbox_conf_perm</name>
			<min>-86.170105, -77.637611, -76.147911</min>
			<max>0.000000, 0.000000, 0.000000</max>
		</layer>
		<layer>
			<name>conv15_2_mbox_loc</name>
			<min>… -3.153662</min>
			<max>… 0.000000</max>
		</layer>
		<layer>
			<name>conv15_2_mbox_loc_flat</name>
			<min>-3.515473</min>
			<max>3.607175</max>
		</layer>
		<layer>
			<name>conv15_2_mbox_loc_perm</name>
			<min>-2.884757, -3.462731, -3.261461</min>
			<max>3.361201, 3.571378, 2.305574</max>
		</layer>
		<layer>
			<name>conv15_2_mbox_priorbox</name>
			<min/>
			<max/>
		</layer>
		<layer>
			<name>conv16_1</name>
			<min>… -1.316073</min>
			<max>… 1.030735</max>
		</layer>
		<layer>
			<name>conv16_1/relu</name>
			<min>… -0.000000</min>
			<max>… 1.030735</max>
		</layer>
		<layer>
			<name>conv16_2</name>
			<min>… -0.511277</min>
			<max>… 0.410448</max>
		</layer>
		<layer>
			<name>conv16_2/relu</name>
			<min>… -0.000000</min>
			<max>… 0.410448</max>
		</layer>
		<layer>
			<name>conv16_2_mbox_conf</name>
			<min>… -73.503540</min>
			<max>… 0.000000</max>
		</layer>
		<layer>
			<name>conv16_2_mbox_conf_flat</name>
			<min>-86.855240</min>
			<max>0.000000</max>
		</layer>
		<layer>
			<name>conv16_2_mbox_conf_perm</name>
			<min>-85.688904, -84.092117</min>
			<max>0.000000, 0.000000</max>
		</layer>
		<layer>
			<name>conv16_2_mbox_loc</name>
			<min>… -3.034500</min>
			<max>… 0.000000</max>
		</layer>
		<layer>
			<name>conv16_2_mbox_loc_flat</name>
			<min>-3.100996</min>
			<max>2.410309</max>
		</layer>
		<layer>
			<name>conv16_2_mbox_loc_perm</name>
			<min>-2.813596, -3.100996</min>
			<max>2.410244, 2.227903</max>
		</layer>
		<layer>
			<name>conv16_2_mbox_priorbox</name>
			<min/>
			<max/>
		</layer>
		<layer>
			<name>conv17_1</name>
			<min>… -0.744731</min>
			<max>… 1.033789</max>
		</layer>
		<layer>
			<name>conv17_1/relu</name>
			<min>… -0.000000</min>
			<max>… 1.033789</max>
		</layer>
		<layer>
			<name>conv17_2</name>
			<min>… -1.072832</min>
			<max>… 2.760808</max>
		</layer>
		<layer>
			<name>conv17_2/relu</name>
			<min>… -0.000000</min>
			<max>… 2.760808</max>
		</layer>
		<layer>
			<name>conv17_2_mbox_conf</name>
			<min>… -130.164642</min>
			<max>… 0.000000</max>
		</layer>
		<layer>
			<name>conv17_2_mbox_conf_flat</name>
			<min>-136.776428</min>
			<max>0.000000</max>
		</layer>
		<layer>
			<name>conv17_2_mbox_conf_perm</name>
			<min>-136.776428</min>
			<max>0.000000</max>
		</layer>
		<layer>
			<name>conv17_2_mbox_loc</name>
			<min>… -3.607579</min>
			<max>… 0.000000</max>
		</layer>
		<layer>
			<name>conv17_2_mbox_loc_flat</name>
			<min>-3.607579</min>
			<max>2.107959</max>
		</layer>
		<layer>
			<name>conv17_2_mbox_loc_perm</name>
			<min>-3.607579</min>
			<max>2.107959</max>
		</layer>
		<layer>
			<name>conv17_2_mbox_priorbox</name>
			<min/>
			<max/>
		</layer>
		<layer>
			<name>conv2</name>
			<min>… -1.394431</min>
			<max>… 7.652017</max>
		</layer>
		<layer>
			<name>conv2/dw</name>
			<min>… -8.821071</min>
			<max>… 10.028425</max>
		</layer>
		<layer>
			<name>conv2/dw/relu</name>
			<min>… -0.000000</min>
			<max>… 10.028425</max>
		</layer>
		<layer>
			<name>conv2/relu</name>
			<min>… -0.000000</min>
			<max>… 7.652017</max>
		</layer>
		<layer>
			<name>conv3</name>
			<min>… -12.056809</min>
			<max>… 8.286158</max>
		</layer>
		<layer>
			<name>conv3/dw</name>
			<min>… -11.438038</min>
			<max>… 13.082112</max>
		</layer>
		<layer>
			<name>conv3/dw/relu</name>
			<min>… -0.000000</min>
			<max>… 13.082112</max>
		</layer>
		<layer>
			<name>conv3/relu</name>
			<min>… -0.000000</min>
			<max>… 8.286158</max>
		</layer>
		<layer>
			<name>conv4</name>
			<min>… -2.498184</min>
			<max>… 4.885894</max>
		</layer>
		<layer>
			<name>conv4/dw</name>
			<min>… 0.224767</min>
			<max>… 8.658377</max>
		</layer>
		<layer>
			<name>conv4/dw/relu</name>
			<min>… 0.224767</min>
			<max>… 8.658377</max>
		</layer>
		<layer>
			<name>conv4/relu</name>
			<min>… -0.000000</min>
			<max>… 4.885894</max>
		</layer>
		<layer>
			<name>conv5</name>
			<min>… -5.997024</min>
			<max>… 7.072348</max>
		</layer>
		<layer>
			<name>conv5/dw</name>
			<min>… -8.232790</min>
			<max>… 8.410584</max>
		</layer>
		<layer>
			<name>conv5/dw/relu</name>
			<min>… -0.000000</min>
			<max>… 8.410584</max>
		</layer>
		<layer>
			<name>conv5/relu</name>
			<min>… -0.000000</min>
			<max>… 7.072348</max>
		</layer>
		<layer>
			<name>conv6</name>
			<min>… -1.246580</min>
			<max>… 3.810673</max>
		</layer>
		<layer>
			<name>conv6/dw</name>
			<min>… -1.583221</min>
			<max>… 4.290557</max>
		</layer>
		<layer>
			<name>conv6/dw/relu</name>
			<min>… -0.000000</min>
			<max>… 4.290557</max>
		</layer>
		<layer>
			<name>conv6/relu</name>
			<min>… -0.000000</min>
			<max>… 3.810673</max>
		</layer>
		<layer>
			<name>conv7</name>
			<min>… -0.880844</min>
			<max>… 3.048132</max>
		</layer>
		<layer>
			<name>conv7/dw</name>
			<min>… -0.235750</min>
			<max>… 5.220340</max>
		</layer>
		<layer>
			<name>conv7/dw/relu</name>
			<min>… -0.000000</min>
			<max>… 5.220340</max>
		</layer>
		<layer>
			<name>conv7/relu</name>
			<min>… -0.000000</min>
			<max>… 3.048132</max>
		</layer>
		<layer>
			<name>conv8</name>
			<min>… -4.781232</min>
			<max>… 6.620409</max>
		</layer>
		<layer>
			<name>conv8/dw</name>
			<min>… -0.203794</min>
			<max>… 4.473897</max>
		</layer>
		<layer>
			<name>conv8/dw/relu</name>
			<min>… -0.000000</min>
			<max>… 4.473897</max>
		</layer>
		<layer>
			<name>conv8/relu</name>
			<min>… -0.000000</min>
			<max>… 6.620409</max>
		</layer>
		<layer>
			<name>conv9</name>
			<min>… -4.409749</min>
			<max>… 4.971372</max>
		</layer>
		<layer>
			<name>conv9/dw</name>
			<min>… -4.353806</min>
			<max>… 9.059203</max>
		</layer>
		<layer>
			<name>conv9/dw/relu</name>
			<min>… -0.000000</min>
			<max>… 9.059203</max>
		</layer>
		<layer>
			<name>conv9/relu</name>
			<min>… -0.000000</min>
			<max>… 4.971372</max>
		</layer>
		<layer>
			<name>data</name>
			<min>0.000000, 0.000000, 0.000000</min>
			<max>255.000000, 255.000000, 255.000000</max>
		</layer>
		<layer>
			<name>detection_out</name>
			<min>-1.000000</min>
			<max>20.000000</max>
		</layer>
		<layer>
			<name>mbox_conf</name>
			<min>-451.870667</min>
			<max>10.486270</max>
		</layer>
		<layer>
			<name>mbox_conf_flatten</name>
			<min>0.000000</min>
			<max>1.000000</max>
		</layer>
		<layer>
			<name>mbox_conf_reshape</name>
			<min/>
			<max/>
		</layer>
		<layer>
			<name>mbox_conf_softmax</name>
			<min/>
			<max/>
		</layer>
		<layer>
			<name>mbox_loc</name>
			<min>-30.786119</min>
			<max>17.513948</max>
		</layer>
		<layer>
			<name>mbox_priorbox</name>
			<min/>
			<max/>
		</layer>
		<layer>
			<name>scaleshifted_input:Mul1_/Fused_Mul_/FusedScaleShift_</name>
			<min/>
			<max/>
		</layer>
	</statistics>
</net>